pretrained_weights/best_onet.pth (torch_old, 904400 bytes, 21 tensors)

features.conv1.weight f4 [32, 3, 3, 3]
000000 49 d6 1f 3e 1e 0b 9a 3d 90 bf 08 be d8 f5 77 3d
       0.15609087 0.07521652 -0.13354325 0.06053719
000010 5a cf 67 be 5c bb 97 bd 09 dd 70 be 7d 78 69 be
       -0.22637692 -0.07408783 -0.23521818 -0.22799869
000020 7d 5f 21 be 60 0b aa 3d 65 b7 43 3c 85 98 12 3d
       -0.15759082 0.08302951 0.01194558 0.035789985
000030 70 0a 41 3b 95 c3 6a 3d 16 d8 7b be d7 bb 9f bc
       0.0029455684 0.057315428 -0.24594149 -0.019498749
000040 72 a8 f0 3d 6c ec 62 bd 06 db 05 3e 69 29 60 bd
       0.117508784 -0.05540125 0.13071832 -0.05472699
000050 16 f9 9d 3c 6f d3 2f be 71 56 b0 bc f0 fe fd 3c
       0.019283812 -0.171705 -0.021525593 0.031005353
000060 7d a2 c0 3d 7f bc de 3d 5b 55 49 3c e9 ec ea bd
       0.09405992 0.108757965 0.012288417 -0.11470968
000070 d2 23 02 3e 3f c2 3d bd f1 68 43 be 32 8f 21 be
       0.12708977 -0.046327826 -0.19083 -0.15777281
000080 ec b0 c4 3c 7b 51 e3 3c 90 be 7b be 17 5a 78 be
       0.024010144 0.027748814 -0.24584413 -0.24253117
000090 77 54 22 3e d1 b3 6b 3d 0a 98 01 3e 3e 26 35 be
       0.15852533 0.057544533 0.12655655 -0.1769037
0000a0 77 4f d0 3d c6 83 de bd 4a ef 5b 3d d2 bb c0 3d
       0.10171407 -0.108649775 0.053695 0.09410824
0000b0 0d df 7f 3e 04 24 23 be 4f 62 07 3e 0c d6 e8 bc
       0.24987431 -0.15931708 0.13221096 -0.028422378
0000c0 6a 8e 0a be 4b 25 21 be 30 5d bb 3d b7 dd 5f 3e
       -0.13530889 -0.15736882 0.091486335 0.21861921
0000d0 9b cf 05 3e 83 2c 92 3d 05 b4 2e be 63 ae 36 bc
       0.13067476 0.07137396 -0.1706086 -0.0111499755
0000e0 b1 bd 1d 3d 88 5b 2e bd 9f e7 f8 bc 2c 4c f6 3d
       0.038510982 -0.04256776 -0.030383883 0.120262474
0000f0 87 8b 09 3e 80 20 27 be 54 35 a3 3b c0 16 34 be
       0.13432132 -0.16320992 0.0049807224 -0.17586803
000100 ce d8 23 3d bc 86 1b 3e c2 48 73 3d 8f 1b 11 3e
       0.040001683 0.15188116 0.05939556 0.14170669
000110 ed b5 1f 3e 6a ed b4 bd 31 70 dd 3c 8e 32 aa bd
       0.15596743 -0.08834346 0.027031036 -0.08310424
000120 7a ac 11 bd 82 81 ac 3d 13 39 09 3e 78 b7 1a 3d
       -0.035564877 0.08423139 0.13400678 0.037772626
000130 86 ac c0 bd 33 b0 2e be 0b ae 1e 3e 07 26 0f 3d
       -0.09407906 -0.17059402 0.1549608 0.034948375
000140 85 f9 c3 3c 1e 90 e4 bd 10 12 1e 3d f8 e9 dd bc
       0.023922691 -0.11160301 0.038591444 -0.027089104
000150 64 70 7a 3e 9a 7c 74 3d 8b a9 c8 bd 97 b0 b4 3d
       0.24456936 0.05968914 -0.09797963 0.08822744
000160 e3 49 bb 3c 8c 00 06 bd b5 ef 3d bb 2e f4 ac bd
       0.02286238 -0.032715365 -0.0028981988 -0.08445011
000170 e6 60 4e be 7c 49 cb bd fb 0b fd bd c3 d3 9c bd
       -0.20154151 -0.099261254 -0.12355801 -0.07657578
000180 97 02 9d 3e 8b 81 0f 3e 43 e4 92 bd 9d 77 bb 3c
       0.30666038 0.1401426 -0.07172444 0.022884184
000190 2b 28 0c be 60 5a aa bd 66 7b 0e be 96 63 11 be
       -0.13687198 -0.08318019 -0.1391426 -0.14198145
0001a0 73 02 16 3e d0 16 78 3e 2c 39 db 3d d8 b6 03 3e
       0.14649372 0.24227452 0.10704264 0.12862718
0001b0 42 71 36 bd 64 ef b9 bd 67 58 8d bc d6 19 97 3c
       -0.044541605 -0.09078863 -0.017254068 0.018444937
0001c0 7c fa 88 be 8e 26 41 be 64 c1 95 3c 04 b6 36 be
       -0.26753604 -0.18862364 0.018280692 -0.17842871
0001d0 3b c6 3b bc ee 7c db bc 3f 0c a8 bd 06 1a ef bd
       -0.011460836 -0.02679297 -0.08205461 -0.116748855
0001e0 92 20 8d bd 3e 39 48 3e 9c 44 04 3d b6 5f 09 3e
       -0.06890978 0.19553086 0.032291993 0.13415417
0001f0 98 cd fe 3d f3 79 1c be 59 39 75 3c cd f3 31 3e
       0.12441558 -0.15280895 0.014967286 0.17378159
000200 c0 7b 36 3e 17 17 cd 3a 7e b3 0b 3e 92 ba 18 3d
       0.17820644 0.001564714 0.1364269 0.037287302
000210 05 58 5d be ce a4 e6 3d 3d 16 b0 3d 14 ee 58 3e
       -0.21615608 0.11261903 0.085979916 0.2118457
000220 95 cb c7 bc c3 9f e4 3d 54 0b 6b bd 58 fb 7a 3e
       -0.024389068 0.11163285 -0.05738385 0.24509943
000230 3f a1 0f bd 46 95 81 3d ac d1 80 3e 04 f5 9d 3c
       -0.035065886 0.063273 0.25159967 0.019281872
000240 dc 58 a1 bd a5 65 c4 3d bb c2 2b bd 33 1a 09 bd
       -0.07878277 0.095897 -0.041933756 -0.03347225
000250 15 4e bc bd d9 2e 57 3d 1e 04 74 3c bf c9 b7 bd
       -0.091945805 0.05253491 0.01489356 -0.08974027
000260 00 10 88 bd 44 11 db bd bf 55 bf bd b0 a4 79 3e
       -0.06643677 -0.106966525 -0.09342527 0.2437923
000270 9f 59 40 bd 85 6d 94 3d 40 7b 8f 3d 61 de e8 3b
       -0.04696047 0.07247452 0.0700593 0.0071065878
000280 dd a6 24 3e 85 00 43 bd c7 28 59 be 64 48 9f bd
       0.16079278 -0.047607917 -0.21206962 -0.07777479
000290 23 9d 4f bd a0 6a 21 3d 83 91 38 be 80 71 8d bd
       -0.050686967 0.039408326 -0.18024258 -0.06906414
0002a0 77 71 24 be f1 a7 4d 3d 67 57 78 bc a9 ae cf 3d
       -0.16058908 0.05020899 -0.015157557 0.10140736
0002b0 4d af 18 3d ff 12 18 3e 00 b0 6a bd 5e 5b 93 bc
       0.037276555 0.14850996 -0.057296753 -0.017987903
0002c0 8a 4b 8e 3d 8e 61 4a be 2a eb 11 bc 08 6e af 3d
       0.06948002 -0.19763777 -0.008906165 0.08565909
0002d0 ed f3 29 3e ba 91 ad 3d 8f f1 c4 3c 28 f7 3e 3e
       0.16596957 0.08475061 0.024040965 0.1864897
0002e0 21 a1 ec bb 3f 00 61 bd fb ce 23 3e ec e0 af 3d
       -0.0072213565 -0.054931875 0.15996926 0.08587822
0002f0 e5 23 99 bd 37 06 22 be fc 97 31 bc 04 27 f7 bb
       -0.074775495 -0.15822683 -0.010839459 -0.007542493
000300 74 8b b6 bd 23 26 b5 bd f5 3c 96 bd 76 dc 45 3e
       -0.08913317 -0.088451646 -0.073358454 0.1932238
000310 fd 3a 64 bd 6d 9a 2e 3e ea f1 26 3e a7 95 c0 bd
       -0.055720318 0.17051096 0.1630322 -0.09403544
000320 62 30 37 3e 64 57 54 bd d1 57 cd bd f0 48 83 3e
       0.1788955 -0.051841155 -0.10026515 0.25641584
000330 ab 85 27 be 61 70 49 3e 59 02 42 3d f1 92 29 be
       -0.16359584 0.19671775 0.04736552 -0.1655996
000340 b6 c8 1a 3c a4 e7 47 3e 67 c1 cb bd fe 39 0d be
       0.009447267 0.19521958 -0.09948998 -0.13791654
000350 12 a8 b9 3c 5d 62 7c bd e7 9e 38 3e dd a2 49 3e
       0.02266315 -0.061617244 0.18029366 0.19691034
000360 58 fd 2a be 5b 18 c0 bb 11 a1 84 3d 3f e7 9e bc
       -0.16698205 -0.0058622784 0.064760335 -0.019397376
000370 04 82 6f be 51 7d 99 3b 65 c3 f5 bd 96 f0 27 be
       -0.23389441 0.0046841283 -0.12000159 -0.1640037
000380 87 0a ac 3d 00 b4 4b 3d f0 89 ba 3d 20 ab 3c 3e
       0.084004454 0.04973221 0.09108341 0.18424654
000390 57 cf a1 ba ce 49 75 3d 48 79 0a ba 9c 58 87 3d
       -0.0012345117 0.05988484 -0.00052823545 0.06608698
0003a0 05 ad 83 3e 72 4a e9 bd 90 12 19 bd c6 dc 85 3d
       0.2571794 -0.113911524 -0.03737122 0.0653625
0003b0 61 e4 c7 bd e3 11 d5 3b e8 f3 dd 3c 0a 69 aa bd
       -0.09760357 0.0065023764 0.027093843 -0.08320816
0003c0 84 6c f2 ba 43 7c 86 3e 06 f7 09 3e fb 10 a8 bd
       -0.0018495475 0.2626668 0.13473138 -0.08206364
0003d0 1e f6 42 3d ac ec 05 be 54 d9 23 3e 83 73 8b bd
       0.047597997 -0.13078564 0.16000873 -0.068091415
0003e0 c9 ec ac 3c a0 86 92 bd 39 5d 4f 3e 9c 55 b9 bd
       0.021109002 -0.07154584 0.20250405 -0.09049532
0003f0 0c a2 05 be af d2 9b 3d ea 30 b4 39 cc 55 a3 ba
       -0.13050097 0.07608544 0.0003436872 -0.0012461483

features.conv1.bias f4 [32]
000000 df 9a 80 3d a7 ec 9d 3d 0d 3d f5 bd 6e d3 02 be
       0.06279539 0.077111535 -0.11974535 -0.12775967
000010 04 16 20 bd dc 96 3c be c9 a8 11 3d 0c 65 f9 bc
       -0.039083496 -0.18416923 0.035561357 -0.03044369
000020 23 c4 8c 3d 46 35 49 be 6e 47 82 3e 81 1e c5 3d
       0.068733476 -0.19649228 0.25445122 0.09624959
000030 0c 89 59 be ce 3b a8 bd ac 28 e7 bd 7c 75 7b be
       -0.21243685 -0.08214532 -0.112870544 -0.24556535
000040 42 b1 00 bd f9 9b c2 bd 19 88 6c 3d 09 70 98 3d
       -0.031419046 -0.09502406 0.05774698 0.07443244
000050 cc ec c0 3d b0 a5 18 be 5b 1b c8 3c 3b 2d 04 3c
       0.094201654 -0.14906955 0.024427107 0.008067424
000060 26 0f 75 bc 54 01 7f 3c bf 77 84 be 64 f6 30 3d
       -0.014957225 0.0155642815 -0.2587261 0.043203726
000070 2f 3f ba bc 4d 9e 4b bd fd a0 8a bc b0 70 d8 bd
       -0.022735206 -0.049711514 -0.016922468 -0.105683684

features.prelu1.weight f4 [32]
000000 0d cd 37 3f c5 4f bc 3e 6e dd 87 3e 22 4e 8a 3e
       0.7179726 0.3677961 0.26536125 0.27012736
000010 08 c7 90 3e a5 a5 f0 3e 49 ca 97 be a2 88 ba 3e
       0.2827685 0.47001377 -0.2964652 0.36432368
000020 0c 7f 58 3e 07 6e bf 3d d5 58 1a 3e b4 31 49 3e
       0.21142215 0.09347158 0.15072949 0.19647866
000030 96 76 82 3e 69 ec 5a 3e e9 be c2 3e 69 b9 37 3e
       0.254811 0.21379246 0.38036278 0.17941822
000040 4f 6f f2 3d db 77 9e 3e 98 1b e2 3e 9e 64 74 3d
       0.11837637 0.30950817 0.44161677 0.05966627
000050 24 5f 8f 3e b4 8a b6 3e f5 3b c7 3e 59 48 d5 3d
       0.28002274 0.35652697 0.3891293 0.1041419
000060 80 17 0a 3e 01 6e 26 3e b4 bd 00 3f 6b cd 4c 3e
       0.13485527 0.162529 0.50289464 0.20000236
000070 63 59 27 3f 92 60 3c 3e ac d5 b6 3e 17 39 02 3f
       0.6537077 0.18396214 0.35709894 0.5086836

features.conv2.weight f4 [64, 32, 3, 3]
000000 59 ea 9e bd b3 78 50 bd 9a b3 0c bc 21 fa 84 bd
       -0.07759542 -0.050896358 -0.008587742 -0.06493021
000010 c9 49 8e bc 2e 67 b1 bd b4 99 18 bd cc 04 b8 bd
       -0.017369168 -0.08662258 -0.037255958 -0.0898529
000020 0d 64 b8 bd b7 51 5d bd f7 eb 7a bc 71 6e 07 bd
       -0.09003458 -0.054033007 -0.015315047 -0.03306431
000030 bf b2 35 bc af 23 93 3c 47 b7 81 bc 18 e0 59 3b
       -0.01108998 0.017961351 -0.015834464 0.0033245143
000040 70 82 61 3c cf 33 f3 3b fb a0 c2 bb 63 ae 8f 3d
       0.013764009 0.0074219476 -0.0059396005 0.070156835
000050 9d 2b e4 3a 28 60 7d bd b2 2b f1 3d a0 8b a1 bd
       0.0017408017 -0.06185928 0.11775912 -0.078879595
000060 89 05 9b bd 95 42 80 bd 98 21 f1 bc 12 5f 24 3d
       -0.07569415 -0.062626995 -0.029434964 0.04012973
000070 98 73 a6 3b c5 dc 37 3d 22 3d aa 3c 40 06 bc 3c
       0.005079698 0.044888277 0.020781104 0.022952199
000080 90 17 0d 3d 53 31 85 3d 16 0f ca 3d 7a 69 c2 3c
       0.0344463 0.065035485 0.09866159 0.023731936
000090 ab 81 ab 3d ab 09 9b 3d 68 63 6e 3c da 53 65 3e
       0.083743416 0.075702034 0.0145500675 0.22395268
0000a0 c2 db ab 3d a5 9a 13 3e 58 d7 cb 3d c4 58 d7 3d
       0.08391525 0.14414461 0.09953183 0.105149776
0000b0 da 26 13 3e 62 37 e0 bd c6 4c ba bd 10 39 d9 bd
       0.1437029 -0.109480634 -0.090966746 -0.10606587
0000c0 b4 2a d5 bc 0c 8a 84 bd 9d db 90 bd 2d b6 41 bd
       -0.026021339 -0.06471643 -0.07073138 -0.047292877
0000d0 ae 17 98 bd 6a 39 b0 bd fb 2c 35 bd b3 52 53 bd
       -0.074263915 -0.08604701 -0.04423235 -0.05159254
0000e0 0d 91 ce 3b 05 de 93 bd 3d c2 fa bc e8 4b 98 bd
       0.0063039125 -0.07220081 -0.030610198 -0.07436353
0000f0 43 85 82 bd 90 5e b7 bb a9 36 42 bd 17 d4 d4 bd
       -0.06373074 -0.0055959895 -0.04741541 -0.103920154
000100 0a 0f 75 bd 2b f0 c7 bc 5b ae a9 bd e3 7d 9e bd
       -0.059828795 -0.024406513 -0.08285209 -0.07738855
000110 5d 82 dd bd b6 dd b3 bd 9a 64 a3 bd 30 f4 b8 bd
       -0.108158804 -0.087825224 -0.079781726 -0.0903095
000120 eb 2e ad bc c6 09 f8 bb 34 1c 31 bd cb 83 bf bd
       -0.021140536 -0.0075695245 -0.043239787 -0.093513094
000130 e4 e6 9c bd fa 05 00 bc 0c 30 a8 bd 0d e7 e9 bc
       -0.076612264 -0.007813925 -0.08212289 -0.028552556
000140 78 2d 60 bd 13 af 4c 3d 2c d4 5d 3d ea 4c 0c 3d
       -0.054730862 0.04997165 0.05415742 0.03425304
000150 30 2a 25 bd e6 b3 36 3c 07 c1 1b bc 52 13 75 bd
       -0.040323436 0.01115129 -0.0095064705 -0.05983288
000160 e2 9a 1d bc 2b 84 82 bd f8 c1 f7 3d 97 11 ab 3d
       -0.0096194465 -0.06372865 0.120975435 0.08352964
000170 31 4a c2 3d ef 72 0c 3e a9 37 a3 3c c4 60 31 bd
       0.09486807 0.13715719 0.019924002 -0.043305174
000180 13 3a 2d bd 65 e2 73 bb 44 23 ad bd 0a f6 c8 bd
       -0.042291712 -0.00372138 -0.08453992 -0.09812553
000190 d6 73 04 bc d0 f4 66 bd a5 4e 9d bd 74 b7 13 bd
       -0.008084258 -0.056385815 -0.07681016 -0.036063626
0001a0 db 7a c7 bb 72 ad 42 bd 53 a3 cc bd 10 d1 4d 3b
       -0.0060876436 -0.04752869 -0.09992089 0.0031405129
0001b0 55 7a 87 3d c6 6a d4 3d c8 36 69 3d 4c c9 62 3d
       0.0661513 0.10371928 0.05693701 0.055367753
0001c0 cf ae b9 3d 1c 02 47 3d b7 3c d9 3d 8b e0 31 3d
       0.09066545 0.048585996 0.106072836 0.04342703
0001d0 cf 41 86 3d a5 cb 46 bd a8 d0 88 3c a5 0e a7 bc
       0.06555521 -0.048534054 0.016701058 -0.020392725
0001e0 82 f3 bd 3d d7 e0 86 3d 3e 43 39 bd 18 30 a9 bd
       0.09274961 0.065858535 -0.045230143 -0.08261126
0001f0 1d 78 d6 bd e7 b1 be bd 81 8f 0e 3e 7f 4f 7e 3d
       -0.104721285 -0.09311276 0.1392193 0.062087532
000200 cb 2d fc bb 07 e1 9e bd cd 5c b6 bd d6 e5 b4 bd
       -0.0076958886 -0.07757764 -0.08904419 -0.088329
000210 74 52 c4 bc 5f 46 d5 3b 3e dd 97 3b fd 2c 91 bd
       -0.023965098 0.006508633 0.0046345284 -0.07088659
000220 5a a4 7e bd 1c 8c 54 bd b3 59 cd bb 00 17 85 bd
       -0.062168457 -0.05189143 -0.0062667965 -0.064985275
000230 41 77 7d bc 58 33 bb bc c5 84 90 3c 21 97 8b bc
       -0.015470327 -0.022851631 0.017641434 -0.017039837
000240 d9 03 b8 bc 17 db 81 bd 01 de 2e bc 88 ab d7 bd
       -0.022462772 -0.06340616 -0.010673047 -0.10530764
000250 b4 2f 8a bd 7f 2b 59 bc 7d 64 15 bd bb ae 05 bd
       -0.0674738 -0.013254999 -0.036472786 -0.03263734
000260 1f 06 a8 bd 49 92 9e bd 20 4a ad bd 72 c3 86 bd
       -0.082042925 -0.077427454 -0.08461404 -0.06580247
000270 b9 68 e7 3c 11 fc e6 3d 8e 5a 74 bd 5b 15 c1 3c
       0.028248178 0.112785466 -0.059656672 0.023569753
000280 c3 4a 9c bd f1 ee 12 be b6 72 da 3c 86 7f 98 bd
       -0.07631447 -0.14348961 0.026666027 -0.07446198
000290 78 43 40 bd 6e 54 63 3c c8 68 04 3c d4 4b 63 3c
       -0.046939343 0.01387511 0.008081622 0.013873059
0002a0 37 d0 ce 3b 17 b5 60 bb 81 8c 5d bd f9 06 c0 bc
       0.0063114422 -0.0034287625 -0.054089073 -0.023440825
0002b0 79 91 c1 bd b9 9e 9d bd 36 12 75 bd f1 61 bd bd
       -0.09451575 -0.076962896 -0.05983182 -0.092471965
0002c0 46 4a aa bd ab 86 08 3a 1e 4e 58 bd ee 51 b5 bd
       -0.08314948 0.00052080554 -0.052808873 -0.088535175
0002d0 00 08 a0 bd 07 31 32 3c 2c f7 a2 bd 7c 1c a8 bd
       -0.07814026 0.010875947 -0.079573005 -0.08208558
0002e0 03 15 c6 bd b0 38 c6 bb 1b 44 bc bc 1f 5e 9d bd
       -0.096719764 -0.006049238 -0.022981694 -0.07683968
0002f0 50 aa c1 bc 1e 50 e5 3b e0 ca be bd fa b5 57 bd
       -0.023640782 0.006998076 -0.09316039 -0.05266378
000300 26 a0 29 bd 01 b0 29 3b 48 86 99 bd cc 59 9b bc
       -0.041412495 0.002589226 -0.07496315 -0.018963717
000310 e6 6f a7 bd 06 5e b8 bd b7 c7 bd bd e4 3e 51 bd
       -0.0817564 -0.090023085 -0.09266608 -0.051085368
000320 5e 7b 95 bc 35 8d 8b bc af 68 b2 bd fe 79 61 bd
       -0.018247303 -0.017035106 -0.08711373 -0.05504798
000330 df 38 5f bd 44 e3 f2 bc 04 07 53 bd 18 7d aa b9
       -0.054497596 -0.029649384 -0.051520362 -0.0003251813
000340 27 31 b4 bd 09 60 bd bd e5 c3 d3 3b 9a bf 3b 3b
       -0.087984376 -0.09246833 0.0064625614 0.002864814
000350 48 f1 b8 3b 81 44 a9 bd 93 17 b1 bc 04 24 12 3c
       0.0056439973 -0.08265019 -0.021617686 0.00891972
000360 ef 9f 92 bd eb b8 12 bd a2 37 d7 bd fa ae af bd
       -0.07159411 -0.035820883 -0.10508658 -0.08578296
000370 15 05 83 bd c9 fc ad bd 54 5d 81 bd d9 3a 2b 3c
       -0.06397454 -0.084954806 -0.06316629 0.010451042
000380 7f 82 5c bd 28 c0 3a bd 00 1c ca bd 12 6c 78 bd
       -0.05383539 -0.04559341 -0.09868622 -0.06064994
000390 e2 f6 1f 3b 9e b6 0e bc ac 95 79 bd ed 05 0e bc
       0.0024408628 -0.0087105315 -0.060933754 -0.008668405
0003a0 d3 c3 28 bc 63 ba 22 bc 6a e8 66 bd 88 b7 ae bd
       -0.010300594 -0.009932133 -0.05637399 -0.085310996
0003b0 41 d9 c5 bd cb 96 b1 bd dc a0 8f bc 15 d4 8c bc
       -0.096605785 -0.086713396 -0.017532758 -0.017190972
0003c0 00 a0 e5 bd de 83 51 bd 62 8d d7 bc c6 0b 9b bd
       -0.11212158 -0.05115115 -0.026312534 -0.07570605
0003d0 ea af 42 bd d6 e6 d7 bd db 6d 3e bd 2a c4 51 bc
       -0.047531046 -0.10542075 -0.046491485 -0.012803117
0003e0 17 9a 06 bd bb 33 7b bd 92 67 84 bd f8 dd ab bd
       -0.032861795 -0.06132863 -0.06465067 -0.083919466
0003f0 98 c2 d9 3c 3d 89 94 bd 57 e9 d2 bd 3f eb 07 bd
       0.026582047 -0.072527386 -0.10298412 -0.033183333

features.conv2.bias f4 [64]
000000 93 2c 64 bd b4 b5 7d bc 85 86 1f bd 5a 28 33 bc
       -0.05570657 -0.015485216 -0.038946647 -0.0109349135
000010 c3 82 d8 bc eb af de bc 34 85 e3 bd e3 2e e0 bc
       -0.02642954 -0.027183494 -0.11109391 -0.027366107
000020 11 2f 28 bd e1 7e eb 3c af fa 56 3c 9a bd f0 3b
       -0.04106051 0.028747024 0.013121291 0.007346821
000030 8c 4b 3c bc 37 d9 84 bd 1e 8b 35 3d b5 b2 f7 3c
       -0.011492621 -0.06486743 0.044322126 0.030236581
000040 2e e4 8a bd 77 36 3b 3d 60 8a a0 bd 18 32 88 bd
       -0.06781803 0.04570624 -0.07838893 -0.066501796
000050 e7 fd 82 bd 53 cf 97 bd 6c a1 5c bd eb 95 7b bd
       -0.06396084 -0.07412591 -0.05386488 -0.06142227
000060 6e 48 8d bd ae bb 9e bc 8f bb 87 3b 7f 4c 95 bd
       -0.068985805 -0.019376602 0.004142232 -0.07289981
000070 cf dc a8 3c 79 53 27 3c dd 30 a2 3c 4c 5e f3 bc
       0.020613102 0.0102127725 0.01979869 -0.02970805
000080 76 ed 2b bc f6 c5 95 bd ff 70 d5 bc c3 62 b0 bd
       -0.010493627 -0.07313149 -0.026054857 -0.08612587
000090 59 32 a3 3c c5 93 0b 3d 94 29 a1 bd a0 e2 61 bd
       0.019921469 0.03407647 -0.078692585 -0.055147767
0000a0 45 63 73 3d bf 54 0f be 7b 57 c8 bd 9a 59 00 3d
       0.059420843 -0.13997172 -0.097823106 0.03133545
0000b0 99 5c 9f bd 29 1a ba bc 80 07 65 bd 1f 4d c0 bd
       -0.077813335 -0.022717552 -0.055915356 -0.0938971
0000c0 fa 5b 97 3c d7 0c bf bc f2 2a cf 3c 81 6b 72 bd
       0.018476475 -0.023321552 0.025289033 -0.059184555
0000d0 2f 58 2f bc b3 35 9a bd 2b 8e 8f bd da e8 05 bd
       -0.010702177 -0.075297736 -0.07009538 -0.032692768
0000e0 c7 82 2c bd 42 c4 56 bc 9d 8b 58 bd f6 2f ac bd
       -0.042116906 -0.013108315 -0.05286752 -0.08407585
0000f0 ef fd 81 bd 33 03 2e bc 0a 0d 15 bd 88 11 82 bd
       -0.06347262 -0.01062088 -0.03638939 -0.06351

features.prelu2.weight f4 [64]
000000 a6 53 14 3e 0d b6 f6 3d a6 55 8f 3e f9 96 1d 3e
       0.14485034 0.12046442 0.27995032 0.15389623
000010 5e a9 fe 3b ee 6b 20 3e 2f 78 00 3e a5 4a 58 3e
       0.007771655 0.15666172 0.12545846 0.21122225
000020 d6 1e e8 3d 8a 2d 11 3f 7f 08 7a 3e 5c c3 e9 3d
       0.113340065 0.5671011 0.24417304 0.11414215
000030 cf a2 08 3e ab d9 32 3e f9 8e 04 3e 89 3f 2a 3e
       0.13343357 0.17465846 0.12945165 0.16625799
000040 ff e3 3b 3e 11 32 83 3e a0 ac 4b 3e e3 07 0b 3e
       0.18348692 0.25624135 0.1989007 0.13577227
000050 51 72 8f 3d f3 1a 10 3e a6 a0 14 3e 0b 44 43 3e
       0.07004226 0.1407278 0.14514408 0.19068925
000060 44 87 12 3e c1 a7 6f 3e 68 c6 6a 3e 86 b4 64 3e
       0.14309412 0.23403837 0.22927248 0.22334489
000070 9f a6 aa 3e d4 5f 28 3e ef 88 a8 3e 00 f4 02 3e
       0.33330247 0.16442806 0.32916972 0.12788391
000080 c1 83 22 3e a8 b8 9d 3e a4 98 7a 3e b5 e9 02 3d
       0.15870573 0.30804944 0.2447229 0.03196116
000090 c9 d4 24 3e 83 5b 06 3f 06 76 95 3e e0 75 fb 3e
       0.16096796 0.52483386 0.29191607 0.4911337
0000a0 22 95 54 3e 78 1b c1 3e 52 82 ef 3d f3 8e 9b 3d
       0.20760015 0.3771627 0.116947785 0.07595625
0000b0 c9 6b a0 3d 4b 1a 2a 3e 21 dc 23 3e 5f 94 ac 3e
       0.078330584 0.16611592 0.16001941 0.33706948
0000c0 42 56 81 3e 54 18 03 3e 3c 17 d8 3e 6d f8 90 3e
       0.25261122 0.12802249 0.42205226 0.28314534
0000d0 e0 22 a1 be a7 35 69 3e 40 cc 5f 3e 72 a6 77 3e
       -0.3147192 0.22774373 0.21855259 0.24184588
0000e0 e6 0c f4 3d f9 2b 3d 3e 19 ea f2 3d 02 2b b1 3d
       0.11916523 0.18473805 0.11861057 0.08650781
0000f0 b0 2b 96 3e eb 42 d0 3d bb c8 2b 3e 1e b3 85 3e
       0.29330206 0.101690136 0.16775791 0.26113218

features.conv3.weight f4 [64, 64, 3, 3]
000000 70 79 64 3d 43 bc 08 3d ab dd 65 bc fa 6b 1f 3d
       0.055779874 0.033382665 -0.014029901 0.038921334
000010 fd ba 04 3d 1b 6b 7f bd e2 47 b0 3c 0d 99 64 bc
       0.03240489 -0.062358003 0.021518651 -0.013952506
000020 77 c7 da 3b 85 08 85 3d 80 7e b9 3c 41 ff ac bd
       0.00667661 0.064957656 0.022643328 -0.08447123
000030 ed 6b 88 bd bd 2a 9f bc 91 37 bf bd 62 11 be bd
       -0.0666121 -0.019429559 -0.0933677 -0.09280659
000040 96 8a e3 bd 44 a9 e0 bd 8a 3a 63 bc de f7 e4 39
       -0.111104175 -0.10969785 -0.013868937 0.00043672224
000050 98 00 ad bd 37 ef 6d bc 44 8c 30 bd c0 eb d2 bd
       -0.08447379 -0.014522365 -0.043102518 -0.10298872
000060 d7 58 58 ba 94 14 e6 3c 2b 5a df bd 7a 95 d0 3c
       -0.0008252984 0.028085984 -0.1090587 0.025461901
000070 f4 3c 20 3d 6c 6b 41 3d dc 2a ad 3d 0e ee b0 3c
       0.03912063 0.047221586 0.084554404 0.021597888
000080 a4 59 03 3d 27 ee bc 3d 7b a3 46 3d c9 d2 7b 3d
       0.03206791 0.092251115 0.04849575 0.061480317
000090 bb 0d 76 3b 55 85 4c bc 47 d8 3d bc 97 00 7b bd
       0.0037544805 -0.012482961 -0.011587209 -0.06127986
0000a0 18 3f 61 3a f8 8e 3c bd e1 22 ca bc 55 d4 fc ba
       0.00085924705 -0.046034783 -0.024674835 -0.0019289354
0000b0 c1 53 57 bd 36 d1 8e 3d db d7 1d 3e 77 d3 83 3d
       -0.05257011 0.069734976 0.15414374 0.06436818
0000c0 a8 f5 03 3c 42 bd c7 3d da a7 bb 3c 1a 3f 5f 3c
       0.0080541745 0.09752895 0.022907186 0.013625884
0000d0 2b 1e 60 3d 30 04 0c 3d 36 9a ef bb a3 08 2e 3d
       0.05471627 0.03418368 -0.0073120845 0.042488705
0000e0 4f 85 c7 3c 06 09 93 3b c6 63 86 3c d5 35 17 bc
       0.024355559 0.0044871597 0.016404998 -0.009229143
0000f0 2e 21 6b 3c 22 aa 67 3d 42 b7 61 3c 4f 69 90 3d
       0.014351172 0.056558736 0.013776602 0.07051336
000100 3a a3 19 3d 80 3d b4 bc be a1 84 3d ef be 89 3d
       0.03750918 -0.022001982 0.064761624 0.06725871
000110 ee d3 d7 bd 37 70 0c 3d a2 62 05 bd 5b 09 06 bd
       -0.10538469 0.034286704 -0.032564767 -0.032723766
000120 18 68 bc bd 62 5d 9b bc ab 25 a3 bc 34 a7 d9 bd
       -0.09199542 -0.018965427 -0.019915422 -0.106275946
000130 13 59 ee ba dc b7 ac 3c bf a9 2c bd bb 8e ec bc
       -0.0018184505 0.021083765 -0.04215407 -0.028876653
000140 4b 51 6b 3c 1b a6 93 bb 2a ab a5 bc 75 de 29 3d
       0.0143626435 -0.0045058853 -0.020223219 0.041471917
000150 da a9 fa 3c 59 61 3d bd f9 82 ae bc 30 d1 eb bb
       0.03059857 -0.046235416 -0.021302687 -0.007196568
000160 cd e9 7b 3c fc 52 2a bc da 78 ff bd 11 54 87 bd
       0.015375567 -0.010395762 -0.124742225 -0.06607831
000170 e8 ff 98 be f1 d5 cc bd 14 cc 06 3e 6b 1d 5d bd
       -0.2988274 -0.100017436 0.13163787 -0.053983133
000180 59 38 42 3e a4 86 53 3e 8b 3f 9e 3d 63 53 59 3d
       0.18966807 0.2065683 0.077269636 0.05305804
000190 0f 66 8b 3d 5d b1 e7 39 4d 36 2b 3c d5 81 2c bd
       0.068065755 0.000441919 0.010449958 -0.042116005
0001a0 f5 9f cd bc dc 90 54 3c bc 28 ff 3c 45 9b b1 bc
       -0.025100688 0.01297399 0.031147353 -0.021680484
0001b0 fb 43 3f 3c 01 23 dc 3c 59 13 40 bd 4e 69 85 bc
       0.011673923 0.02687216 -0.04689345 -0.016285565
0001c0 af 6d 88 3b 41 dc 7e bc 61 b9 a6 bc ec 2a 33 bd
       0.004163466 -0.015555442 -0.020352067 -0.043742105
0001d0 75 96 62 bb 73 35 aa 3c 7a b0 fc 3a 7e e2 ec 3d
       -0.0034574543 0.02077744 0.0019278668 0.115666375
0001e0 91 fd 11 3d 56 d5 42 3d 8a 4c b0 3c c2 3e e9 bc
       0.03564221 0.047566734 0.021520872 -0.028472308
0001f0 46 91 84 3d 65 9d 1d bd b8 37 8e bc b9 d1 16 3c
       0.06473021 -0.03848018 -0.017360553 0.009205275
000200 5d fd a7 bd 76 5d 78 bd 77 b6 85 bd 61 00 cf bd
       -0.08202622 -0.060636006 -0.06528943 -0.10107494
000210 33 d5 82 bd 51 24 8d bd f7 f2 d9 bd 97 74 93 3c
       -0.06388321 -0.068916924 -0.10642045 0.01799993
000220 ad 17 61 bd e6 81 94 bc 41 e8 6d 3c b4 7c 39 bd
       -0.05495422 -0.018128347 0.014520706 -0.04528494
000230 35 93 4b bd 84 ca 3c 3b b4 5d 07 3d 9f 69 08 bd
       -0.049700934 0.0028807232 0.033048347 -0.033303853
000240 8a 9f e6 3d 21 ac 07 3d 4e ce dd 3c e7 42 3f 3d
       0.112608984 0.03312314 0.027075913 0.046694662
000250 5c 97 67 bc c7 38 e9 3c 7c 15 97 bc 9f 27 e1 3c
       -0.014135208 0.028469456 -0.018442862 0.027484713
000260 2b f7 9f 3c ca a7 06 3d 5d 45 ee 3c 2e 9a 5c bd
       0.019527039 0.03287486 0.02908581 -0.053857975
000270 c2 b8 2c be a5 53 28 bd da da d4 bd 26 7f f7 3d
       -0.16867355 -0.041095395 -0.10393305 0.120847985
000280 2a a7 2f 3e 4b 35 f4 3c 1b 9f c2 3d a8 1f fe bb
       0.17153612 0.029810568 0.09503003 -0.0077552386
000290 e6 0f fa 3d 37 2d f3 3c ad 6b cd bd 76 f0 45 3d
       0.12210064 0.029684646 -0.10030303 0.048325025
0002a0 10 05 c1 bb 9f 66 18 bd b6 56 fc 3b cd 2d fb 3c
       -0.005890496 -0.037207242 0.0077007664 0.030661488
0002b0 f5 a1 35 3d 3a f8 44 3d 09 74 22 3d cf 6f 9b bc
       0.044343907 0.04808829 0.03966144 -0.018974213
0002c0 df 24 30 bd cd 28 be 3c 34 2c 88 bd 9c 8f 36 be
       -0.043003913 0.023212815 -0.06649056 -0.1782822
0002d0 d7 01 60 3c 7b 00 f1 3b ec 61 80 3d 49 84 29 3d
       0.013672314 0.0073547936 0.06268677 0.041385923
0002e0 a9 68 ab bc 96 d8 07 3d 06 e2 66 3d 7e 37 f7 bc
       -0.02092393 0.033165537 0.056367896 -0.030177828
0002f0 c9 12 32 bd 44 cf cf bc 8e 2a 61 3c 6b 66 0f bd
       -0.043474946 -0.025367387 0.013743056 -0.035009783
000300 0a db 80 3c 7d c6 bf bc 8f 4e 09 3d 20 79 4e 3c
       0.015729446 -0.023410076 0.033522185 0.012602121
000310 42 eb ce bc 2c f2 d2 3c 2c 59 b5 3d a5 5b a2 3d
       -0.025258664 0.025750242 0.08854899 0.07927636
000320 a7 a8 74 bc 02 f1 4a 3d ee 0c b5 3d 0a 71 ff bd
       -0.014932788 0.04954625 0.08840357 -0.12472732
000330 c5 9b b5 3d 12 3f 82 3d 6b 5e d6 bc ed d1 2f bd
       0.08867601 0.06359686 -0.026168069 -0.04292481
000340 56 dc 40 bc e9 2f c5 3c f7 74 76 bd 20 29 2d bb
       -0.011771282 0.024070697 -0.06017014 -0.0026422217
000350 bf 26 91 bc 95 8f 44 3d 9d b3 05 3d 5c 66 d9 bc
       -0.01771867 0.047988493 0.032641996 -0.026538067
000360 2d b1 98 bb fa ce 34 3c ad c9 15 bd ce 20 b4 b8
       -0.004659793 0.011035675 -0.036569286 -8.589179e-05
000370 10 c0 85 bd e7 1a 46 bc 60 33 fa bc a1 b6 80 bc
       -0.06530774 -0.012091375 -0.030542076 -0.015712084
000380 94 7f 86 bd 9d c1 36 3e b2 c5 07 3d f9 df b8 3c
       -0.06567302 0.17847295 0.03314752 0.022567736
000390 73 85 8d bd 5c cf cc 3c d3 1a 2f bd 54 d5 1f 3e
       -0.06910219 0.02500122 -0.04275019 0.15608722
0003a0 8e 21 d7 3d 5f 3d b5 bd d5 85 91 bd d2 f8 5b bb
       0.10504447 -0.08849596 -0.071056046 -0.0033565057
0003b0 e3 b9 b0 3d 09 40 b1 bd 34 a2 35 bc f0 6c be 3c
       0.08629205 -0.08654792 -0.0110860355 0.023245305
0003c0 88 4a e9 bc f0 d0 4a 3d 86 94 8e 3d 91 50 c7 bc
       -0.028477922 0.049515665 0.06961922 -0.02433041
0003d0 5a da 9e 3b ca b4 47 bd 72 c5 a7 3c ff 32 3d 3d
       0.004847807 -0.0487564 0.020479891 0.04619121
0003e0 f9 98 06 bc 6a ad f6 3c d9 68 5b 3d 2f 0e a3 3d
       -0.008215182 0.030111987 0.053566787 0.0796169
0003f0 ba 9a 36 be bc 83 41 bd 93 fd a0 bc 1b 81 85 be
       -0.17832461 -0.047244772 -0.019652164 -0.26075062

features.conv3.bias f4 [64]
000000 70 cc 3f bd 90 11 e2 bd 4b 31 23 3d 2e 5a 53 bd
       -0.046825826 -0.11038506 0.03984193 -0.051599674
000010 58 5a 21 bd 1c 98 c4 bd ab 2d d2 ba cc 88 02 bc
       -0.0393928 -0.09599325 -0.0016035339 -0.007967185
000020 1e 38 fd ba db 32 3e bd 9e c8 b1 bd 95 e7 32 bd
       -0.0019319092 -0.04643522 -0.08680843 -0.043677885
000030 4c 68 31 be 35 97 a6 bd 58 d0 c1 bd b4 8b ba bd
       -0.17324942 -0.08134309 -0.094635665 -0.091086775
000040 9e 8c f3 bd de f9 86 3d 4a fa 86 bd 16 47 ae bc
       -0.11892055 0.06590627 -0.065907076 -0.02127413
000050 0d 2a 06 be 24 3e ef bd ee 61 02 3d 68 5b 95 3d
       -0.13101979 -0.11681774 0.031831674 0.07292825
000060 38 a3 a7 bd c7 b5 37 bd 06 9c 9e bc a2 23 03 bd
       -0.081854284 -0.04485109 -0.019361507 -0.032016404
000070 52 e3 98 bd d0 e4 2d 3d 64 d5 b4 bc 12 8c 44 3d
       -0.07465233 0.04245454 -0.022074409 0.047985144
000080 47 81 47 b8 fb 8d 3c be e8 02 0b 3d 7c b6 d8 bd
       -4.7565696e-05 -0.18413536 0.03393832 -0.10581681
000090 f7 46 61 3d d3 9d a1 bd 5e 3c 55 bd 16 c9 0d 3d
       0.054999318 -0.07891431 -0.052059524 0.0346156
0000a0 82 a4 7d bd e6 29 27 be bb f9 25 bd 9e 2a 66 bc
       -0.061924465 -0.16324577 -0.040521365 -0.014048247
0000b0 7b 88 60 bd e1 b0 52 bd 29 5a bb 3c 46 4e 4f bd
       -0.054817658 -0.051438216 0.02287014 -0.050611757
0000c0 0d 8e f1 bc b2 d3 e9 bc 81 d7 e9 bc b5 3e c4 3b
       -0.02948668 -0.028543327 -0.028545143 0.0059889206
0000d0 a3 43 f6 bd b0 ec 30 bd 0d ca b3 bd 0d 93 3b be
       -0.120246194 -0.043194473 -0.087787725 -0.18317814
0000e0 2f 5c fa 3c 5a fd 8d bd 13 09 d2 bd dd ba 8e bd
       0.030561535 -0.069330886 -0.10255637 -0.06969235
0000f0 31 83 76 bc 7c ab 1a bd 96 d1 d8 bc 47 41 9f bc
       -0.015045927 -0.037761196 -0.026467126 -0.019440306

features.prelu3.weight f4 [64]
000000 53 5e 2d 3e c1 21 b4 3d 07 09 a1 3e 92 4c 82 3e
       0.16930513 0.087955005 0.314522 0.25449044
000010 2e 37 32 3e 34 c4 ce 3d c9 70 7b 3e 26 fa 17 3e
       0.17403862 0.100960165 0.24554743 0.14841518
000020 7f e2 65 3e 60 fc 1f 3e 2e 7e 1d 3e c5 82 80 3e
       0.22449683 0.15623617 0.15380165 0.2509977
000030 f9 d4 e8 3e b2 f6 34 3e a9 77 51 3e f0 67 5c 3e
       0.45474985 0.17672232 0.20455803 0.21524024
000040 1e 43 26 3e d1 90 ec 3e 12 19 3a 3e 70 41 5d 3e
       0.1623654 0.46204236 0.18173626 0.21606994
000050 58 fc 29 3e 83 d1 87 3e 99 8a 04 3e 21 91 c9 3e
       0.16600168 0.26527032 0.12943496 0.39368537
000060 6c f6 6b 3e b9 ed 07 3e 37 c9 f4 3d c6 9f 7f 3e
       0.23043221 0.13274278 0.11952441 0.24963292
000070 29 ac 50 3e 4f 87 83 3e 36 a9 f6 3d a0 1d 09 3e
       0.20378174 0.2568917 0.12043993 0.13390207
000080 ae bb 31 3e 27 30 a8 3e cb 30 62 3e d8 04 84 3e
       0.1735675 0.32849237 0.22088926 0.25784945
000090 6b 29 88 3e 71 5a 5c 3e 93 aa 49 3e bc a9 0a 3e
       0.265941 0.21518876 0.19693975 0.13541311
0000a0 c7 26 75 3e 60 0a 5d 3e db cb 41 3e 15 ef 20 3e
       0.23940574 0.21585989 0.18925421 0.15716203
0000b0 98 9b 3d 3e b1 b4 6e 3e a2 19 b3 3e 75 d9 84 3e
       0.18516386 0.23311116 0.34980494 0.25947157
0000c0 af 2d 94 3e 4c 98 98 3e 9b fe e6 3d db 2d dc 3e
       0.28941104 0.29803693 0.11279031 0.43003735
0000d0 19 94 9d 3e 13 0a 11 3e 50 bf 5c 3e be 40 c4 3e
       0.30777052 0.14164 0.21557355 0.38330644
0000e0 44 33 5c 3e 19 1d 19 3e 12 6f 2e 3e 3d f7 06 3e
       0.21503931 0.14952506 0.17034557 0.13180251
0000f0 b2 d5 6e 3e df 68 14 3e 8f 89 20 3e 39 40 60 3e
       0.23323706 0.1449313 0.15677474 0.21899499

features.conv4.weight f4 [128, 64, 2, 2]
000000 66 80 e0 bc 89 8b d3 bd a7 85 00 bc 9b 2e bc bd
       -0.027404975 -0.103293486 -0.007844365 -0.09188577
000010 3d 11 c7 3d 78 b2 91 3d ea c5 c3 3d 1e 1b d9 3b
       0.09720085 0.07114118 0.095592335 0.006625547
000020 26 2a 44 bd bf 7e 70 bd 52 37 e7 3c b9 d6 8f bc
       -0.04789176 -0.058714624 0.028224621 -0.017558442
000030 da 71 10 bd 49 32 03 bd 50 f9 1f bd ec 81 c5 bb
       -0.035264827 -0.032030378 -0.039056122 -0.006027451
000040 29 f0 c6 bc 55 82 18 bd 9b 01 b3 bd fb 97 81 bd
       -0.02428444 -0.03723367 -0.087405406 -0.06327816
000050 4b f7 d5 3d 72 73 91 3d cf 4a d1 3d be 98 00 3e
       0.10447558 0.071020976 0.10219347 0.12558267
000060 40 96 a1 bd 27 67 fd bc 4d f1 c6 bd 1e 19 01 bc
       -0.07889986 -0.030932976 -0.09713993 -0.007879524
000070 c2 a4 a5 bd ab ab 63 bd ad 82 0a bc d0 0e 87 bd
       -0.08088066 -0.055583637 -0.008454007 -0.06594622
000080 dd 03 4d 3d 9c 03 82 bd 88 89 4e 3c b8 ce 1a bd
       0.050052512 -0.06348345 0.012606032 -0.0377948
000090 f7 00 a2 3d 00 c3 fd 3d 24 63 66 3d d0 57 ed 3d
       0.0791034 0.12390709 0.05624689 0.115890145
0000a0 be 4d 52 bd 8f c6 ae bd b9 5c 0a bd e2 5f f1 bd
       -0.051343672 -0.08533966 -0.033779833 -0.11785866
0000b0 96 51 df bb f2 2a 17 3c f0 20 56 bd c8 1e 6f 3c
       -0.0068151457 0.009226548 -0.052277505 0.014594741
0000c0 92 a3 50 3e aa c9 7a 3e a9 3b 8c 3d ab aa e9 3c
       0.20374897 0.24490991 0.06847317 0.028523764
0000d0 9d 06 5f 3d 35 5f db 3d a1 48 f1 3d f1 d7 ac 3b
       0.054449666 0.10711519 0.11781431 0.0052747657
0000e0 27 cc ab 3d 75 26 cb 3d c3 c4 8e 3c e2 d1 ca 3d
       0.08388548 0.099194445 0.017427808 0.09903313
0000f0 79 36 4b 3d da 29 f3 3c 32 51 20 bd b2 2b 4c 3d
       0.049612496 0.029683042 -0.039139934 0.04984636
000100 88 89 e0 3d ef 41 e4 3c a9 58 9c 3d 97 91 8e 3c
       0.10963732 0.02786347 0.07634098 0.017403407
000110 e0 29 a9 bd 49 0f 1f bd f8 67 57 bd ee 52 bd bd
       -0.0825994 -0.038832936 -0.052589387 -0.09244333
000120 40 ff 98 3d 00 c7 da 3d e8 ab 02 3e 36 c5 aa 3c
       0.0747056 0.106824875 0.1276089 0.02084599
000130 eb 39 0a 3d 09 30 a0 3a 9c a7 e4 3d 90 d5 55 3d
       0.03374664 0.0012221347 0.111647815 0.052205622
000140 76 a7 ad 3c fd 0a c7 3d 57 2b 8e 3d 38 f9 57 3d
       0.021198016 0.09718893 0.0694186 0.052727908
000150 28 58 d1 3d 29 de 79 3d 6d 63 0f 3d 6e d0 b3 3c
       0.102218926 0.061002884 0.03500693 0.021949973
000160 a6 ff 9b bd 3e bf 0d bd 53 57 af bd c4 96 a0 bd
       -0.076171204 -0.03460621 -0.08561578 -0.07841256
000170 46 8c 42 bd 91 36 75 3d f0 13 5e 3c 82 00 9a 3d
       -0.047497056 0.05986649 0.013554558 0.07519628
000180 1e 30 0f 3d b2 c1 e6 3c 8f 9b 96 3d 11 5f a7 3b
       0.034957998 0.028168533 0.07353889 0.0051077683
000190 40 88 30 bc 18 5e 24 bd 35 50 4b bd e1 6a 89 bd
       -0.010774672 -0.040128797 -0.04963704 -0.06709839
0001a0 cf 50 d4 3a 0c 65 c8 bd 48 9f 19 bd 7d 24 84 bc
       0.0016198399 -0.09784898 -0.037505418 -0.01613068
0001b0 60 f7 bc 3b 24 59 95 bd 19 6f 81 bc f6 2e f8 ba
       0.005766794 -0.07292393 -0.015800046 -0.0018934894
0001c0 d9 83 9c 3d 21 fd 79 bc 06 2c bb 3d 46 b9 d6 3b
       0.076423354 -0.015258105 0.09139256 0.006552848
0001d0 6a 02 2e 3d d7 4b 9b bd 60 2e 30 bb f3 13 78 bd
       0.04248277 -0.07582825 -0.002688311 -0.0605659
0001e0 b5 71 bb bb 47 1c 9f 3c 37 c8 b4 3b 47 56 78 bc
       -0.005720342 0.019422663 0.0055170315 -0.015157289
0001f0 6e 1f 29 bd 36 cf 62 bd c6 4a db bd d8 a2 19 bd
       -0.04128974 -0.055373393 -0.10707621 -0.037508816
000200 d4 f4 f2 3d 32 26 9c 3d a5 79 27 3c 12 05 2f 3c
       0.118631035 0.07624473 0.010221873 0.010682361
000210 78 6d 7d 3d f2 8a a1 3b dc 72 94 3d f2 8a ae 3d
       0.061871976 0.0049298937 0.0724847 0.085225955
000220 f2 60 0e bc a5 7a f1 bb 04 80 50 bd 37 3d 12 be
       -0.008690106 -0.0073693567 -0.050903335 -0.14281164
000230 2d 07 f2 3b 52 a1 1e 3d ca c7 4c bc 0d 4f ad 3d
       0.0073861093 0.038728066 -0.012498805 0.08462343
000240 bb ce 9e bd 44 02 cc 3b 3e d0 75 bd 07 e4 71 3d
       -0.077542745 0.006225856 -0.06001305 0.059055354
000250 66 f7 72 bc ec f1 e8 bc 67 05 48 3d 16 96 2d 3c
       -0.014829492 -0.02843567 0.048833277 0.010594865
000260 d1 68 31 bc ac 75 4a bd fc a1 89 bd 5f 17 98 bc
       -0.010828213 -0.049428627 -0.06720349 -0.018565832
000270 28 f9 05 3c 0b 48 38 3d ed df 22 bd e7 54 52 3c
       0.008177079 0.04499058 -0.039764334 0.012837625
000280 3b 9a c4 3d c4 9f b8 3c d4 1f 72 3d 4d ab f0 3c
       0.095997296 0.02253712 0.059112385 0.029378558
000290 b1 ed 42 3d c3 27 e7 3c 08 7e 87 3d aa 06 58 3d
       0.04758996 0.028217202 0.066158354 0.05274073
0002a0 41 f3 07 3d f5 f0 59 3d d7 f7 cc 3c c9 5c c8 3d
       0.03319097 0.05320831 0.025020523 0.09783322
0002b0 71 2f b2 bd 25 ba cb bd bd 45 f7 3b dc 9e e3 bd
       -0.08700455 -0.099476136 0.0075461552 -0.111142844
0002c0 b5 ae 00 3d 1a da 81 3d 69 e7 0f 3d b7 88 e2 3c
       0.031416614 0.06340428 0.0351328 0.027653081
0002d0 5a 07 3d 3d 4a be 2d 3c 09 26 95 3d dd bd 68 3d
       0.04614959 0.0106044505 0.07282645 0.056821693
0002e0 df 86 0d 3e 5c f3 2f 3d a3 5a a6 3d 8a 98 82 3c
       0.1382098 0.042956695 0.08122756 0.015941877
0002f0 2c 9e 42 3d 77 aa d7 bc 2f fa d1 bb 75 28 a0 3d
       0.047514126 -0.026326401 -0.006407998 0.078202166
000300 96 2c 09 3d 8b 1e 0d 3d db 4e 3d 3d 4a 71 09 3d
       0.033489786 0.034452956 0.04621778 0.033555306
000310 28 8b 90 bc 67 5a 65 bd c8 08 be bd 7f ae 63 bd
       -0.01764448 -0.055994418 -0.09279019 -0.055586334
000320 cb f3 9e b9 9d 93 8d 3a ae db b7 bd ba bf c4 bd
       -0.00030317748 0.0010801438 -0.089774475 -0.096068814
000330 03 89 3b 3d 68 f4 11 3d e9 29 d4 3d 24 5c f3 3c
       0.04578496 0.035633475 0.10359556 0.029707022
000340 8e b0 74 3c 85 1b 08 3e ac d5 5a 3c 9e 6a 88 3d
       0.014934672 0.13291748 0.013356607 0.066609606
000350 fc 37 c3 3d 7d 1a ef 3d 81 d9 d2 3c 01 24 b4 3d
       0.095321625 0.11674974 0.02573848 0.0879593
000360 2f c5 b2 3d 90 2f dd 3d 05 f9 68 3d 8a 2f a1 3b
       0.08729016 0.108000875 0.05687811 0.004918997
000370 f7 8a 04 3e 4a dd ce 3d 7f f8 a3 3d 2a 5f 89 3d
       0.12943636 0.10100801 0.08006381 0.06707604
000380 8c 6b 38 3d f8 5c af 3c c3 6e b5 bc 57 5b f1 bc
       0.04502444 0.021406636 -0.022147542 -0.0294625
000390 02 02 1e 3c 6c da 12 3d d9 87 a3 3d c5 d2 44 bc
       0.009644033 0.035852835 0.07984895 -0.012013142
0003a0 a1 43 d2 3d c4 a2 11 3d d8 f2 d4 3d ad 40 a5 3d
       0.102668054 0.035555616 0.10397881 0.080689766
0003b0 fc 05 b1 bc 69 4b 88 bd 54 7c 03 bc e4 c7 3d bb
       -0.021609299 -0.06655008 -0.008025248 -0.0028958255
0003c0 b9 78 0f 3c 84 d5 2d 3c 3c 84 94 3c c6 a2 90 3d
       0.00875681 0.010609988 0.01812946 0.070622966
0003d0 a2 24 a0 3b d9 6d be 3b 54 de f0 3c cf b0 e2 3c
       0.0048871795 0.0058114347 0.02940289 0.0276722
0003e0 15 bc d1 bd 33 44 be bc ea 56 e1 ba b0 e4 8d bd
       -0.10240952 -0.02322588 -0.001719204 -0.06928384
0003f0 c1 7c 91 bc a8 fb b5 bd c2 c5 0e bd 7b c2 a0 bd
       -0.017759683 -0.0888589 -0.034856565 -0.07849594

features.conv4.bias f4 [128]
000000 db dd a7 bb 13 83 60 bd e4 e5 72 bd ae 47 82 bd
       -0.005122883 -0.054812502 -0.059301272 -0.06361328
000010 ed 3d 3f 3c 28 ea 53 bd 08 c3 47 bc fb 89 83 bd
       0.011672479 -0.05173698 -0.012192495 -0.06422802
000020 0e bc bc bd 6c 3d 6d bd 0a fa 23 bd 11 4b 36 bd
       -0.09215556 -0.057919905 -0.040033378 -0.044505183
000030 6c 55 87 bd de 00 b1 bd 19 67 bd 3d 4a 07 a8 bd
       -0.0660809 -0.086427435 0.0924818 -0.08204515
000040 d0 99 54 bd de 6e 51 bd c3 2e 0d bd b5 c7 de bd
       -0.0519045 -0.05113112 -0.034468424 -0.10877935
000050 b3 b4 e4 bd 20 52 2e bc cc 57 cf 3c 28 80 d3 bd
       -0.11167278 -0.010639697 0.02531042 -0.10327178
000060 cf d7 1f 3d fd 7d d3 bd e7 07 a5 bd 42 ea b9 bd
       0.03902417 -0.10326765 -0.08058148 -0.09077884
000070 17 08 8f bd 0e 88 18 bd 30 6d 89 bd aa 5c 6d bd
       -0.06983965 -0.037239127 -0.06710279 -0.0579497
000080 47 31 b5 bd 01 61 c3 bc 4f 6f c0 bd 1e 82 5d bd
       -0.088472895 -0.023849966 -0.093962304 -0.054079168
000090 87 71 02 be ce 58 3e be 3e 09 5a bd 20 96 91 bd
       -0.1273862 -0.18588564 -0.05323147 -0.07108712
0000a0 d5 eb 61 bd e2 83 56 bd e8 50 d8 bd 6d bc 92 bd
       -0.055156548 -0.052371867 -0.10562307 -0.071648456
0000b0 d1 c4 cf bd 1b 48 a8 bd 85 45 ca bc 91 19 c4 3b
       -0.101449616 -0.08216878 -0.024691353 0.005984493
0000c0 f1 65 1b bd ea 35 1f be 83 02 83 bd 58 2a 61 bd
       -0.037939016 -0.1554791 -0.063969634 -0.054972023
0000d0 f3 1b 95 3c c8 70 fc bb 84 8e 4b bd ba a7 76 bd
       0.018201804 -0.0077038743 -0.04969646 -0.06021855
0000e0 58 50 c0 bd 33 68 b4 bd 05 6b 33 3c fa c8 f3 3c
       -0.09390324 -0.08808937 0.010950808 0.029758919
0000f0 e4 a8 08 bd 81 fd 18 bd e1 f7 01 bd 16 41 0f be
       -0.03336419 -0.037351135 -0.031730536 -0.13989672
000100 e0 1d 86 bd db 13 b7 bd a5 0f 46 bd 2f 1b df bd
       -0.06548667 -0.08939334 -0.048354764 -0.10893857
000110 88 d0 83 3c 43 f3 ab 3c eb 24 6a bd d5 a3 a7 bd
       0.016090646 0.02099002 -0.057164114 -0.08185545
000120 97 e2 d3 bd 37 3c 33 bd b2 54 a3 bc f0 e4 97 bd
       -0.10345953 -0.043758597 -0.019937847 -0.07416713
000130 b9 96 99 bd 6b f2 23 bd ee 4d 48 bd 3a 5d 0b 3d
       -0.07499451 -0.04002611 -0.048902445 0.034024455
000140 7f ce 40 bd 0a 6f 38 bd b3 f3 0b 3e 58 04 05 3c
       -0.04707193 -0.04502777 0.13667183 0.008118711
000150 63 8d a3 bd 9d f6 39 3e 47 fe da bc cd 76 cb bd
       -0.07985952 0.18160482 -0.026732577 -0.09934769
000160 98 18 94 3d 44 68 8e bd 4f 56 da bc f4 d6 70 3e
       0.072312534 -0.06953481 -0.026652483 0.23519498
000170 ed 3a 93 bd 17 e8 05 be c6 90 02 be 47 ba 66 bd
       -0.071889736 -0.13076816 -0.12750539 -0.05632999
000180 92 7a 93 bd cc 9a f6 bd ff f7 7f bd 2c 55 e3 bc
       -0.07201113 -0.12041244 -0.062492367 -0.027750574
000190 d1 a5 94 bd 0a ee 02 be 3b bd ac bd 8b 72 ca bd
       -0.072581895 -0.12786117 -0.0843453 -0.098851286
0001a0 28 f4 a1 bd 1f 10 7d bd 42 5f 17 be 58 ef 18 bd
       -0.07907897 -0.061782952 -0.14782432 -0.03733763
0001b0 18 b0 15 be 26 de 10 bd 57 94 17 be 38 0f ca bc
       -0.14617956 -0.035368107 -0.14802681 -0.02466546
0001c0 f2 cb 54 3c 3f 61 a9 bd f1 31 70 bd 14 23 81 bd
       0.0129880775 -0.08270501 -0.058641378 -0.06305519
0001d0 35 86 de bc 26 a3 98 3b be ec 84 3c 16 20 70 bd
       -0.027163604 0.0046581207 0.016226169 -0.05862435
0001e0 d8 c1 d3 3a 5b e0 de bd dd ce 4e bd 8b 39 16 bc
       0.0016155792 -0.10882636 -0.05049025 -0.009168993
0001f0 6f fd ad bc 3f fc d5 bd 93 50 a9 bc 8d 3f 1f be
       -0.02123901 -0.10448503 -0.020668304 -0.15551586

features.prelu4.weight f4 [128]
000000 ae 14 25 3c 80 bf cf 3c 8e c0 98 3d 8c 45 37 3e
       0.010075731 0.025359869 0.07458602 0.17897624
000010 fb 99 f1 3c 88 da 38 3e 0e b4 ef 3c a0 f3 f4 3d
       0.029492369 0.18052113 0.029260661 0.1196053
000020 0b 5a b6 3d b4 05 a9 3c d8 14 b2 3d bf 68 06 3e
       0.08903893 0.020632602 0.08695382 0.13125895
000030 b8 ed 85 bd e1 65 9f 3d 45 e0 a7 3d 0c ed a5 3d
       -0.06539482 0.07783104 0.08197073 0.08101854
000040 53 9b b6 3d 81 ec d0 bd 3a 4f 24 3d c2 32 59 3e
       0.089163445 -0.102013595 0.04011462 0.21210769
000050 ef ca 15 bc 8f 99 13 bd 55 5d 11 3e 81 76 1a 3e
       -0.009142621 -0.036035117 0.1419576 0.15084268
000060 8d d7 82 bb 30 7e 2b 3e 11 f1 fd bc d5 d0 79 3d
       -0.003992981 0.16747355 -0.030998738 0.060990173
000070 fb 2e 02 3e f8 5a 2a 3e 12 25 e9 3d c0 65 68 3d
       0.12713234 0.16636264 0.11384024 0.05673766
000080 b7 98 25 3d 5b 80 ac 3c 49 fc e5 3c a8 5d 32 3d
       0.040428843 0.021057298 0.0280744 0.04354635
000090 6e e4 5d bc 3b ad 2a 3e 0f 86 9e 3d 48 30 fc ba
       -0.013543231 0.16667645 0.077404134 -0.0019240463
0000a0 45 27 4b 3d be 6a cc 3b a6 bd 3f 3d 47 12 89 3d
       0.049597997 0.0062383106 0.046811722 0.06692939
0000b0 6e 7e 49 3e 6c 1a 23 3e 04 db 7c 3d 35 e2 d3 3d
       0.19677135 0.15928048 0.061732307 0.1034588
0000c0 ed a2 d1 3d 67 bf 1d 3e a0 55 7e 3d 5e 55 b0 3d
       0.10236154 0.15405045 0.062093377 0.086100325
0000d0 16 73 29 3e c6 af e1 3c 65 72 c6 3c 6a 40 20 3e
       0.16547808 0.027549636 0.02422447 0.15649572
0000e0 61 e1 31 3e 4a a0 8b 3d 62 7b 21 3e b1 98 d1 bc
       0.17371131 0.06817682 0.15769723 -0.025585504
0000f0 91 f0 18 3d a4 26 dd 3d 87 1e 1b 3e a0 97 6f 3e
       0.037338797 0.10798386 0.15148364 0.23397684
000100 e1 e8 39 3e 90 e2 2e 3e 6d d2 b2 3c 9c 17 31 3e
       0.18155243 0.17078614 0.021828854 0.17294163
000110 f2 d4 34 3e aa 65 17 3e 3b 6d 32 3d ad 0c aa 3c
       0.17659357 0.14784876 0.0435612 0.020757997
000120 4f 90 1c 3e 77 ab 12 3c 5b 37 d9 3d 9a a5 6a 3d
       0.15289424 0.008952013 0.10606261 0.057286836
000130 e6 5d b3 3d 91 c3 79 3d d1 e9 7e bc 02 f4 fe 3d
       0.08758144 0.060977522 -0.015558676 0.124488845
000140 67 23 9c 3d f9 56 19 3e cc c9 11 3e 40 41 7d 3d
       0.0762394 0.14974584 0.14237136 0.061829805
000150 c6 68 16 3e 87 21 90 be c8 68 93 3d 6a 65 0f 3e
       0.14688405 -0.2815058 0.0719772 0.1400353
000160 e3 32 ec bc 5c 75 e5 3c fa f2 22 3c e8 07 80 3d
       -0.028832858 0.028010063 0.009945625 0.06251508
000170 a3 fe b9 3d 91 b9 1c 3e bf 47 23 3e b7 a5 03 3e
       0.09081771 0.15305163 0.15945338 0.12856184
000180 93 70 0c 3b b9 ea 47 3d 51 23 21 3d f0 cf 06 3c
       0.0021429404 0.048807833 0.03934032 0.008228287
000190 d5 e7 cc 3d 13 18 f5 3d 4e 48 89 bd 1e c2 cc bd
       0.10005156 0.119674824 -0.06703244 -0.099979624
0001a0 68 5a c6 3c be bc ac 3d 42 83 3b 3e 7a 5f 5c be
       0.024213031 0.08434437 0.1831179 -0.21520796
0001b0 e2 1b f5 3d ab c2 19 3e b3 12 21 3e 49 94 1c 3d
       0.11968209 0.15015666 0.1572979 0.038227353
0001c0 d7 80 0d 3e ae 12 f1 3c dc e4 b0 3d bf 65 53 3d
       0.1381868 0.029427852 0.086374015 0.051610705
0001d0 44 8a f8 3d 81 f2 e9 3d 80 db 74 3e 4f 6e 30 3d
       0.12135747 0.11423207 0.23911858 0.04307395
0001e0 93 e5 c4 3d 32 7d 9d 3b 14 48 a2 ba 52 3f 24 3e
       0.096141 0.004806184 -0.00123811 0.1603978
0001f0 aa 7e 99 3e 17 0b 23 3e 02 50 98 3d 9d 11 ac 3e
       0.2997945 0.15922199 0.07437135 0.33607188
