pretrained_weights/best_pnet.pth (torch_old, 28844 bytes, 13 tensors)

features.conv1.weight f4 [10, 3, 3, 3]
00000000: b431 aabd 2b09 19be ea8e 9abe adaa 973e
00000010: 1fe5 e93e a68c be3e d9b4 aabe cfe9 28be
00000020: 5c30 05be 3696 1638 ba94 45bd d482 adbc
00000030: 0e28 883d 919c 8b3e f5f7 e03e 3269 0ebe
00000040: 2ffb 03bf 27ce 8abd c840 ed3d 88e0 283e
00000050: 59a0 133d 4be3 49bd e9be cf3e 1cdd 243e
00000060: dc0f f4bd 5152 d1be 2a1f 86be f930 72be
00000070: 45b7 0a3e 5acd a03e ee88 c43e 4712 743e
00000080: d62e 11be 21a9 743e ec36 c1be 97aa 69be
00000090: aa38 20bd a284 ce3e e48e 03be 2b2b 293e
000000a0: 1a4e 6f3e d6ac cbbe 7922 083c 31c4 83be
000000b0: 4a95 15bf 8835 d43e 4fa3 e1bc 0ea8 64be
000000c0: c63f 7e3c 7c76 c1bc 1f66 79be 8f87 25be
000000d0: e32b 93bd 6b25 ca3d 1806 bf3e c8b5 cdbe
000000e0: 6af7 6ebf 67d6 b83e a7f7 a03e 0e4b 9abe
000000f0: 4c32 273d 3654 c03e a090 393e 0174 d13d
00000100: 35d2 043c d219 ccbd eb67 443e 77ab 05bd
00000110: 330f 63be 46c1 d2bc f91a 113e 29cb 41be
00000120: abeb 43be 3483 20be 9b58 c13e 86ce 603d
00000130: 38a3 8fbd 09c8 99be e617 ac3e 9058 243e
00000140: 7cea 74be df7c 33bf 70c4 37bf fad2 f9be
00000150: 12a8 44be e4c9 533d f18f ec3d e674 053f
00000160: f80c 2e3f 2bc5 453f 7840 ffbc d0bc 20bd
00000170: 47c8 2cbe 9e2b 423e bb78 603d 9e9b 703d
00000180: 43d7 51be 737b f13d 44b4 20bd ade9 7cbd
00000190: 61c7 11be 8551 8bbc 2906 3e3d 0c63 353e
000001a0: 5c76 f73d 885e 013e 5e11 76bc a064 3fbe
000001b0: 6584 0f3f 70ec 743e 1abf 1abf 80cf 2d3f
000001c0: a611 46bf 29c3 f4bd 3512 e03e d9ea 0fbf
000001d0: ba6d 93be c75b 3dbe 5ee3 bc3e b930 5e3c
000001e0: 5a0c e43d 95ba 96be 07b4 303f 2725 bcbe
000001f0: 706f 05bf dc62 d7bd aa36 34bf c239 59be
00000200: eea5 a1bd c1c0 76be 550b 1d3d 0dc7 543f
00000210: 39fd db3d 05b4 d83e b20e 0c3f d700 2abf
00000220: c567 533f fbef fdbe ff1e 52be ab7d 3f3f
00000230: 7d14 dabe 20d1 f93d ea4b 363e 0aa6 1abd
00000240: ccb2 ca3c b385 4d3f 7a59 2bbe b750 b1be
00000250: fd46 503e e056 94be 2d08 42be 1615 e93b
00000260: a639 2dbe 6985 82be 212f 173d c1cd 06be
00000270: 2bd2 c6bd f71f 223e 2da2 693d 7082 f1bc
00000280: cc02 3c3e fa41 ec3c 24be c0be ad89 0bbe
00000290: 9741 93be 2445 533e 318c 8dbd a09a 50be
000002a0: 1963 64be 9700 43bf 3628 42bf 03bc 983d
000002b0: e07d 073e bb30 1c3e 2df5 78be a352 3a3e
000002c0: 6257 193e 8027 aabd f401 853e 72be 933e
000002d0: 7236 01bd 6d2a 853d 426c 493e 1857 e0bc
000002e0: 4bed dcbd 64d6 99be f999 243e d757 823e
000002f0: f3a4 343e 3e22 d8be a4f3 c1bd 0b7f c93e
00000300: bfb4 98be 7c52 db3c 2272 bd3e f5c0 703d
00000310: 7f39 1abe d70f c13d b1f9 adbe 0d95 abba
00000320: b213 663e 5fa3 b7be b702 8b3c 790c d53e
00000330: 9ca6 a5be a67e c73d 7933 713e ac79 10bd
00000340: 2b09 ff3b 7ee8 ab3d eb55 b5be a590 293d
00000350: 5643 7d3e 26ab f3bd 3e50 d43d fd3e ae3d
00000360: 9b3c 1abf 0846 6ebf d2fb 95be abee 8dbe
00000370: 6bed e7be 08be 8f3d 1688 99bd 10e4 c13d
00000380: 5a81 d83e c7cd 083f 6cf1 623f 95d0 df3e
00000390: c595 0f3f b490 823f 0a09 c63e 2436 143e
000003a0: 1ee7 903e 1e5b a6be ea92 113e 55b4 e63d
000003b0: ceae c4bd c56a 56be ee98 0bbf 4216 d2be
000003c0: 5a47 63bc 54bc d1be 5872 b6bd c919 c7be
000003d0: 6612 973f 7633 463f 9c0e 81bf fcbc 003f
000003e0: f9ec 993f 8171 adbf a322 5ebf aacf c7bd
000003f0: 4cd0 4e3e a644 0bbf 4616 1fbf cbd0 383e
-0.08310261 -0.14944904 -0.3018716 0.29622403 0.45682618 0.3721668 -0.333411 -0.16495441
-0.13006729 3.590268e-05 -0.04823754 -0.021180548 0.06648265 0.27267888 0.43939176 -0.13907316
-0.5155515 -0.06777602 0.11584622 0.16491902 0.03604159 -0.04928903 0.4057534 0.16099972
-0.119170874 -0.40883115 -0.2619565 -0.23651494 0.13546474 0.3140667 0.3838572 0.23835097
-0.14178023 0.23892643 -0.37737215 -0.22818981 -0.03911654 0.40335566 -0.12847477 0.16520374
0.23369637 -0.397803 0.008309 -0.2573562 -0.5843092 0.4144709 -0.027543692 -0.22329733
0.015518134 -0.023616068 -0.24355362 -0.16164993 -0.07186105 0.09870418 0.37309337 -0.4017775
-0.93346274 0.36101076 0.31438944 -0.30135387 0.04081945 0.37564248 0.18121576 0.10227204
0.008106758 -0.09965862 0.19180267 -0.032634225 -0.22173767 -0.025726926 0.14170446 -0.18925156
-0.19132869 -0.1567505 0.37762913 0.054884456 -0.070135534 -0.30035427 0.33611983 0.16049409
-0.23917574 -0.70112413 -0.71784115 -0.48793775 -0.19204739 0.05170621 0.11550892 0.521315
0.6798854 0.7725398 -0.03115867 -0.039242566 -0.16873275 0.18961951 0.054802638 0.058742158
-0.20492272 0.11791124 -0.039234415 -0.061746288 -0.14236213 -0.017006645 0.046392594 0.17713565
0.12083122 0.12633717 -0.015018789 -0.18690729 0.56061393 0.23918319 -0.6044785 0.67894745
-0.7737068 -0.11951286 0.4376389 -0.56217724 -0.28794652 -0.18492042 0.36892217 0.013561421
0.111351684 -0.29439226 0.690247 -0.36747095 -0.52123165 -0.10516903 -0.7039591 -0.21213439
-0.07892977 -0.24096967 0.038340885 0.8311623 0.10741658 0.42324844 0.54709923 -0.6640753
0.82580215 -0.49597153 -0.20519637 0.7480113 -0.42593756 0.121980906 0.17802396 -0.037756003
0.02474346 0.80282134 -0.16733351 -0.34631893 0.2033958 -0.2897253 -0.18948431 0.0071131093
-0.16916522 -0.2549241 0.03691018 -0.13164426 -0.09708055 0.15832506 0.05703943 -0.029481143
0.18360442 0.028840054 -0.37645066 -0.13626738 -0.2876098 0.20631844 -0.06911505 -0.20371485
-0.22303428 -0.76172775 -0.7584261 0.074577354 0.13231611 0.15252964 -0.24312277 0.18195586
0.1497474 -0.08308315 0.25978053 0.28856236 -0.031546064 0.06502233 0.19670203 -0.02738528
-0.107874475 -0.3004638 0.16074361 0.2545764 0.17641048 -0.42213625 -0.09470299 0.3935474
-0.29825398 0.02677273 0.3700114 0.05877777 -0.15060996 0.09426849 -0.33979562 -0.0013090685
0.2246845 -0.3586683 0.016969068 0.41611078 -0.32353675 0.09740953 0.23554792 -0.035272285
0.0077830753 0.08393954 -0.35417113 0.04139771 0.24732718 -0.11897878 0.103668675 0.08508108
-0.60248727 -0.9307561 -0.29293686 -0.27721152 -0.45298323 0.070186675 -0.074966595 0.094673276
0.42286187 0.5343899 0.8864963 0.43713823 0.56087905 1.020041 0.3867877 0.14473778
0.28301328 -0.32491392 0.142162 0.11264864 -0.09603654 -0.20939167 -0.5453023 -0.41032606
-0.013871992 -0.40963995 -0.08908528 -0.3888686 1.180249 0.77422273 -1.0082583 0.5028837
1.2025443 -1.3550264 -0.867716 -0.09756406 0.20196646 -0.54401624 -0.6214336 0.18048398

features.conv1.bias f4 [10]
00000000: 3146 5bbc f3b9 f1be ea66 d2bd 7dfd 143d
00000010: 93f7 173d c7e2 97bd d852 1ebf ed79 793b
00000020: 0934 173f 628d 02bd
-0.013383434 -0.4721218 -0.102735355 0.036374558 0.03710134 -0.07416301 -0.6184516 0.0038067058
0.59063774 -0.031873114

features.prelu1.weight f4 [10]
00000000: cf33 323e 808c 133f 4e35 d03e b91c cabe
00000010: e2ea d4be 4a35 e4be 97fd 0c3f 7203 27bf
00000020: f91d dabe e668 a2be
0.17402576 0.5763626 0.40665668 -0.3947504 -0.4158545 -0.44571906 0.5507445 -0.6523963
-0.42600992 -0.31720656

features.conv2.weight f4 [16, 10, 3, 3]
00000000: 94fc 093f 9784 a43c e6a4 31bd 0696 503e
00000010: b2a1 b8be 5216 d63c 9463 73be 65d3 ebbe
00000020: 4196 8b3e 9056 95bd da8b 453d 4ac7 0e3d
00000030: 0500 ce3d 09d5 91bd 6205 2abe bafc 1e3f
00000040: 01e3 f23e 4ce0 87be 2002 25be 5fef 2dbe
00000050: 7c46 4cbe daa4 51be abb8 97be c11a 8d3d
00000060: 3188 91be 698b 993d 94d9 0d3f e7a7 3f3e
00000070: 8ff2 64be db94 843d d3f8 5d3e 6151 9fbe
00000080: b31b 9f3d d749 8fbc 1de4 42be 646e 0abe
00000090: 1f1c 7d3e b35f cc3e 8097 593e b310 513e
000000a0: 9e78 053f 7b6e 753e d461 3c3e adf0 f23e
000000b0: f80d 853e a92f 9fbb 3f2a a03e 5849 453d
000000c0: 4ce2 49bd 6fe1 123e 887a 783e e827 3ebc
000000d0: 7a15 9a3e 25b3 973e fee4 53bb 21ee d73e
000000e0: fc85 493e 435d 15be aa2c 0b3f a0e6 843e
000000f0: edd5 07bf 6c4d fcbd 7a45 13be e2f4 cfbd
00000100: cf42 ee3d 85b4 5c3e 5e28 edbd 42e3 103e
00000110: 932b 413c f344 8e3d 53ec bbbc 68be 90be
00000120: af73 4cbe 458f 1d3f d463 763e dae0 c5bd
00000130: 514e 443e 8edb a33e a537 31be ce37 ba3e
00000140: 1054 493e cb35 233e 7b8f e63e a317 273f
00000150: ba3b 2bbe 557b d03e 1908 333f 7d13 873e
00000160: 0776 173f 7ba5 2b3f ceaf 21be d503 983e
00000170: fc2c 113d 00c2 a039 261a 40bd 6065 35be
00000180: 033d 203e ee98 9bbd c9ee 033c 1609 6f3e
00000190: ab2d 18bf ebbb 95bf 16f4 96bc 750f 703d
000001a0: ba1f b7be b49d 0c3e 8517 493d 63a8 973e
000001b0: 620c 6abf ba62 ddbe 0079 0540 5f0b ee3d
000001c0: e15f a73e 4cf7 053e 9539 e23d 971b 883c
000001d0: 7b28 ccbd 62e6 f23e ef8d d03e da26 44bf
000001e0: 81e7 1fbe bbf0 ba3d 7d6b 56be 23fa 263e
000001f0: b646 af3d cfe9 883e ab6c 2ebf 5e1e 42bf
00000200: 179b 1ebf ac60 04bd ed7e 53bd cbbc c0be
00000210: 2b30 b23e a537 d43a 1037 0dbe 6925 83bf
00000220: 6014 afbf ae0d 6bbf c7b2 873e 1a60 c6bd
00000230: 527b 50be 39ed 033d c94c 553e f1e0 153e
00000240: ae4e d1bf d7a2 b6bf 0bcc d33f 1827 583f
00000250: 0646 263d 197d 253f 2cc5 44bc 0a2a 433e
00000260: 7cae 26bf c990 563f a901 663d 115a 133e
00000270: ea0d 76bd 2f50 06be de82 223e 0582 b5bc
00000280: 9f17 463d 34b0 01be b1de d03e 11a4 69bf
00000290: d1f8 3b3f 9ffb 56be d832 52bf 7a4a 23bf
000002a0: 8353 083f 926d af3e 56c4 51be 9236 3dbe
000002b0: a05e 25be 74c3 453e ce5d c13e 1a26 c5be
000002c0: 10ff fe3a 71a3 403e ad3b 02be d33d 823e
000002d0: b6bc 5bbe 59d3 d1ba 6849 e33e c742 e5be
000002e0: 2f94 a0be b63c 7e3e e468 41be 9484 c63e
000002f0: 4627 be3e cca9 aabe 6d31 133f 2dca 263e
00000300: 01a3 92bf b6a1 113f 156c f93e 170c 6dbf
00000310: 051a 2ebf 715a 483e 4b5d 4f3e 876e 62be
00000320: e991 4dbe 58dc 453f e84d c4bd ffac b23d
00000330: 27a6 4b3f e685 ebbd 1c96 d9be 7070 1dbe
00000340: cb99 20bd 3364 9e3e 7869 fabe 0096 96bd
00000350: 6ca8 e6bd 97da bebd 001e c3bd 5c7d 253f
00000360: da9f 04be 99e0 a5be dc77 cebe 322a 9d3e
00000370: 0cb0 0b3f 6645 d03e cf21 5b3e f811 c5be
00000380: 47be 7bbe f997 ae3d 8cab 81bd 060c 5fbe
00000390: daa6 0e3e 6ef4 09be d8e0 05be b904 acbe
000003a0: 9b8d d5be 2819 97be 733f 8fbf 91bd 90be
000003b0: ccea efbd f75e 9abe d196 c6be 4dbc 0bbf
000003c0: 3ad9 0740 14b7 463f 0929 c7be f301 7d3e
000003d0: ca21 52bd 27cb a33b b6ad 27bb 843f 81be
000003e0: 1de2 3cbd 8cf2 083f e068 04bd 13d0 25be
000003f0: 9cb4 f6be 6560 babc 2b3d 4fbf 1053 0e3e
0.5390103 0.020082755 -0.04337015 0.2036973 -0.36060864 0.02613369 -0.23768455 -0.4605972
0.27263072 -0.07291901 0.048229076 0.034858026 0.100585975 -0.07120711 -0.16603616 0.6210438
0.47438815 -0.26538312 -0.16114092 -0.16985844 -0.19948763 -0.20473042 -0.29633078 0.068898685
-0.28424218 0.074972935 0.5541012 0.18716393 -0.22358154 0.064737044 0.2167695 -0.31116775
0.07768955 -0.017491264 -0.19032331 -0.13518673 0.24717759 0.39916763 0.21249199 0.20416526
0.5213717 0.23967926 0.18396693 0.47449246 0.2598722 -0.0048579765 0.3128223 0.04816565
-0.04928808 0.14343809 0.24265492 -0.011606194 0.3009451 0.29628864 -0.0032332535 0.42173865
0.19680017 -0.14586358 0.54365027 0.25957203 -0.530608 -0.123194546 -0.14381972 -0.101541296
0.116338365 0.21553238 -0.11579965 0.14149192 0.011790174 0.06946745 -0.022939837 -0.28270268
-0.19966005 0.61546737 0.24061519 -0.09662028 0.191705 0.32003444 -0.17306383 0.363707
0.19660974 0.15938489 0.45031342 0.6527044 -0.16722003 0.40719095 0.6993423 0.26382056
0.5916447 0.6704938 -0.1578972 0.29690424 0.03544329 0.0003066212 -0.046899937 -0.17714453
0.15648274 -0.075975284 0.008052536 0.2334331 -0.59444684 -1.1697973 -0.018426936 0.05860849
-0.35766393 0.13732034 0.049094696 0.29620656 -0.91425145 -0.43239385 2.0855103 0.116232626
0.32690337 0.13082618 0.11046139 0.016614718 -0.099686585 0.47441393 0.40733287 -0.7662178
-0.15615655 0.09127947 -0.20939441 0.16306357 0.08558409 0.26740882 -0.68134564 -0.75827587
-0.619554 -0.032318756 -0.051634718 -0.37644038 0.34802374 0.00161909 -0.13790536 -1.0245792
-1.3678093 -0.9181775 0.26503584 -0.09686299 -0.20359543 0.032208655 0.20830072 0.1463659
-1.6352136 -1.4268445 1.6546644 0.8443465 0.040594123 0.6464401 -0.0120099 0.19059005
-0.6510999 0.83814675 0.056153927 0.14389826 -0.060071863 -0.13116525 0.15870234 -0.022156725
0.04836237 -0.12664872 0.407949 -0.9126597 0.7342654 -0.20994423 -0.8210883 -0.6378552
0.5325243 0.34263283 -0.20485052 -0.18477848 -0.16149378 0.1931284 0.3776688 -0.38505632
0.0019454677 0.18812348 -0.12718077 0.25437793 -0.21458706 -0.0016008421 0.44391942 -0.4477751
-0.31363055 0.24827847 -0.18887669 0.38773024 0.37139338 -0.3333267 0.5749729 0.16288061
-1.1455995 0.56887376 0.48715273 -0.9259657 -0.6800845 0.1956575 0.20250432 -0.22112475
-0.20075192 0.7728934 -0.09585172 0.08724403 0.79550403 -0.115001485 -0.42497337 -0.15374923
-0.03920917 0.3093582 -0.4890859 -0.07352829 -0.11262593 -0.093190365 -0.095272064 0.6464441
-0.12951604 -0.32397917 -0.4032582 0.30696255 0.545655 0.40677947 0.21399616 -0.38490272
-0.24584304 0.0852508 -0.06331548 -0.2178193 0.13930836 -0.13472149 -0.13074052 -0.33597353
-0.417096 -0.2951138 -1.1191238 -0.28269628 -0.11714706 -0.30150577 -0.3878694 -0.545842
2.1226335 0.77623105 -0.38898495 0.24707775 -0.051301755 0.004998583 -0.0025585718 -0.2524377
-0.046114076 0.534951 -0.03232658 -0.16192655 -0.4818467 -0.022751043 -0.8095271 0.13898873

features.conv2.bias f4 [16]
00000000: 5589 d0bf b2c9 b93e 4a44 813e c96d 873f
00000010: c0c4 423e 26b1 613f b79b 8f3e 162e c83e
00000020: 5232 1a3f 641b 5d3f 7989 a93f a02e a9bf
00000030: a02e 21be bbd2 683f e435 af3f 2079 793e
-1.629191 0.36286694 0.25247413 1.0580379 0.19020367 0.8816093 0.28048488 0.3909766
0.6023303 0.8636992 1.3245078 -1.3217354 -0.15740442 0.9094655 1.3688321 0.24362612

features.prelu2.weight f4 [16]
00000000: 83b3 5e3f a095 3b3e 59b8 c13e 1ea2 343d
00000010: af08 9b3d fff8 4f3e 43c9 73bd bfd2 a1bd
00000020: 680a 0c3e 8895 623d 43c9 c83e 55a5 d0bc
00000030: 777b 6dbe 3fcb 4f3e 4a17 5a3e 0d93 d9bc
0.86992663 0.18318796 0.3783596 0.04409992 0.07570016 0.20309828 -0.05951811 -0.07901525
0.13675845 0.055318385 0.3921605 -0.025469461 -0.2319163 0.20292376 0.21297947 -0.026559377

features.conv3.weight f4 [32, 16, 3, 3]
00000000: bae9 06be d18f aebd 213b 87bd 295c e7bd
00000010: f1cb d1be aa5d abbc 9b2c 0fbe b4df d5be
00000020: 4b30 bc3d 1fb2 553d d976 323e d31c 9b3d
00000030: 9381 6fbe 624b 8cbe 68a6 25be e75a 71be
00000040: 5050 73bd f492 8fbc 850e 7bbe 555e 44bd
00000050: 8ce4 93be e3b6 3cbe 0a79 aa3d c21f 6abe
00000060: 3f25 82bd 1eb8 703e e636 a43e 3580 a23e
00000070: 86d0 b13d 48ad 2f3e 54ca 2dbe 3a59 63be
00000080: 9562 efbd 7e03 08bf 0e9a f93d 970d 96be
00000090: 60fc 0c3f 52f4 313e 136b f63d edc6 4cbd
000000a0: b213 18bd 70e2 993d 0b4f 833d 188d f4bd
000000b0: b77b 31be 6307 563e a91b 1abe b009 203e
000000c0: c100 85bd ea62 3dbe b6cd 323d 7305 c5be
000000d0: 7d1a 53be 5a89 aebe a862 2abe 42be bebe
000000e0: 2f91 12bf 739b 2bbe 5cb0 82be 31dc dabe
000000f0: f5ff 4ebe 9762 41be 2fba 9bbe 0c14 f1be
00000100: 4138 e8be 77e7 b4be 47c6 7fbe 3ab6 27be
00000110: 66d3 27be 3ac4 a8be 962e 9cb8 013d 34bc
00000120: 0c9d 12be 0c7f aa3d b38a 7d3e 40d4 73bd
00000130: e3bf e0bc 1f1a 3cbd 096b 74be 4649 b1be
00000140: d919 a7be b620 a8be 1a49 ffbd 979c 99be
00000150: 4e10 493d 88c8 973e 0ebf a9be c876 16bd
00000160: eacd b93d c3a1 e8bd a19a e83e cf71 c4be
00000170: 3a5d 08be 0a19 5d3e ca8c 5cbe a64e e4bd
00000180: cf32 d53e 2b03 b0bc 0b3c 12be a11d dc3d
00000190: 7ecd d9bd 6d49 b3be 4875 543e 129c 893e
000001a0: 906a 93be c02a 9bbd 8240 ac3e b53a 00be
000001b0: 3666 1d3e 3669 18be 6a2e 843e bc9d 3b3d
000001c0: 53fc 183d 36b0 c33c 3fa2 903d a251 f53d
000001d0: 1dc4 293d f5fe 493c dd82 75be fd07 913c
000001e0: f32b 253d 4581 48be aa48 963d 4353 f43d
000001f0: dd52 afbe c13e 4bbd ace9 b73d 97ab 6f3e
00000200: edad e6bd fb77 ab3e 32bd 18be 657a 5fbe
00000210: 4f5f d8be 6c7e 61be 43cd 8cbc 837e 063d
00000220: bc34 cf3d f9e1 243d 5f6a 80be d977 dcbc
00000230: a023 37be d230 83be fce9 883c fbfd 20bd
00000240: 10ba acbc 004d 0f3e 7adb 073e 625e 4bbe
00000250: c62a a53e e937 d9bd 7b09 6bbf 0d13 efbe
00000260: e952 abbe 83e6 153f 7952 ab3e d4f7 afbe
00000270: ee92 e83c 2de0 863d efb4 083f 7485 f3be
00000280: 7c7d 03bf 3ba5 f7be 3d36 1bbf 4311 953d
00000290: 19ed 1bbe dfc6 2fbf 3516 75bd 3d63 1dbf
000002a0: 7552 0d3f b233 dbbe 1798 f9be bf08 8e3e
000002b0: 3c8c d7bd 73a8 d53d 8967 273e 0f73 35bf
000002c0: 39d1 253f c1b5 efbe 1c9b 30be 3b87 1dbe
000002d0: c875 553e cd17 9abe e5fe 903e f0a5 db3e
000002e0: 679d f3bd 8a20 ffbd 154d 39bf 2186 babe
000002f0: 4ea5 5abe 20a5 d03d b2b8 c63d f4d7 abbd
00000300: c57a 1f3f d194 cabe 893e e5be 7a38 043f
00000310: 0796 833e 9dd8 d53e 2960 a3be fed6 0abe
00000320: adbe 6cbd c36b 9fbe fdad 4dbe d594 54be
00000330: 05ca 38bf f4cd 84be 0248 e43e 62e5 473d
00000340: 380e debe 67fe b93d 6be0 e0be acfb 27be
00000350: 69fb fabe 2b11 17bf 60f1 113e 2cb8 893e
00000360: 4039 f93b 0727 293d 7720 353f f91b 03bf
00000370: e8df 50bf 55fb 28bf 7130 a73e d031 743f
00000380: 380f 1bbf 6fc3 05bf a2c3 debd b212 dd3e
00000390: 991d 62be 7263 163c f0c4 8bbe b780 97bf
000003a0: 0807 6a3e 1953 d7be ef13 15bf afeb 043d
000003b0: 7592 a8be a935 a13d 294a 39be 4ddd 1d3f
000003c0: c866 2cbf 75f6 bebd 5bf9 9a3e f375 12be
000003d0: 688c 8bbe 6fa1 4fbf 71f6 9abd 45ea dc3e
000003e0: c254 063f 2f61 233f c358 95be d0b0 88be
000003f0: 95f6 263e 4de8 a93d ad1e 9b3d 331e 91bd
-0.13175097 -0.085235246 -0.06603075 -0.11296875 -0.40975907 -0.020918686 -0.1398186 -0.41772234
0.09188899 0.052171823 0.1742815 0.07573857 -0.23389272 -0.27401263 -0.1617676 -0.23569833
-0.059402764 -0.017526127 -0.24517258 -0.047941525 -0.28885305 -0.18429141 0.083238676 -0.22863677
-0.063547604 0.23507735 0.32073134 0.3173844 0.08682351 0.17155945 -0.16971713 -0.22202006
-0.11688725 -0.5313033 0.12187587 -0.29307243 0.55072594 0.17378357 0.120321415 -0.049994398
-0.037128158 0.07513893 0.064115606 -0.11940974 -0.1733235 0.20901255 -0.15049614 0.15628695
-0.064942844 -0.18494764 0.043653212 -0.3848072 -0.20615573 -0.34089166 -0.16639197 -0.3725453
-0.5725278 -0.16758518 -0.25525177 -0.42746118 -0.20214827 -0.18885265 -0.30415484 -0.47085607
-0.45355418 -0.35332844 -0.2497798 -0.16378108 -0.16389236 -0.3296221 -7.447337e-05 -0.011000873
-0.14317721 0.083250135 0.24759941 -0.05952859 -0.027435249 -0.04592335 -0.23868956 -0.34626216
-0.32636908 -0.32837456 -0.12465115 -0.3000228 0.049087815 0.2964518 -0.33153576 -0.036734372
0.09072478 -0.113589786 0.45430472 -0.3836808 -0.13316813 0.21591583 -0.21538082 -0.111478135
0.41640326 -0.021485886 -0.14280717 0.10747839 -0.10634898 -0.35016957 0.20747864 0.26876885
-0.28792238 -0.07576513 0.33642966 -0.12522395 0.15371022 -0.14883885 0.2581666 0.045804724
0.03735001 0.023887735 0.07062196 0.11978461 0.041446794 0.012328853 -0.23975702 0.017704004
0.040325116 -0.19580562 0.07338078 0.119299434 -0.34242907 -0.049620394 0.08980116 0.234053
-0.112636425 0.33489975 -0.14915922 -0.21824034 -0.42260215 -0.22020882 -0.01718772 0.032835495
0.1011748 0.040254567 -0.25081155 -0.026912617 -0.17884684 -0.25623184 0.016713135 -0.039304715
-0.021084815 0.13994217 0.13267317 -0.19860223 0.32259196 -0.10606367 -0.9181134 -0.46694222
-0.33461693 0.5855486 0.3346136 -0.34368765 0.028390374 0.06585727 0.5340108 -0.47562754
-0.5136335 -0.48368248 -0.60629636 0.07278683 -0.15227164 -0.6866283 -0.05983563 -0.6147955
0.55203944 -0.42812878 -0.48748848 0.27741048 -0.105247945 0.1043252 0.1634809 -0.7087869
0.64772373 -0.46818355 -0.1724667 -0.15383618 0.20845711 -0.30096284 0.2831947 0.42900038
-0.118952565 -0.12457378 -0.7238324 -0.36430457 -0.21352121 0.10187745 0.097031966 -0.08390799
0.62296706 -0.39566663 -0.44774273 0.51648676 0.257004 0.41766825 -0.31909302 -0.13558576
-0.05779903 -0.31136903 -0.20085903 -0.207599 -0.7218326 -0.2593838 0.44586188 0.04880274
-0.43370223 0.090817265 -0.43921217 -0.16404599 -0.49019936 -0.5901057 0.14252234 0.26898324
0.0076057017 0.041296985 0.7075266 -0.5121456 -0.81591654 -0.660085 0.32654145 0.9538851
-0.60570097 -0.52251333 -0.10877158 0.43178326 -0.22081603 0.009178983 -0.2729869 -1.1836156
0.22854245 -0.42055586 -0.5823354 0.032451328 -0.32924238 0.07871563 -0.18094696 0.61665803
-0.6734433 -0.09324352 0.30268368 -0.14302807 -0.2725556 -0.81105703 -0.07566536 0.43147483
0.5247308 0.63820165 -0.29169282 -0.26697397 0.16305001 0.08296261 0.0757421 -0.07085838

features.conv3.bias f4 [32]
00000000: 951b 15c0 c810 793f 5315 0bc0 980f 8c3f
00000010: 5317 403f dea8 97bf 95a7 ca3e 7b55 e23f
00000020: efeb c13e dfcc 363f 3568 c73f b700 1d3f
00000030: 4abd 703e bbda fcbf 6b6d 3fbf 7f51 d23c
00000040: 62b4 bfbe 8348 243f 8ed5 e33e c48f f53e
00000050: 8b64 01be 99af f5be 168e d43f 6d4f b03f
00000060: 84d4 1d3f 6f26 693e d7f0 cc3e 40d7 803f
00000070: 58a4 a1bf 2cbe 75be 7ca3 4140 de7d 0840
-2.3298085 0.9729123 -2.1731765 1.0942259 0.7503559 -1.1848409 0.3958098 1.7682337
0.37875316 0.7140636 1.5578676 0.61329216 0.23509708 -1.9754251 -0.74776334 0.025673626
-0.3744231 0.64173144 0.44498867 0.47961247 -0.1263601 -0.47985533 1.6605861 1.3774239
0.616524 0.22768568 0.40027496 1.0065689 -1.2628279 -0.23998326 3.0256033 2.1326823

features.prelu3.weight f4 [32]
00000000: 05b3 7ebd 0569 153d 0bda 15bd bdfa 813e
00000010: a6e9 da3e 51a3 17bd 1b83 9cbd 4f4b c63e
00000020: 3c48 a0bd 212e 873d 9ebb 8e3c 27b1 d73b
00000030: 4d56 bbbc 8bf5 dfbc 9284 ecbc 42e3 f3bc
00000040: 830c 23bf 7374 60bc e472 3abd a07a c0bc
00000050: 7e6d 0bbd aee5 0eba f567 00be ccc3 d53d
00000060: ff58 dcbd f33f 02bd c9d2 11be 49ba 0ebc
00000070: c196 bebd 7c98 aabb cba5 4dbe a39f 5f3e
-0.062182445 0.036477108 -0.036584895 0.2538661 0.42756385 -0.037020985 -0.07642194 0.3872933
-0.078262776 0.06600595 0.017423447 0.0065823975 -0.0228683 -0.027338764 -0.028871808 -0.02977145
-0.63690966 -0.013699639 -0.045519724 -0.023495972 -0.034039967 -0.0005451095 -0.12539656 0.10437736
-0.10759162 -0.031799268 -0.14240564 -0.008711406 -0.09306098 -0.005206166 -0.20082776 0.2183824

conv4_1.weight f4 [2, 32, 1, 1]
00000000: 93ff 3e3d 3404 84be d953 59be 94f9 41bd
00000010: 1b50 393e 5f05 983e fcdd acbb 844d d23d
00000020: 8073 38be 7aa6 82be 0305 47be 924b 963e
00000030: 4598 a6be eec8 6e3e 0af0 c0bd cb72 7cbe
00000040: d442 86bd 3370 953e 708a 81be ca41 a43e
00000050: 7f1f ad3e aeff 133e 42b0 a53d 8ba7 f7bd
00000060: ec39 36be 6bca 25be 8d92 50be 0191 7bbe
00000070: 862c ae3d 39b9 03be 10ff 073e 4d8c 563e
00000080: 62bd 0c3d 8b37 873e 551c 163e 44eb f33d
00000090: 1237 64be 260b 88bd 045e 92be dc16 f13c
000000a0: ff63 173e b085 593e f154 6c3e 9d32 a8bd
000000b0: 81f1 173e cc7c 20be 9556 963e cb7d 593e
000000c0: e1b9 37be 0bde 98bd 9007 313e 1189 9cbd
000000d0: 274c 47bd 9f0c adbe fbcf 273e 1820 da3e
000000e0: 5064 d43d e642 5b3e a9b4 f63d e824 263e
000000f0: 2d4b d13d c37b 623e cd0b 32be 6b8c 60bd
0.046630453 -0.25784457 -0.21223392 -0.047357157 0.18096964 0.29691598 -0.005275486 0.10268691
-0.1801281 -0.25517637 -0.19435506 0.2935453 -0.32538047 0.23318836 -0.09420784 -0.24653165
-0.06555715 0.29187164 -0.25300932 0.32081443 0.33813092 0.14453003 0.08090259 -0.12092503
-0.17795533 -0.16190498 -0.20368405 -0.24567033 0.08504586 -0.12863626 0.13280892 0.20951958
0.034360297 0.26409563 0.14659245 0.11910108 -0.22286633 -0.066427514 -0.28587353 0.029429846
0.14784239 0.21242404 0.23079278 -0.08212779 0.1483822 -0.15672606 0.29362932 0.21239392
-0.17942001 -0.07464226 0.17288041 -0.07643331 -0.04865661 -0.33798692 0.16387932 0.4260261
0.103706956 0.21412238 0.12046177 0.16225016 0.10219417 0.22117524 -0.17387314 -0.054821413

conv4_1.bias f4 [2]
00000000: 55ff e4bc c235 743e
-0.027953783 0.23848632

conv4_2.weight f4 [4, 32, 1, 1]
00000000: 0cb3 123e d17c f33a 9cb8 403b 59bc 063c
00000010: 7b34 bcba a632 12bc 4623 29bc 6adc 9e3d
00000020: 9d2d bab9 5337 34bb 5eef 053a 9109 a0bc
00000030: 0dc5 e3ba 8e0c 03bb fea6 02bc 2abf 99ba
00000040: ed71 c2bb 3042 81ba 3a4e 3d3b bab2 493b
00000050: 129b cbbb 5e47 6abc 6647 ad3b db56 1f3b
00000060: e53a 22ba fefd eebb 604f 263b 6867 d3ba
00000070: 5b16 fe3d 037c 93bc 2f0f 31bb fc7d 233b
00000080: 97ca 2cbe d0de 463b d076 653b 5587 863c
00000090: b1d6 313b 699f ddbb 4d6c cfba 7dc8 e43c
000000a0: cb37 deb8 a85a 093b 273d 943a 1267 00bc
000000b0: cfc5 c6bb 125b c9bb c8dd 9dbb ebe7 3ebc
000000c0: 187c 29bd b951 88bb 99ec 0b3b 951b 273a
000000d0: 0acf 7939 5410 08bc 064c 743d af5c 9c3a
000000e0: ff4e 113a 076a c6bb c878 023b 9e78 703a
000000f0: 5fc5 153e e70d f7bc 4f3e a9ba 75e3 b8bc
00000100: 7322 44bd ee3c 7fbb 4f09 d5ba ce87 14bd
00000110: 8d9c d838 6cf5 9e3a 7cde f53b f28b 8c3a
00000120: 0f9c 793a 9958 2bbb 5d84 83b8 2d0a f339
00000130: 65e1 883b 385c e73b aa38 e23a 96ab c63b
00000140: c535 223c 574a 4f3b 6baa 1bbb 2bcf 5a3b
00000150: 12b7 973a 8d72 1d3c 9301 20bc 5269 99ba
00000160: 6ecc 483a bdd8 8c3b 1a5d 5fbb a11a 3abb
00000170: 0138 6c3d b66b 803b 5376 1bba c51a 653d
00000180: 02a9 523d 9dc6 a3bb ebd5 a7bb 812b c9bc
00000190: da5b 2d3a 4a8c b53b 8835 e83c 229e 1abd
000001a0: 2cc7 033b e94e 2a3b 2c39 89ba d153 923c
000001b0: f649 853b 3456 5d3b e671 113c 79ea efb9
000001c0: 4721 e4bc 67d5 d23a a490 25bb e2bc 503a
000001d0: 8513 ac3b c7d6 d83c 2e0c 653d 4c9b 993a
000001e0: 2816 153b 963f 213c 1a9d f6bb 0bff 2439
000001f0: 7986 8cbd ed25 8db8 79ea 2f3a 95c1 123d
0.14326113 0.0018576627 0.002940691 0.0082236165 -0.0014358902 -0.008923208 -0.010323351 0.077568844
-0.0003551067 -0.0027498796 0.0005109216 -0.019535812 -0.0017377451 -0.0019996497 -0.007974384 -0.0011729945
-0.005933991 -0.0009861644 0.0028885738 0.0030776695 -0.006213554 -0.014299242 0.0052880524 0.0024313245
-0.00061885855 -0.007293462 0.00253769 -0.001612884 0.12406608 -0.01800347 -0.0027017107 0.0024946919
-0.16874157 0.003034521 0.0035013445 0.016421953 0.0027136023 -0.006763388 -0.0015825123 0.027927632
-0.00010596177 0.0020958576 0.0011309729 -0.007837074 -0.006066061 -0.0061448896 -0.004817698 -0.011651973
-0.04137811 -0.0041601327 0.002135074 0.00063746545 0.00023823619 -0.008304674 0.059642814 0.0011929477
0.00055430824 -0.00605512 0.0019908417 0.0009173247 0.14626072 -0.030157996 -0.0012912246 -0.022569397
-0.047884416 -0.003894623 -0.0016253385 -0.036262326 0.000103288425 0.0012127585 0.007503329 0.0010722859
0.0009521851 -0.0026145338 -6.271221e-05 0.00046356153 0.0041772597 0.007060554 0.0017259319 0.006062935
0.009900515 0.0031630003 -0.00237527 0.0033387642 0.0011574945 0.009609831 -0.009766 -0.0011704362
0.0007659857 0.004298298 -0.0034082592 -0.002839722 0.057670597 0.00391909 -0.00059304124 0.055933733
0.05143071 -0.004998042 -0.0051219366 -0.024556877 0.0006613113 0.0055404054 0.028345838 -0.037748463
0.002010773 0.0025986976 -0.0010469309 0.017862232 0.0040676547 0.0033773305 0.008877253 -0.00045760328
-0.0278479 0.0016085327 -0.0025263214 0.0007962716 0.0052513503 0.026469601 0.05591982 0.0011719256
0.0022748802 0.00984182 -0.007526052 0.0001573527 -0.06861586 -6.730468e-05 0.00067106594 0.035829145

conv4_2.bias f4 [4]
00000000: ae42 8bbd d83e 95bd 7e39 97bd d51e c53c
-0.067998275 -0.07287377 -0.07384013 0.024062553
