pretrained_weights/best_rnet.pth (torch_old, 239688 bytes, 16 tensors)

features.conv1.weight f4 [28, 3, 3, 3]
000000 a6 8a b5 be b4 4b 27 bf 51 38 5e bf a0 8f 41 3e
       -0.35457343 -0.6534989 -0.8680468 0.18902445
000010 7d 1b b9 bd a6 c1 a8 3e 56 32 46 3f 72 58 fd 3e
       -0.09038446 0.32960242 0.77420557 0.4948154
000020 82 07 dd bd db e4 dd 3d e9 cf 44 3e 8c 50 9a 3e
       -0.107924476 0.10834666 0.19219936 0.30139577
000030 56 56 fc bd 80 fe 8c 3e de 4f 2e 3f c6 eb 92 be
       -0.12321155 0.27537918 0.6809062 -0.28695506
000040 21 31 9a be 41 82 36 bf cc e5 02 3e bc 17 e3 3d
       -0.30115607 -0.712925 0.12782973 0.11088511
000050 cf 99 0c 3e 09 8b 55 be f2 5b 8e 3e 33 4a 12 3f
       0.13730548 -0.20853819 0.27804524 0.5714447
000060 fa 3e a9 be 61 06 22 be cf bb dc be a8 af e0 3e
       -0.3305586 -0.15822746 -0.43112037 0.43884015
000070 51 c4 03 3f 5b 0b d6 3d c0 97 12 bf 60 00 2a bf
       0.5147143 0.10451385 -0.572628 -0.6640682
000080 a1 d6 3c bf 09 bc d6 3e 82 15 34 3e 99 e5 f9 3e
       -0.73765 0.41940334 0.1758633 0.48807982
000090 15 a2 26 3e f9 11 98 3e 3e 15 a5 3e 6b 4a 1c bf
       0.16272767 0.29701212 0.3224277 -0.6105105
0000a0 76 5c 00 bf 56 4f 08 bf 28 69 9c 3e 1b f4 ce 3d
       -0.50141084 -0.5324606 0.30548978 0.10105153
0000b0 93 18 da 3d 0d 43 89 3e 99 35 93 3e bc 57 d7 3d
       0.106492184 0.26808968 0.2875183 0.10514781
0000c0 0d 02 c4 be 0d 5e c9 be 39 30 48 be f9 07 a5 bd
       -0.38282815 -0.39329568 -0.19549645 -0.08058161
0000d0 83 ee d9 3e c2 88 cb 3e 6f 08 c1 3e 18 40 92 be
       0.42564783 0.39752775 0.37701747 -0.28564525
0000e0 31 21 c3 be fb a9 20 be 92 dd 85 be 0f 64 0a 3d
       -0.3811126 -0.15689842 -0.26145607 0.03378683
0000f0 bc 98 90 3e 29 85 0a be 82 6e e3 3e a8 1b 48 3f
       0.28241527 -0.13527359 0.44420248 0.781672
000100 8d 16 da be 13 31 5d be 16 ff 88 3e 9c 63 6a be
       -0.4259533 -0.21600752 0.26757115 -0.2288956
000110 91 46 18 3d 54 50 8d 3e 03 ef cc bc 86 d0 71 3e
       0.037176672 0.27600348 -0.025016313 0.23614702
000120 f9 43 a6 3e 36 ef f4 be ff 07 36 be 06 6e 2d be
       0.32473734 -0.47838753 -0.17776488 -0.16936502
000130 c5 78 61 be 26 55 a3 bd f8 6f 00 3f 9d b9 57 3d
       -0.22018726 -0.07975225 0.5017085 0.05266725
000140 09 42 b7 bd 13 58 06 be be 88 73 bd ed 80 ae be
       -0.08948142 -0.13119535 -0.05945658 -0.34082738
000150 83 01 bc 3d 95 9c c6 be 4f f1 f4 be 7a aa f4 be
       0.09179976 -0.38791338 -0.47840354 -0.47786313
000160 a4 09 2c bf e0 97 37 bf 47 5c 81 3d aa 9a 6f 3e
       -0.6720221 -0.7171612 0.06316429 0.23398843
000170 21 da ec 3e b7 fd ab 3e 97 3f 98 3e d2 02 aa 3e
       0.4626017 0.33592007 0.29736015 0.33205277
000180 ce 67 a8 3e c3 71 c5 3e ef 2c f8 3e 73 b4 c3 bd
       0.32891697 0.38563356 0.48471782 -0.09555902
000190 5e b3 8e bb 49 44 b3 bc 7f 6f b3 bd 79 ca 92 3d
       -0.0043548783 -0.021883147 -0.087615006 0.07167525
0001a0 3d 2d 1e 3e e2 72 31 3e 0d 47 18 3e 35 96 74 3e
       0.15446945 0.1732898 0.14870854 0.23885424
0001b0 c9 4e d8 3e dc 40 88 3e 54 5a 7b 3e 76 d6 8b 3e
       0.42247608 0.26611984 0.24546176 0.27312058
0001c0 6d 12 4d 3d 75 7a cd 3d 8d c2 00 bf c0 78 84 be
       0.0500664 0.100331225 -0.5029686 -0.25873375
0001d0 ad 0e eb be f3 fb 83 3e 22 ab c2 3d a4 04 88 3e
       -0.45909634 0.2577816 0.09505297 0.2656604
0001e0 ad f7 24 3e 23 bf 28 3e 52 ba 4a 3e e7 d0 cc be
       0.16110106 0.16479163 0.19797638 -0.4000313
0001f0 77 07 9c be 91 d1 ee be 4a 94 45 3c e3 57 63 3c
       -0.30474445 -0.4664426 0.012059281 0.013875934
000200 c0 f9 3e 3e ee 0e 6f 3e 4a ee a2 bc c8 da 88 3e
       0.1864996 0.23345539 -0.019889016 0.26729417
000210 62 b2 a3 be 00 1f 42 be e3 69 b6 be 08 43 1a be
       -0.31972033 -0.18957138 -0.3562766 -0.15064633
000220 aa 02 84 3e ca 84 5e 3e 60 32 9f 3e 52 4f 08 3f
       0.25783283 0.21730343 0.3109312 0.53246033
000230 1d 45 b4 3e b6 aa 44 bf 78 71 fd 3d 20 b4 06 be
       0.3520898 -0.76822984 0.12375158 -0.1315465
000240 3d 8f 1e be 6f 0f 4f be 61 14 54 bd 70 a2 e7 3e
       -0.15484329 -0.20220731 -0.051777247 0.45241117
000250 25 4f 76 3e 57 88 dd 3d 2b 0c e1 be 0c 5e e8 bc
       0.24053629 0.108170204 -0.43954596 -0.028365158
000260 8b 82 a0 be a3 5f 82 be 72 92 a8 be d5 5c 16 be
       -0.31349596 -0.2546359 -0.3292423 -0.1468385
000270 2b 67 72 3e 01 3d 91 3d c9 37 29 3e 2e 9a 78 bd
       0.23672168 0.07091714 0.16525187 -0.060693912
000280 77 11 a3 3e 38 f5 00 be 18 9b 4e bf e1 00 31 bf
       0.31849262 -0.12593544 -0.80705404 -0.69141966
000290 ae 27 38 bf 70 6f 2d be 8d ab 59 3e f2 16 99 3e
       -0.71935546 -0.16937041 0.21256848 0.29900318
0002a0 f7 ca eb 3e 8c 66 ed 3e 00 53 cf 3e 23 59 bb be
       0.46053287 0.463673 0.4049301 -0.36591443
0002b0 9e 73 d4 bc 62 f8 90 bd 07 d1 1f be ef a1 1e 3d
       -0.025934037 -0.07078625 -0.15607081 0.03872865
0002c0 7e 96 b9 3d c9 3c 0e bd f1 e4 d7 3e 59 f7 04 bb
       0.09061907 -0.034725938 0.42166856 -0.0020289032
0002d0 c7 ae 22 be 83 43 ac 3d 6f b1 d0 3b 4b f7 34 bd
       -0.15886985 0.08411314 0.006368808 -0.04418115
0002e0 d6 d7 55 3e 05 08 22 3e 52 61 ef b8 91 49 a6 3e
       0.20883116 0.15823372 -0.000114145354 0.32478002
0002f0 c9 fc ac bd e8 3e b7 bd 70 f9 0a be b9 83 ba bc
       -0.084466524 -0.08947545 -0.13571715 -0.022767888
000300 cd b6 1d bf 55 2f 9c be 67 97 a4 bd 15 47 d2 3e
       -0.61607057 -0.3050486 -0.0803669 0.41069856
000310 6f 03 91 be a4 70 42 be f4 e6 18 3f 76 00 aa 3e
       -0.28322932 -0.18988281 0.59727407 0.33203477
000320 a2 77 13 3e 63 a7 b9 bc a5 ff 31 bd 32 9d 98 3e
       0.14401105 -0.022662824 -0.043456692 0.2980743
000330 f9 8e 1d 3f ce 75 2f be 07 31 a7 bd 56 9c f9 3e
       0.61546284 -0.17134783 -0.08163648 0.48752087
000340 39 77 8d 3e b6 07 72 bd b7 8c 5f be e9 49 8b be
       0.27630022 -0.059089385 -0.21831022 -0.27204826
000350 8a 26 c9 3d 84 2b 4f 3e b3 0e 1e be f3 7c 0c bf
       0.09821804 0.20231444 -0.15435295 -0.5487816
000360 2a 61 04 3e 66 10 e6 3e 76 c2 32 3e cf 35 45 3e
       0.1292769 0.44934386 0.17456993 0.19258808
000370 81 8b a1 3e a1 49 be be 6e 91 11 3e 6b 53 d3 be
       0.31551746 -0.3716555 0.14215633 -0.4127458
000380 36 6b af be 35 21 9d 3e 32 8c 6f 3e 51 15 b2 be
       -0.34261483 0.30689397 0.23393324 -0.34781888
000390 5b 6c cf 3e d5 27 94 bc c2 3f 02 bf 24 f7 17 3d
       0.40512356 -0.0180854 -0.50878537 0.037100926
0003a0 b3 ba e4 be 8f 06 b8 be 07 df 7e 3e f5 a7 ce 3e
       -0.4467369 -0.35942504 0.24889766 0.40362516
0003b0 fb a8 80 be 42 89 cc 3e 7d 7f 6c 3e 6a d6 f9 be
       -0.25128922 0.3994847 0.23095508 -0.48796397
0003c0 bd 51 c8 ba e3 97 ae bd e1 77 e2 bd b3 5d 0f bc
       -0.0015283149 -0.08525064 -0.11058021 -0.008750367
0003d0 36 e8 65 be 99 cc 6a be 9b bb 34 be e9 69 e6 bd
       -0.22451863 -0.2292961 -0.17649691 -0.112506695
0003e0 9a 3d 91 3d a6 6b e0 bd 09 35 8a be 34 4b 9b be
       0.07091828 -0.10958032 -0.26993588 -0.30330813
0003f0 eb 99 1a 3f d6 c7 f6 3e b3 18 ba 3e b7 5c 4d 3e
       0.6039111 0.48199338 0.3634697 0.20054899

features.conv1.bias f4 [28]
000000 c2 1c bb bd f8 1a 8b bd 4a 50 4f bf 57 ce 4f 3f
       -0.091363445 -0.06792253 -0.80981886 0.81174225
000010 18 d6 41 be a9 ba 31 bf 11 7c 72 bf 0a 32 3b bf
       -0.18929327 -0.69425446 -0.9472056 -0.7312323
000020 3b 49 42 be 4d b4 e6 bd cb ce 32 be c5 dc 90 be
       -0.18973248 -0.112648584 -0.17461698 -0.28293434
000030 d4 86 91 be d5 56 2d be f3 3a 08 bc 32 91 72 bf
       -0.28423178 -0.16927655 -0.008314836 -0.947528
000040 f3 42 88 be b5 88 22 bf 20 f3 34 bf 8f 04 b0 be
       -0.26613578 -0.6348985 -0.7068348 -0.34378478
000050 bf 11 99 bd 1c f4 47 bf 27 67 25 bf 4d 35 14 bf
       -0.07474088 -0.78106856 -0.64610523 -0.5789383
000060 8d 0d 3a bf f0 c9 f6 bd 65 fd 1f bf b9 97 6e be
       -0.72676927 -0.12050235 -0.62496024 -0.23300065

features.prelu1.weight f4 [28]
000000 e9 2f 05 3f be 7d 63 3f 88 7a 36 3c 6e c4 07 3f
       0.5202623 0.8886374 0.011137612 0.530341
000010 b1 7c 12 3e 23 da 86 3b 37 8a 8e 3b d1 0e 09 3c
       0.14305378 0.0041153594 0.0043499726 0.008365349
000020 c9 69 f0 3e ba bb e0 3d 6a e4 56 3f 37 3f 2f bc
       0.46955708 0.10973306 0.8394228 -0.010696224
000030 2e 17 31 3f d9 bf 36 3f fd 9c 15 3f b4 f2 43 bb
       0.69175994 0.71386486 0.5844267 -0.00298993
000040 5e bd 04 3f 02 a0 08 bc e8 5e 78 3c c3 68 3a 3f
       0.5185145 -0.00833893 0.015159346 0.72816104
000050 e5 31 37 3e 6a b9 b6 3b 47 bf 4d 3a 08 6d 95 3d
       0.17890127 0.0055763023 0.0007848632 0.07296187
000060 5e fc 28 3c 52 09 10 3f 14 4f 3e bc c7 5e 14 3c
       0.010314075 0.5626422 -0.011615533 0.0090558

features.conv2.weight f4 [48, 28, 3, 3]
000000 ab f0 3f 3e 92 ae fb 3a 7a 5a b7 be 4c 6b 90 3e
       0.18744151 0.0019201806 -0.35811216 0.2820686
000010 8c c6 82 bd 0c f1 f9 3e 91 be 56 be d7 b8 98 be
       -0.06385526 0.48816717 -0.20971133 -0.29828522
000020 0e 8f 9d bd 49 ca de bc c8 61 f3 be 8c 8a 44 bf
       -0.07693301 -0.027196066 -0.4753554 -0.76773906
000030 85 eb 14 3f 28 79 97 be 3f e5 05 3f a0 6d 53 bf
       0.58171874 -0.29584622 0.52302927 -0.8258915
000040 c6 5d 72 be 8a 0d 4c 3f b9 6d dc be 11 da 15 3f
       -0.23668584 0.7970816 -0.43052462 0.5853587
000050 e2 cc 28 be 33 22 f3 3e 03 10 67 bd 86 04 bc be
       -0.16484407 0.4748703 -0.056411754 -0.367222
000060 fe 90 0e bf 21 04 bb 3e 84 32 be be 9c 87 9f 3e
       -0.5568999 0.36526588 -0.37147915 0.3115815
000070 df 50 e9 bd d9 7c 1b be 70 3d 35 be 8e 77 1d bf
       -0.11392378 -0.15184344 -0.17699218 -0.6151055
000080 18 f0 85 bc c7 66 be 3e 82 35 c1 bd b5 92 d3 3e
       -0.016349837 0.37187788 -0.09434034 0.41322866
000090 b7 24 51 3e ae f5 3e bf 85 f4 0d bd d7 e4 f1 be
       0.20424162 -0.7459363 -0.03465702 -0.47244903
0000a0 ea c9 41 bf 00 cf 2e 3f b4 38 17 bf e8 14 d8 bd
       -0.7569872 0.68284607 -0.590709 -0.105508626
0000b0 41 34 bb 3e d6 31 56 3e ab 14 f5 3d 6c 20 7c be
       0.36563304 0.20917448 0.11966833 -0.24621743
0000c0 86 c3 b8 bb b6 dd bc be ee 50 d5 3e 4c 5f 18 3e
       -0.0056385426 -0.36887902 0.41663307 0.14880103
0000d0 13 22 b0 be 4c be 78 bd 93 f2 22 bf 6a eb ab be
       -0.34400997 -0.060728356 -0.6365139 -0.33578044
0000e0 16 91 30 be 84 34 a4 3e 9a 01 df 3e c7 86 8f 3e
       -0.17242846 0.32071316 0.4355591 0.28032514
0000f0 fa 6a b6 3e d4 ce ef bc 9a 09 06 be 75 7f a6 3e
       0.35628492 -0.029273428 -0.130896 0.32519117
000100 d0 1b 9f 3e 4d 75 de bd fd 6c bb 3d 9f 1e 39 b8
       0.31075907 -0.10862217 0.09151647 -4.4135955e-05
000110 8c 24 c6 be c5 04 e7 be 4b 4a 46 3e c1 ec f7 3e
       -0.38699758 -0.45120826 0.19364278 0.48422816
000120 ff 74 eb bd fe fb 21 bd 42 c9 38 bf a2 fa 6e 3f
       -0.114969246 -0.03954696 -0.72182095 0.93351185
000130 af 1f e1 3e dd c3 c3 3c 3f 0d 70 3d 0f 60 84 be
       0.43969485 0.023897106 0.058606382 -0.25854537
000140 a3 b3 4a be 56 ef 77 3e 34 f6 96 3e be 30 81 bb
       -0.19795088 0.24212393 0.29484713 -0.003942578
000150 44 20 13 be 5a 93 98 be 39 3a 17 bf ab be ea 3d
       -0.14367777 -0.2979992 -0.59073216 0.11462148
000160 1b a1 19 be 76 83 f4 be cf 7e b0 3d c5 b1 52 bf
       -0.15002863 -0.47756547 0.08617937 -0.82302505
000170 04 7f a4 3f ae 74 22 bf 88 58 ec bd 3e 35 1f be
       1.2851262 -0.6345929 -0.115403235 -0.15547654
000180 1a 37 68 3e dc 4f 32 3e 3b 2a a2 be c0 ac 00 bf
       0.2267727 0.17413276 -0.31672844 -0.50263596
000190 fe f1 5c be 1b 61 df bd da 2f 84 be dd 00 c2 be
       -0.21576688 -0.10907193 -0.25817758 -0.37891284
0001a0 38 9e b8 be 82 a3 aa be f3 c1 82 bd 1f 33 ff 3e
       -0.3605821 -0.33327872 -0.06384649 0.4984369
0001b0 66 df 90 bf 7b cc 8c bf f0 c4 31 3e ec 16 fc be
       -1.1318176 -1.0999902 0.17360282 -0.49236238
0001c0 4e 5e 01 be d7 9b 75 3f 89 ea 1a 3d aa f7 36 3e
       -0.1263363 0.9594092 0.037821326 0.17867914
0001d0 d1 6a 41 3f e7 e7 4d 3d 9c 8f 1c bf 7d 65 5a be
       0.75553614 0.050269987 -0.6115663 -0.21327777
0001e0 ee 12 b1 be 95 33 62 be e1 7b 1f be 54 6b f7 bd
       -0.34584755 -0.2208999 -0.155746 -0.12081018
0001f0 c6 ea 48 3f 83 4e 18 3f fa bf 25 bf 7b 48 93 be
       0.78483236 0.594948 -0.6474606 -0.28766236
000200 13 f1 17 3f c9 0b 2a be ad 15 cd 3d be ac b1 3d
       0.59352225 -0.16606058 0.100139 0.08675526
000210 1a 4a b3 3e 93 a9 37 be ae 08 e0 be 27 66 32 3e
       0.35017473 -0.17935781 -0.43756622 0.1742178
000220 10 24 25 3f 5a 0f e0 bd 56 df 4a 3e 41 b0 5d bf
       0.6450815 -0.10940428 0.19811758 -0.8659707
000230 22 24 08 bf 1f 44 8e 3e 15 7d b0 3e 55 7f 21 bf
       -0.53180134 0.27786347 0.3447043 -0.6308492
000240 a8 7e 99 bd b7 b2 0d bf 5a f8 49 bf a1 eb eb bb
       -0.07494861 -0.5535082 -0.7889458 -0.00719972
000250 ed 36 6a 3f d7 fb 14 bc b6 3c 1c 3e 8d 9c e5 3d
       0.9149006 -0.009093246 0.15257534 0.112115
000260 b8 0d 04 be 3b 7f c4 3e 32 fc ba be de 12 5b 3f
       -0.12895858 0.3837832 -0.36520535 0.85575664
000270 5a 0f 00 3f b3 88 9e be 89 5a b4 3e b5 e9 86 be
       0.50023425 -0.30963668 0.35225323 -0.2635018
000280 94 d5 77 bf ce 81 67 be ca 51 94 3e 3f 63 ce 3e
       -0.9681027 -0.2260811 0.2896865 0.40310094
000290 a5 1f b5 be 74 58 9a be c1 70 1c bd f3 80 4b be
       -0.35375705 -0.3014561 -0.038193468 -0.19873409
0002a0 12 99 1f be 3f fb 04 bd 0a 0f 07 3e d9 56 b8 be
       -0.15585735 -0.03246617 0.1318933 -0.3600376
0002b0 2a c3 1f 3f 7c fd eb bd 46 33 35 be de 70 b8 3d
       0.6240717 -0.11522958 -0.1769534 0.09005903
0002c0 24 09 2c 3f f9 97 8d 3d 49 ef 98 be 67 2d aa 3e
       0.6720145 0.06913752 -0.2987006 0.33237764
0002d0 11 02 3e 3f 4b 84 2d 3e 22 d8 5b bf 0f 77 85 3e
       0.74221903 0.16944997 -0.8587667 0.26067397
0002e0 2a 64 97 be c5 40 46 bf 4e a1 11 bf 61 ac cc bd
       -0.29568607 -0.7744258 -0.56886756 -0.09993816
0002f0 49 5d 84 3d d2 21 4a bf e7 a4 ba 3d 84 b1 fa be
       0.06463105 -0.78957856 0.09113484 -0.4896356
000300 fb b7 7c be 97 05 4b 3e b8 4d 2b 3d 32 7b a2 3e
       -0.24679558 0.19826351 0.041822165 0.31734616
000310 b8 c4 8e bf 82 50 9e 3e 1d 84 38 bd ff b5 2b bd
       -1.1153784 0.30920798 -0.045047868 -0.041921612
000320 fe 30 8c bd 98 e1 24 be 03 35 e0 3c 42 13 5b be
       -0.06845282 -0.16101682 0.027369028 -0.21394065
000330 dd d6 83 be 44 de 81 3e b5 5d 2e be 3a fb de 3e
       -0.25749865 0.25364888 -0.17027934 0.43551046
000340 0a 2e 93 be 37 63 da bd 44 b3 41 3e 5e 56 07 bf
       -0.28746063 -0.10663455 0.1891604 -0.5286616
000350 8e cf 52 bf f7 1d d8 bc 6d 57 3a bd 2f d0 a7 3e
       -0.82347953 -0.026381476 -0.045493532 0.3277602
000360 7b 23 a0 3f 8d db b8 3d b1 15 fa bd 63 0a 07 3f
       1.2510828 0.09026251 -0.122111686 0.52750224
000370 85 f1 15 be 35 ef 05 bf f6 66 fb bc 7a 9b 2d bd
       -0.14642914 -0.52318126 -0.030688744 -0.042384602
000380 79 9f d5 3e 3b fc fc be 1c db 19 be 3c ef 43 3f
       0.4172323 -0.49411187 -0.1502499 0.7653692
000390 0f 60 c9 3c f6 3a 8a be ab 77 00 bd be 45 52 be
       0.024581937 -0.2699811 -0.031364124 -0.20534417
0003a0 6c 93 c9 3e 23 db ae be 74 4d ce 3e 39 70 ee bd
       0.39370286 -0.34151563 0.40293467 -0.116424985
0003b0 23 0a 6c 3e 9f a4 42 bd 24 49 d5 be cf 58 25 bf
       0.23050742 -0.047520276 -0.41657364 -0.64588636
0003c0 c2 31 5e 3c 48 33 b8 bc 68 27 f7 3d 66 38 80 3e
       0.013561668 -0.02248539 0.12068063 0.2504303
0003d0 78 36 42 3f d4 95 55 be 01 f2 43 3d fd a9 c2 3e
       0.7586436 -0.20857936 0.047838215 0.38020316
0003e0 38 e3 0d bf c2 87 3b bd c5 3c 1d be fe c8 97 be
       -0.55424833 -0.045783766 -0.15355213 -0.29645532
0003f0 12 33 63 be 26 bb ca bd b5 94 89 3e 53 26 49 3e
       -0.2218745 -0.09898977 0.26871267 0.19643526

features.conv2.bias f4 [48]
000000 12 6a ac be 73 69 c7 be 54 25 e6 be 27 7d 92 3d
       -0.33674675 -0.3894764 -0.44950354 0.07152777
000010 db 37 eb 3e db 17 ac be 59 97 15 bf 6b 26 c7 be
       0.45941052 -0.3361195 -0.58434063 -0.38896498
000020 ff d9 9a be 32 a0 f0 be 2a e5 11 bf c9 e0 9e 3e
       -0.30244443 -0.4699722 -0.569903 0.31030872
000030 80 72 b8 be 36 fa 82 3e b6 e5 cf 3e 80 6d 1e bf
       -0.36024857 0.2558152 0.40604943 -0.61885834
000040 a8 5f 3f 3d 95 68 07 bf 6c 18 06 bf 64 15 f0 bd
       0.046722084 -0.52893955 -0.52381015 -0.1172283
000050 bc 8e 9b be 1c 01 c1 be df c1 18 bf 09 3d bc bf
       -0.30382335 -0.3769616 -0.59670824 -1.4706126
000060 d7 81 94 be b8 f3 fd be ae 92 23 bf 55 df d1 be
       -0.2900531 -0.49600005 -0.6389569 -0.409907
000070 a9 67 86 bd d5 6f 9b be 85 ec 0e bf b4 ab 21 be
       -0.0656274 -0.3035876 -0.5582965 -0.15788156
000080 4e 1f 38 bf cd 5b b0 be b2 ab fd be 4f 85 0e bf
       -0.7192277 -0.34445038 -0.49545056 -0.5567216
000090 66 e8 13 bf 30 9d 83 be e3 75 17 bf 55 6f 7c bf
       -0.57776487 -0.25705862 -0.59164256 -0.9860738
0000a0 28 31 e9 be fa c7 97 be 06 38 0e be 46 d5 0b 3d
       -0.45545316 -0.29644758 -0.13888559 0.03413894
0000b0 26 64 d2 be 27 30 f5 be 9e bf a1 be 05 2a 78 be
       -0.41092032 -0.478883 -0.31591505 -0.24234779

features.prelu2.weight f4 [48]
000000 04 a7 76 3e a3 e9 51 3d 55 9a a2 3d dc e4 b4 3c
       0.24087149 0.051248204 0.07939593 0.022081785
000010 70 91 5a 3e af 7e 90 3e c2 d9 1c 3e d9 a8 3d 3e
       0.21344543 0.28221652 0.15317443 0.18521442
000020 81 4e 1e 3d ad 43 2d 3e 39 8d 12 3e 03 06 74 3e
       0.038649086 0.16920348 0.14311685 0.23830418
000030 b1 3f 26 3e 55 67 0d 3e 59 0a 66 3d c8 62 4d 3e
       0.16235234 0.1380895 0.056162212 0.20057213
000040 3c 8c b8 3e 52 77 42 3d bd c3 d5 3d 10 f7 36 3e
       0.3604449 0.047477074 0.10437725 0.17867684
000050 5c 46 75 3e bb 61 f2 3d 8d bd 7d 3e 29 58 e4 3e
       0.23952621 0.11835047 0.24779339 0.4459851
000060 e6 1e d6 3c b9 d2 bb 3d 60 7a 05 3c 07 d2 b2 3e
       0.02613778 0.091710515 0.008146852 0.34925863
000070 ab 84 84 3e 2e b7 6e 3e 8c 40 9f 3e 70 34 60 3e
       0.25882468 0.23312065 0.31103933 0.21895003
000080 3c 03 5d 3d 01 59 4e 3e ff c4 1d 3e 2f 5a da 3e
       0.053958163 0.2015114 0.1540718 0.4264693
000090 e5 e6 80 3d c5 8a 6f 3e 2e a5 c5 3e 96 3f 6f 3e
       0.0629404 0.2339278 0.38602585 0.233641
0000a0 03 75 1d 3e 4c a1 67 3d c3 e8 a1 3d 4f aa 95 3d
       0.15376668 0.05655031 0.07905724 0.073078744
0000b0 a7 ab ce 3e 33 84 57 3e e0 a8 cb 3e 9f 12 e6 3d
       0.40365335 0.21046524 0.3977728 0.112340204

features.conv3.weight f4 [64, 48, 2, 2]
000000 15 9d 21 bf e6 67 04 3f 75 86 d6 bd 3a 4b 54 be
       -0.63130313 0.51721036 -0.104748644 -0.20731822
000010 82 af d0 3e 6a 29 bf be 26 1f e9 be cb 0a 4d be
       0.40758902 -0.37336284 -0.45531577 -0.20023648
000020 b9 5c 21 bf 06 5a 3c bf 7a 91 86 3e 08 da eb 3e
       -0.6303211 -0.73574865 0.26282865 0.46064782
000030 d5 a6 14 3e 8c 11 fd 3e fe be b9 bc 7e 26 7a 3e
       0.14516766 0.4942745 -0.02267408 0.24428746
000040 fd 16 34 bf 92 b8 b9 be 52 59 af 3d a0 f0 e6 3e
       -0.7034758 -0.36273628 0.085619584 0.45105457
000050 b0 ab 3d bd 10 08 94 be d0 50 56 be cc a1 7b 3e
       -0.046306312 -0.289124 -0.20929265 0.2457344
000060 94 86 1b bf a1 d6 99 be e3 ae 0f bf dd d9 35 3d
       -0.60752225 -0.3004656 -0.5612623 0.044397224
000070 38 43 74 3f 60 81 26 3f 24 26 88 be 92 d0 8a bc
       0.9541507 0.6504116 -0.265916 -0.016945157
000080 e3 20 8a 3c be 3c 65 be b0 ed 51 3e 14 e2 57 3d
       0.016861385 -0.22386453 0.20500827 0.05270584
000090 f6 90 ee 3e 5f e8 89 3e b2 8e 25 3e 9e 50 97 3d
       0.4659497 0.26935098 0.16167715 0.073884234
0000a0 3a 3e 13 bf df af 1b 3e bd 0a 08 bf 8b dd 82 3f
       -0.57516825 0.15203808 -0.53141385 1.022386
0000b0 b9 fc 0d 3e 55 b7 52 3f 8e 75 fe 3c 4a 16 b2 3e
       0.13865937 0.8231099 0.031061914 0.3478263
0000c0 d3 84 00 3f 58 51 d2 3e 8e 57 0c bf 72 c0 76 be
       0.50202674 0.41077685 -0.548211 -0.2409685
0000d0 6e 2f 99 3c 1d a8 80 3e 4c 01 13 3e d0 d6 dd be
       0.018699374 0.2512826 0.14355963 -0.4332795
0000e0 d1 79 e4 3d 04 51 b1 3c 1d 1d 01 bf e5 e5 23 be
       0.11156047 0.021645077 -0.5043505 -0.16005667
0000f0 70 b8 38 3d c6 96 ea 3e 45 fc 4a 3e 53 f1 13 3e
       0.04509777 0.45818156 0.19822796 0.14447527
000100 38 95 3b be 66 5b 28 3e 77 a8 2b bf 36 a9 cb be
       -0.18318641 0.16441116 -0.6705393 -0.39777535
000110 85 cc 71 3d f9 ae 75 bf 1a 4d 0c 3f e9 59 2a bf
       0.059032936 -0.9597011 0.5480515 -0.6654344
000120 16 e5 e9 be 57 98 9f 3e 70 97 3f 3e 94 a1 1d 3e
       -0.4568259 0.31170914 0.18710113 0.15393668
000130 d6 e8 58 3d 23 28 91 3f 40 d3 83 bd e8 1f 43 be
       0.052956425 1.1340374 -0.06436777 -0.1905514
000140 7d 19 86 be bc 5a 21 bf a5 47 e7 bd 83 82 4a 3e
       -0.2619132 -0.63029075 -0.11292962 0.19776349
000150 9a 7d ce 3e b4 98 22 3f 3e b1 9a be f1 fa 1c bf
       0.403302 0.63514256 -0.3021335 -0.61320406
000160 a8 d1 6d bd 83 38 ac 3e d7 ba 5f be f3 14 2b 3e
       -0.058061272 0.33636865 -0.21848617 0.1670721
000170 72 bf 04 bf 86 88 c6 bf 97 42 18 3e 2e 37 18 3e
       -0.5185462 -1.5510414 0.14869152 0.148648
000180 99 9e 0e be f0 16 f7 3e b3 1b 5f 3e 81 e9 31 3f
       -0.13927688 0.48259687 0.2178791 0.69496924
000190 ec e7 de be ed 10 98 3d 86 d5 80 3d bf cf a3 3e
       -0.43536317 0.07425103 0.06290726 0.31994435
0001a0 60 74 09 3f a9 96 53 3f 0c c8 ec be d0 c0 50 bf
       0.536932 0.82651764 -0.46246374 -0.8154421
0001b0 a9 8e bf 3e 6c 35 30 bf 16 2c d9 3e 4f 13 8e 3e
       0.3741353 -0.68831515 0.42416447 0.27749106
0001c0 0b 5a 01 3e df 2d 19 be e0 b3 6a be 6f dc ea bd
       0.12632005 -0.14958905 -0.2292018 -0.114678256
0001d0 8e e5 bf 3d c2 7a 53 be d6 81 f9 bd ac c0 e2 bd
       0.09369956 -0.20652297 -0.12182967 -0.110719055
0001e0 bf 3a 6b bd ba 0f 50 bf d8 3c 09 3e 22 8b 1e be
       -0.05742907 -0.81273997 0.13402116 -0.15482762
0001f0 71 64 98 3e 14 f9 9d 3f 40 61 e1 be a9 96 35 bf
       0.2976413 1.2341638 -0.44019508 -0.70933014
000200 df 87 93 be 6d b5 8d be 8d 45 14 be 32 22 13 3e
       -0.288146 -0.2767748 -0.14479657 0.14368513
000210 b2 65 dd bc 50 3a 00 bf dd ea 07 3e 0b 49 14 bf
       -0.027026031 -0.5008898 0.13273187 -0.57923955
000220 50 82 a2 3e 42 97 28 3f 3e e6 f2 3d e8 2c 40 be
       0.31740046 0.658558 0.118603215 -0.1876713
000230 4e b0 a7 3e da e2 b7 bd 45 7f b1 bd 2f 4e 7b 3d
       0.32751697 -0.089788154 -0.08666853 0.06135386
000240 ca 92 23 bc 5b 88 ba be 00 de c3 be ad c9 4d bf
       -0.009983728 -0.36432156 -0.3825531 -0.8038586
000250 f5 d4 b4 bd a8 44 34 3e ed f4 70 3d 51 3f da bd
       -0.08829681 0.17604315 0.05882733 -0.10656608
000260 f1 dc 87 3d d3 77 cd be d3 e8 de 3d 8e fe 8c 3d
       0.06633938 -0.4013048 0.108842514 0.0688449
000270 4c 21 1a 3f 34 6d dc bd e3 ac b0 be 90 24 b2 be
       0.60207057 -0.10763016 -0.34506902 -0.3479352
000280 c4 cb 40 bf a5 2c ae be d5 1d d3 bd d6 db ce bb
       -0.7531092 -0.34018436 -0.103084244 -0.0063128276
000290 6a 50 a2 be 9a dd 1d 3d a1 e5 06 be 0d 73 7f bd
       -0.31701976 0.038541414 -0.13173534 -0.06236558
0002a0 42 28 af bd 04 6e 9f 3e bc fe 34 be ee dd 33 bf
       -0.085526004 0.31138623 -0.17675298 -0.7026051
0002b0 7b 7f 40 bf 8a e6 2c bf 18 f7 74 3e 33 5f 1a 3f
       -0.7519452 -0.67539275 0.23922384 0.6030151
0002c0 63 07 26 bf e0 80 29 be 40 7f 59 3e da 56 28 be
       -0.6485502 -0.16553068 0.21239948 -0.16439381
0002d0 69 97 cb be cb be 2a 3e 4c 33 85 be 43 6e 00 bf
       -0.39763954 0.16674344 -0.260157 -0.50168246
0002e0 8f b7 40 bf c3 95 68 3f 97 0f e5 3e 74 d0 5d 3e
       -0.7528009 0.9085352 0.44738457 0.2166155
0002f0 53 77 8d 3e 41 85 c0 bd f7 c7 2f be fd 41 34 be
       0.276301 -0.09400416 -0.17166124 -0.17603298
000300 99 31 07 be 2c 9d 8a bc 10 75 91 bd 73 b2 70 bf
       -0.13202514 -0.016920649 -0.07102406 -0.9402229
000310 ac f9 e6 bd 32 58 1e 3f c9 40 10 bf 43 5c 5d be
       -0.1127809 0.61853325 -0.56348854 -0.21617226
000320 3d 48 b4 3e 52 a1 c2 be 41 cc fb be b7 d1 89 be
       0.35211363 -0.38013703 -0.4917927 -0.26917812
000330 45 26 42 be c4 3b 1c 3e 04 5b e1 be 23 90 8b 3e
       -0.18959911 0.15257174 -0.44014752 0.27258405
000340 3c 20 1d 3e 20 6b 95 3e 75 8e be be 86 75 94 3d
       0.15344328 0.29183292 -0.3721806 0.07248978
000350 b0 d4 d1 3e 03 53 02 3e 16 57 0e bf 2d 06 57 bf
       0.4098258 0.12726979 -0.5560163 -0.839938
000360 98 36 27 3e bf e5 ff 3e 67 21 19 bf 60 11 da 3e
       0.1632942 0.4997997 -0.5981659 0.4259138
000370 0b f8 5c bf 0a 76 20 3f 1a 16 64 be 4c d3 af 3e
       -0.86315984 0.62680113 -0.22274056 0.34340894
000380 12 8b 5e 3c 3a c8 15 bd bf 22 00 3e 03 ff 0a be
       0.013582962 -0.036567904 0.12513255 -0.13573842
000390 74 74 a9 be 59 37 0e 3f ab 9a 7d 3d dd 72 3c 3f
       -0.3309666 0.55553204 0.06191508 0.7361277
0003a0 7e 28 e7 3e cb bd 8d 3d 7b d0 98 be 8b a1 b5 be
       0.4514808 0.06920966 -0.29846558 -0.3547481
0003b0 a6 ca ab 3e 6b 82 24 3f a4 b0 99 be c4 62 65 3f
       0.33553046 0.642615 -0.3001758 0.8960383
0003c0 7b aa 6a bf ad ea c4 3e 45 3a 0c be 98 f4 63 bd
       -0.9166638 0.38460293 -0.13694103 -0.055653185
0003d0 9a 4e 20 3e eb 41 e6 3e fa 4e 12 bf 9e e2 8b be
       0.15654984 0.44972166 -0.5715176 -0.27321333
0003e0 24 c5 75 3e 3f 61 e6 3d e1 92 c8 3e 9b eb 63 3f
       0.24000984 0.11249017 0.3917456 0.8903138
0003f0 60 da 70 bc e3 51 45 3f da f6 06 be f5 20 22 3e
       -0.014700502 0.77078074 -0.13180104 0.15832885

features.conv3.bias f4 [64]
000000 dc 36 b5 bd 4a 10 45 3e 9f 04 92 3e d0 bc 4e 3f
       -0.08848354 0.19244495 0.2851915 0.80756855
000010 0a d7 55 3f fa 9f 82 bf 12 39 6c be de 51 de 3e
       0.8353125 -1.0205071 -0.23068646 0.43421835
000020 87 4e ec 3e 1b d9 5d bf e8 6a 17 3f d1 7e 30 bf
       0.46153662 -0.866594 0.591475 -0.68943506
000030 a1 79 03 3f 88 30 4c be e3 19 71 be aa b1 1b be
       0.51357466 -0.19940388 -0.23545031 -0.15204492
000040 7e 56 45 3f 8f 32 6d bf 5e 31 4c be ec bf e5 be
       0.770851 -0.9265527 -0.19940707 -0.44872987
000050 ed 92 58 3e 9a 25 89 be 38 a3 18 3e 4e 02 da 3e
       0.21149798 -0.267865 0.14906013 0.42579883
000060 b0 b9 f5 be 03 26 17 c0 da 68 38 bf 29 81 08 bf
       -0.4799323 -2.361695 -0.7203499 -0.5332208
000070 e8 1b a7 be c5 55 4a 3e 8d 02 c3 3d 4d 86 23 bf
       -0.32638478 0.19759281 0.09521971 -0.638768
000080 ec 18 37 3f 4c d8 e6 bf 8e 32 c0 bd a6 40 91 3f
       0.715224 -1.8034759 -0.093846425 1.1347854
000090 21 6a ca bd c9 2c 17 bf 9e d0 04 bf 23 d7 0b c0
       -0.09883524 -0.5905271 -0.51880825 -2.185006
0000a0 6d 64 1f bf 1f 4b f8 be c7 ca 8c bf 62 35 17 bf
       -0.6226261 -0.48494813 -1.0999383 -0.5906583
0000b0 9e 72 cf 3e 06 22 e9 3e 6b b4 99 bf f0 97 9b 3c
       0.40517133 0.4553377 -1.2008184 0.018993348
0000c0 9f 6b b5 3e ca e8 12 3f e2 65 1c 3e 59 96 22 3f
       0.3543367 0.5738646 0.1527324 0.6351066
0000d0 c4 f5 30 3d f8 fd d7 3d a1 e7 84 3e 0e e7 3b bf
       0.04320313 0.105464876 0.2595797 -0.73399436
0000e0 09 79 b1 be c6 a2 97 bf d4 a7 54 3f 37 ee b1 3f
       -0.34662655 -1.184655 0.83068585 1.3900822
0000f0 cc 14 89 bf 1e 8f 9c 3d af 02 2c be b2 8d 92 3d
       -1.0709472 0.07644485 -0.16797899 0.071559325

features.prelu3.weight f4 [64]
000000 91 2c 52 b8 f5 c3 6f 3b 25 7f 75 bc 9d 17 87 3b
       -5.0109407e-05 0.0036585305 -0.014983927 0.004122688
000010 94 e0 f9 3d 25 ad 83 bc f1 29 28 3d 13 1a 03 3e
       0.12201038 -0.016073773 0.041055623 0.12802915
000020 76 83 8e 3d 54 3b c8 3b b5 d8 01 3e c5 1e 00 3d
       0.06958668 0.006110588 0.12680323 0.031279344
000030 33 00 75 3d cc fa e4 bd 5d a6 b2 bd b9 32 97 bc
       0.059814643 -0.11180648 -0.087231375 -0.018456804
000040 54 62 d8 3d 18 53 84 3b c9 0d bc bb 6c d6 5f 3d
       0.105656296 0.004038226 -0.005738948 0.054647848
000050 b1 05 4b bc e1 20 3a bd 7e dd 08 bd ec 79 5c 3e
       -0.012391494 -0.045441512 -0.033414356 0.21530885
000060 9d 26 25 3d 41 b7 54 3e 4f e8 bc 3c ee 3c eb bb
       0.040320028 0.20773031 0.023059992 -0.0071788942
000070 02 d3 44 bc a1 4b d2 bd 2d 84 9d 3b e3 bc 75 b8
       -0.012013199 -0.10268331 0.0048070163 -5.8588466e-05
000080 ab 16 7c 3c fb a1 8d 3d eb 81 c9 bd b3 34 1d 3d
       0.015386264 0.06915661 -0.09839233 0.038380336
000090 60 bb 07 bd 1d 89 da 3a 5a a5 89 3b 3d 93 bf 3d
       -0.03313768 0.0016672943 0.0042006196 0.09354255
0000a0 1a 7b 18 3d aa ba b9 bd bd fb e4 bc f2 35 86 3c
       0.037226774 -0.090688065 -0.02795207 0.016383145
0000b0 e2 58 1f bd 58 ef ed 3d 13 ed c6 3d 6d 44 f6 bc
       -0.038903125 0.11617917 0.09713187 -0.030061925
0000c0 e8 0c 10 bd f9 92 8d bc 76 73 68 bd e3 a9 2d 3d
       -0.03516856 -0.017281996 -0.056750737 0.042398345
0000d0 f9 ae ad 3b 4c 7d 26 3d 4b 53 06 3e c4 f0 c0 3c
       0.0053003994 0.040646836 0.13117711 0.023552306
0000e0 61 af 55 3c b4 30 55 3b 1d a3 01 bd 06 70 28 3e
       0.013042302 0.003253025 -0.031649698 0.16448984
0000f0 aa 8d c4 3c 9a 0a ff bc 79 e7 fa bc 68 8b 2a 3d
       0.023993332 -0.031132985 -0.030627953 0.041636854

features.conv4.weight f4 [128, 256]
000000 92 7c ab 3d 82 d2 95 be e8 b4 f2 bd 37 81 f4 bd
       0.08373369 -0.29262167 -0.118509114 -0.11938708
000010 25 8b 54 be 76 ae 62 be da 0b 2a bd f0 60 2c bd
       -0.20756204 -0.22136864 -0.04151521 -0.042084634
000020 c5 f6 ff bc 53 e6 62 bc d3 fb bc bd e8 00 50 be
       -0.031245599 -0.013848859 -0.09227719 -0.20312846
000030 92 b9 f2 3d dc 6f fd bc 6a 02 b7 bc e3 b0 b9 ba
       0.11851801 -0.030937128 -0.022340018 -0.0014167096
000040 2d 32 48 3d 2c ac f5 3d d1 09 8f 3e 97 9d 5e 3d
       0.048875976 0.1199573 0.27937177 0.054349508
000050 19 38 80 bd 98 9d a0 3c 4d d2 9c be 3e dd 72 bd
       -0.062607 0.019606397 -0.30629197 -0.059293024
000060 b7 63 03 bd 7b 7e 72 bc 3b 4c aa bd 94 89 e1 3c
       -0.032077517 -0.014800663 -0.08315321 0.027531423
000070 ec 0c bb bc 17 3d 0f be ed d2 04 be be 1a 12 be
       -0.02283331 -0.13988148 -0.12971087 -0.14268014
000080 3d 1d 06 3d 14 ea 48 be 45 6b b1 bd d3 a7 72 be
       0.032742728 -0.19620544 -0.08663038 -0.23696832
000090 a7 16 e6 be a3 b4 f4 bd a8 46 eb bc 22 67 01 be
       -0.44939157 -0.11948516 -0.028720215 -0.12636998
0000a0 60 03 2a 3e 8d 22 8b 3e d3 2f 27 bd ea 5e 1c be
       0.1660285 0.27174798 -0.040817093 -0.15270582
0000b0 89 50 20 3d 61 be d5 3c 7a 08 9b bd ac 1e 49 bc
       0.039139304 0.026091756 -0.07569976 -0.012275379
0000c0 a7 b1 4c bd 5f e2 be bc 41 43 8c 3c 92 6d 49 be
       -0.04997411 -0.023301302 0.017121913 -0.19670704
0000d0 96 05 7d be bf 46 83 bd 84 c8 33 be 48 25 c9 bd
       -0.24709162 -0.06409978 -0.1755696 -0.09821564
0000e0 e7 57 1d be 8e fa c3 3d c5 4e dd bd 18 b9 a8 bc
       -0.15365563 0.09569274 -0.1080604 -0.020596072
0000f0 be 76 31 be f0 73 c2 bd 24 e4 6b 3d 9a 15 45 bc
       -0.17330453 -0.094947696 0.05759062 -0.012029076
000100 ea 51 48 bd f5 ac 99 bd 14 73 2e bd 6d db 07 bd
       -0.048906244 -0.07503692 -0.042590216 -0.033168245
000110 67 c5 54 3d 6d ea 4b bc d4 3d 6c bd 62 8a 0a be
       0.05194607 -0.012446028 -0.05767615 -0.13529351
000120 5d 1f 74 be 01 4c 3c bd ce 84 36 be b6 cc 09 bd
       -0.23840089 -0.04597092 -0.17824098 -0.033642493
000130 f0 0f 74 3e 97 ba f7 3d 4e bb d6 3d b4 37 98 3d
       0.23834205 0.12096136 0.10484944 0.074324995
000140 ba 07 e4 3e 54 59 8d 3d 86 ae 5c be 49 a7 b1 3b
       0.44537145 0.069018036 -0.2155095 0.0054215533
000150 1e 74 13 be d5 1e 18 3d 82 bd 1c be 39 9e fe bd
       -0.14399764 0.03713878 -0.15306666 -0.12432522
000160 98 9a 04 bd e4 e3 95 be 4e 4e c5 bd 3f 08 86 bd
       -0.032373995 -0.2927543 -0.09634076 -0.065445416
000170 24 cc c4 bc b3 38 da bc 0d 46 a5 bc d5 ed e9 3c
       -0.024023123 -0.026638364 -0.020175004 0.02855579
000180 d0 b8 17 3d 2a ee 59 3e b7 ac 7a be 5a 46 89 be
       0.037041485 0.21282259 -0.24479948 -0.26811486
000190 f6 1d b3 bb 6a 84 b3 bd 9b 7a aa bd 4e 61 96 bd
       -0.005466218 -0.0876549 -0.083241664 -0.07342778
0001a0 94 45 a0 be 7d 9c ba be 6b 8b de 3c 91 71 48 3e
       -0.31303084 -0.36447516 0.027166089 0.19574572
0001b0 59 08 8b 3d ce 50 41 be e9 a9 f7 bd 4e 45 73 bd
       0.067887016 -0.18878481 -0.12092955 -0.059392266
0001c0 95 2b 57 be 31 b7 08 bd b9 42 06 be 2d af 94 bd
       -0.21012719 -0.03337783 -0.1311139 -0.07259975
0001d0 f2 2c 62 be 7b 07 89 bc d3 d6 f6 bd 7e 48 b4 bd
       -0.22087458 -0.0167272 -0.12052693 -0.08802889
0001e0 70 51 15 bd 69 cb e5 bc 64 98 2d be 1c f8 0f be
       -0.036454618 -0.028051095 -0.16952664 -0.1405949
0001f0 3f 55 39 3d e9 d8 f7 bc fc 20 b2 3d 34 46 69 be
       0.045247313 -0.030254798 0.086976975 -0.22780687
000200 29 bf 04 be f5 7e a6 bc 62 8c df bd 7c 8f 56 bd
       -0.12963547 -0.02032421 -0.10915448 -0.05238293
000210 80 7b 2d bc f1 1b 8f be 52 b3 4b bd db f5 80 be
       -0.010588527 -0.27951005 -0.04973156 -0.25187573
000220 bb 7a 5f be 12 b9 62 3d 69 ab 94 bd f6 c9 16 be
       -0.21824162 0.055352278 -0.072592564 -0.1472548
000230 ce 90 65 be a5 2e 00 3d 43 d0 2d bc ce 7a 80 bd
       -0.2241852 0.031294484 -0.0106087355 -0.06273423
000240 d2 09 d2 bd 02 ee 36 be 58 97 b5 bc 4f 2d 38 bd
       -0.10255779 -0.1786423 -0.022166893 -0.044965085
000250 4f 10 8c be 2a b0 e0 be 91 13 64 3d ad 78 32 bc
       -0.27356192 -0.43884403 0.055682722 -0.010893029
000260 e7 32 70 be 2a 06 25 3e 8f f8 d2 3c 22 85 85 3b
       -0.23456918 0.16115633 0.025753288 0.0040747086
000270 e1 65 d5 bd ac 81 4c be 40 37 aa bc e5 fe 6b be
       -0.104198225 -0.19971341 -0.020778298 -0.23046453
000280 e4 17 6d 3d 79 f2 91 3d 39 47 80 bb c8 65 04 be
       0.057884112 0.07126326 -0.0039147404 -0.12929451
000290 c6 f0 24 bd 7a d4 2f 3d bb ca f5 bd ed d3 2e be
       -0.040268682 0.042927243 -0.120015584 -0.17073031
0002a0 f4 d3 c7 bd fd 5f 95 bc 0d 61 93 b9 e4 e6 c5 3d
       -0.09757224 -0.018234247 -0.00028110333 0.096631795
0002b0 55 93 e3 bd 6c 6c 3b be 91 39 f2 3d a0 29 7b be
       -0.11112086 -0.18303078 0.11827386 -0.24527597
0002c0 aa 9f 47 bd c9 04 b0 bd 44 57 86 3d 41 4f 18 bd
       -0.048736252 -0.08594663 0.06559613 -0.037184957
0002d0 a4 27 24 bc 4a 38 d4 bd b0 ac 9d bc b9 54 27 3d
       -0.010019217 -0.10362299 -0.019247383 0.040852282
0002e0 16 e5 0c 3b 72 e1 8e bd ca c1 29 be 4b d8 d6 bd
       0.002149885 -0.06976594 -0.16577831 -0.10490473
0002f0 1c 7a 30 be eb 0f 8e 3e 5e f0 81 be 5a 4a 18 be
       -0.17234081 0.2774652 -0.25378698 -0.14872113
000300 d1 d4 75 3d ab 1d 8f 3d 98 22 c9 3b ce 9d 3b be
       0.06001741 0.069880806 0.006138157 -0.18321916
000310 c9 8a 9c 3e dc 4a 1f 3e 7f a9 98 bd a3 d5 d9 bd
       0.30574635 0.155559 -0.07454204 -0.10636451
000320 f2 7b ca bb 71 bb 9d bd 14 61 33 bd 9d 26 ad be
       -0.006179326 -0.07701767 -0.043793753 -0.33818522
000330 c7 94 29 be 1b b7 18 bd af 7d ef bd 49 eb 3a 3e
       -0.1656066 -0.037283998 -0.11693894 0.18253817
000340 3f 49 72 be 41 cc 5d be 59 10 9c be ed 32 7f bd
       -0.23660754 -0.21659948 -0.30481222 -0.062304426
000350 7a c1 c4 be 6b 47 90 be 2b 8b 75 3e db 60 76 3c
       -0.3842886 -0.28179488 0.2397887 0.015037741
000360 c9 af 5f 3e 09 43 dc 3d e4 a5 ac 3d cf 3f cc 3d
       0.218444 0.107549734 0.084300786 0.09973108
000370 aa 97 97 be f5 5b 1b be f9 37 96 be a7 41 d3 be
       -0.29607898 -0.15171798 -0.2933958 -0.41261026
000380 9c 7f 17 bd 58 9b 4c bd 7e 84 53 be 4e 9f 46 3d
       -0.036986932 -0.049952835 -0.2065601 0.04849177
000390 02 58 f6 3d 2b 72 2a 3b 4f 83 33 3e e3 9f a8 3e
       0.12028505 0.002600799 0.17530559 0.32934484
0003a0 64 ac 8e be 14 11 42 bd 5d 6c 55 be ec b7 21 be
       -0.278659 -0.04737957 -0.20842119 -0.15792817
0003b0 e0 31 2b 3e ca 2c be bc 9a fd a7 3e ea 85 1f 3e
       0.16718245 -0.023214716 0.3281067 0.15578428
0003c0 ca fc 9c 3c 7b e7 7b be 32 8a ae bc f8 88 e5 bd
       0.019163508 -0.24600022 -0.021306131 -0.11207765
0003d0 5e a1 7c bd 97 29 e6 bc f8 d7 82 bd bb 5a 6a be
       -0.06167733 -0.028096003 -0.06388849 -0.22886173
0003e0 a5 84 91 bd c7 5b 19 bd 12 71 91 be 30 74 7f bc
       -0.07105378 -0.03744104 -0.28406578 -0.015591666
0003f0 d3 b8 72 be d0 19 98 3d 43 e6 dc bd 51 89 06 be
       -0.23703317 0.07426798 -0.107861064 -0.1313832

features.conv4.bias f4 [128]
000000 58 9f 8a bd 69 64 40 be 8b a1 90 3e ce cf 91 3e
       -0.06768674 -0.18788303 0.28248248 0.28478855
000010 54 93 07 be bf d5 52 bf 67 d9 78 be dc 9d 21 be
       -0.13239795 -0.823574 -0.24301682 -0.15782875
000020 95 26 ec 3e 81 a7 4f 3e 5f 91 3a be b3 21 c1 be
       0.46123186 0.20278741 -0.18219517 -0.37721023
000030 b5 79 84 be 7f 4e c9 bd 13 cc 8d 3e 3f fa 85 be
       -0.25874105 -0.09829425 0.2769476 -0.26167485
000040 d4 e2 d2 bd 53 cf 36 be b5 6f 02 bf 58 f3 b0 3e
       -0.1029717 -0.17852525 -0.509517 0.34560657
000050 fa 9c a5 3d fd d0 ff bb a5 72 3e 3e b4 0f 0c be
       0.080865815 -0.0078068958 0.18598421 -0.13677865
000060 78 ae 4c be 20 18 92 be e5 11 b0 be 1c ef 52 be
       -0.1998843 -0.2853403 -0.34388652 -0.20599025
000070 f4 c8 16 be 68 11 43 3d 16 17 99 3f 2d cf 80 3d
       -0.14725095 0.04762402 1.196017 0.06289516
000080 7e 63 80 bd b8 92 a1 bd 40 f3 96 3e a8 8d 47 be
       -0.06268977 -0.078893125 0.2948246 -0.19487631
000090 1e a6 e2 3f 92 6a 09 3d ba cf 7c bd f4 39 f2 3e
       1.7706945 0.0335489 -0.06172154 0.4730984
0000a0 a9 d9 64 3d 35 3a c8 bd 59 36 19 be 38 2a 32 be
       0.05587164 -0.09776727 -0.14962138 -0.17398918
0000b0 6d 9a a6 3f b5 83 29 be fc 13 45 3b 1e 94 5b be
       1.3015877 -0.16554148 0.0030071726 -0.21443221
0000c0 a4 dd dd bd 18 c2 0e 40 71 59 2c bc 83 f5 7a be
       -0.1083329 2.2305965 -0.010519371 -0.24507718
0000d0 c0 71 89 be 8d 7b 7f be 24 67 04 3f 9a ec 43 3d
       -0.26844597 -0.24949475 0.5171988 0.047833063
0000e0 36 e5 8e 3d 66 5f 5c 3b ce e6 6a be 68 fe 07 be
       0.06977312 0.0033626198 -0.22939608 -0.13280642
0000f0 93 25 3e 3e 01 07 86 3c 0c bc 1f 3e 3a 26 cf 3f
       0.18569021 0.016360762 0.15599078 1.6183541
000100 0e d0 b1 3d 9b 73 39 be 77 17 98 3d cb 53 bd 3e
       0.086822614 -0.18110506 0.074263506 0.3697799
000110 5d 58 41 3e d2 51 2d bf 64 5e 58 be 5c ba 8b bd
       0.18881364 -0.6770297 -0.21129757 -0.068226546
000120 83 d5 56 be 80 6c bf bf 5b 55 c6 3e c7 8f d1 be
       -0.20979886 -1.4954987 0.38736996 -0.40930006
000130 e9 09 34 3e de 96 49 be 91 de fb be 9c 10 d7 bd
       0.17581905 -0.19686458 -0.49193242 -0.10501215
000140 65 c4 a5 be 19 75 92 be d1 6a 70 3e 0f 78 15 be
       -0.323764 -0.28604963 0.23478247 -0.1459658
000150 6d 04 31 be 15 55 09 bd 64 a3 94 be 8d a1 67 3f
       -0.17286845 -0.033528406 -0.29030907 0.9048088
000160 b0 20 6d be 2e 58 de be e2 f2 20 be e5 b1 e1 3f
       -0.23157 -0.4342665 -0.15717652 1.7632414
000170 ab a8 69 bb a4 50 61 be 6b 50 48 3c 52 13 b0 3c
       -0.0035653512 -0.22003418 0.012226204 0.021493588
000180 af 6f f5 3e e7 f0 5d bc 92 47 7e bf 64 f9 8f be
       0.4793677 -0.013546205 -0.9932796 -0.28119957
000190 04 18 bf 3e 9e d9 cb bd 04 bb ef bd 26 87 1f 3f
       0.3732301 -0.099536166 -0.11705592 0.62315595
0001a0 b3 17 7a 3e db f1 3e be 46 6f 0c be c9 1f b0 3e
       0.24423103 -0.18646948 -0.13714322 0.3439925
0001b0 1a 6b 82 be a0 44 fd 3e e8 fe 9d be 0b 4f 34 bd
       -0.25472337 0.4946642 -0.3085854 -0.044020694
0001c0 8d ae 3e 3e 84 da ab ba 46 42 92 3e 86 d0 d2 bd
       0.18621273 -0.0013111387 0.28566188 -0.10293679
0001d0 ab a9 02 bd 14 f9 11 bd 90 e7 86 3f f4 7f 59 3f
       -0.03190009 -0.03563793 1.0539417 0.84960866
0001e0 12 db bf 3f c4 48 c3 bd 59 5c cc 3c 4d fd aa 3e
       1.498873 -0.09535363 0.024946379 0.33396378
0001f0 93 63 2d bd bc 89 fd bf 77 b4 f9 bd e4 f1 fd 3f
       -0.04233129 -1.9807658 -0.12192624 1.9839444

features.prelu4.weight f4 [128]
000000 15 2e ec 3b 07 73 84 b8 81 59 b1 b9 1a 9a cc 3b
       0.007207642 -6.315676e-05 -0.00033826756 0.0062439563
000010 9d b0 5b b9 64 ec 31 3d 49 a3 92 b8 12 e8 05 bb
       -0.00020951261 0.04343833 -6.992237e-05 -0.0020432514
000020 9d bb 86 ba b3 6e 24 39 8e 86 74 3b 00 37 7e bb
       -0.0010279302 0.00015681497 0.0037311646 -0.0038790107
000030 d9 24 91 b9 68 25 43 39 24 bb a2 b9 99 de bb 38
       -0.0002768401 0.00018610584 -0.00031038478 8.958317e-05
000040 b8 2a 85 39 a8 6a 76 37 e9 36 2a 3d c0 4b 8c ba
       0.00025399565 1.46875755e-05 0.041556273 -0.0010703728
000050 a3 77 0e 37 6f 46 03 b9 e6 03 87 39 b9 6d 12 3b
       8.491715e-06 -0.00012519372 0.0002575211 0.0022343232
000060 29 ec cd b7 f6 85 a4 b9 15 6e cb b5 40 a6 44 3b
       -2.4547875e-05 -0.00031380326 -1.5156717e-06 0.003000632
000070 9f b8 00 b6 e4 8c 1e 3b 8e a0 9e bb 87 73 17 38
       -1.918095e-06 0.0024192864 -0.004840917 3.61088e-05
000080 0c b7 3e ba b5 45 95 bc ee bf 3d bb 75 c8 39 38
       -0.0007275201 -0.018221715 -0.002895351 4.4294127e-05
000090 0e f1 23 bc f1 93 26 3b 26 70 9d 3a 55 9c 15 bb
       -0.010006202 0.002541777 0.0012011572 -0.0022828777
0000a0 5f 2d 81 3a d1 72 83 39 18 3d b5 3a 5d 77 5d 38
       0.0009855441 0.00025071812 0.0013827411 5.280167e-05
0000b0 b4 11 79 3b 1c e7 09 b9 12 be 03 ba 14 1e d9 39
       0.0038004937 -0.00013151433 -0.0005025576 0.00041411875
0000c0 0a 17 3a 3a 0c bb 29 3c f9 1a 21 3a 34 b6 0e 38
       0.000709877 0.010359537 0.0006145682 3.4025128e-05
0000d0 38 e7 e4 b8 77 79 f0 3c 82 4a a6 ba 4c bc 01 3a
       -0.00010914955 0.029354794 -0.0012687 0.0004949018
0000e0 10 56 9f ba 3c ae 43 39 a1 32 9a 3b 7d 99 75 b9
       -0.0012156386 0.00018661557 0.0047057425 -0.000234222
0000f0 a5 9d 00 3f c2 f7 b7 bb 71 31 ea bb fb c5 35 bb
       0.50240546 -0.005614252 -0.007147007 -0.0027736414
000100 de 78 2c bb 87 08 3f ba e8 a3 2e bb 13 01 0b b9
       -0.002631716 -0.00072873425 -0.0026647989 -0.00013256473
000110 2a 8d 42 bc 02 43 de bb 20 b6 21 3d b9 11 52 bb
       -0.011874476 -0.0067828903 0.03948033 -0.003205402
000120 f1 e0 3f b9 4a fd 0f 3b 53 24 83 3a 4e 5f 86 3a
       -0.00018298977 0.002197104 0.0010005332 0.0010251792
000130 ca c0 25 bb 66 d1 0a bb ff 69 c7 b9 08 7e 35 3b
       -0.0025291913 -0.002118194 -0.0003803521 0.0027693529
000140 13 85 01 b6 c2 80 81 b9 b7 8e 0a 3b 6a b2 7f b9
       -1.9299957e-06 -0.0002470073 0.0021142194 -0.0002438516
000150 0f 08 eb 32 39 c3 be bb 5d 49 12 ba 94 b4 6a bc
       2.7361265e-08 -0.005821612 -0.000558039 -0.01432528
000160 cb df 0b 3d fe 08 2a ba 7a 0e dd 38 61 e1 f1 bb
       0.034148972 -0.00064863253 0.00010540798 -0.0073816036
000170 9e 71 8e b9 ad 3d 4f b9 e0 9c a4 b9 f1 6a 82 ba
       -0.00027169002 -0.00019764034 -0.000313974 -0.0009950084
000180 6e a2 5d 3a e1 2e 1c 3b 9c 18 56 bd bf f9 3a b8
       0.0008454685 0.0023831653 -0.052269563 -4.457845e-05
000190 c0 28 58 b7 18 eb ea b9 cc 9f 75 b6 33 d2 c0 ba
       -1.2884091e-05 -0.00044807117 -3.660086e-06 -0.0014711082
0001a0 ad 57 88 3b 22 f3 a6 37 e0 12 38 ba e5 2d a7 bc
       0.0041608424 1.990196e-05 -0.00070218556 -0.020407626
0001b0 a8 e4 53 3a af 5a 1a bb ab a9 72 ba 00 c2 8f b8
       0.00080830837 -0.0023552587 -0.000925685 -6.854907e-05
0001c0 13 ff 2d bc a8 cb 93 3a 08 45 44 3a fe 12 52 39
       -0.010619896 0.0011275904 0.0007487093 0.00020034236
0001d0 0a fe 86 b7 f1 cf 81 bb 17 fe 8b bb a8 d1 9d 3b
       -1.6092341e-05 -0.003961556 -0.004272233 0.0048162527
0001e0 2e 06 ed bb 84 52 f0 37 0d 16 ca ba 4b ac cb ba
       -0.0072334027 2.8648654e-05 -0.0015417949 -0.0015539018
0001f0 8d 17 82 b8 2f dc bc bb 4b 15 9a b9 fe 80 45 bc
       -6.20327e-05 -0.0057635526 -0.00029389033 -0.01205468

conv5_1.weight f4 [2, 128]
000000 20 fa 53 3d a0 7d 5e 3d 2e b0 3a 3c 36 76 fb bd
       0.05175221 0.054319024 0.011394544 -0.12278406
000010 ba 0e a2 3c e3 cc fd 3c 33 16 86 3c c8 6e a9 3c
       0.019782413 0.030981487 0.016368007 0.020682707
000020 18 b6 40 3c 27 2c 6b 3d 57 2a 0f 3e c9 93 0f 3d
       0.0117621645 0.057415154 0.13980995 0.03505305
000030 31 82 da 3c 59 e3 f8 bb 23 eb e7 bd 71 06 a7 3c
       0.026673408 -0.0075954613 -0.11324146 0.020388814
000040 32 ee 98 3c 20 ea 8a bd f0 28 a1 bc 7d c6 09 3d
       0.018668268 -0.06782937 -0.01967284 0.03363656
000050 b2 aa 4c 3d e1 da 50 bd 5a 66 a5 b9 9b 37 30 bc
       0.049967475 -0.05098999 -0.0003154751 -0.010755445
000060 18 64 3d 3d d7 2c 3d bd ef 46 7e bd 13 dc 11 bd
       0.046238035 -0.04618534 -0.062079366 -0.03561027
000070 4a cb 81 bd cb 69 15 3d cb 6c 92 3d 5b b3 5c 3d
       -0.063376024 0.036477845 0.07149657 0.053881984
000080 e4 5b ad 3c a1 6b 0a be 86 9a 83 3c 9d 79 03 3d
       0.02116198 -0.1351762 0.016064893 0.0320984
000090 d9 0a 90 ba 57 a7 86 bd e7 01 72 3d 95 61 66 3d
       -0.0010989561 -0.06574886 0.059083845 0.056245405
0000a0 6b 68 89 3d 02 9a 36 bd 0f 5a a3 3d 30 aa cd bb
       0.06709369 -0.044580467 0.07976162 -0.0062763914
0000b0 45 a5 07 3d 80 99 13 bd c8 27 3a 3d bc 36 f5 3b
       0.033116598 -0.03603506 0.045448095 0.0074833315
0000c0 e2 f9 91 3d 48 26 c1 3c 14 d4 0d bc e2 67 bb 3c
       0.071277395 0.023577824 -0.00865652 0.022876684
0000d0 f6 04 f0 3c db 81 07 3d 9a 65 57 bd 5c 05 b8 bd
       0.02929924 0.033082824 -0.05258713 -0.08985397
0000e0 9e cc 3d 3c 42 dd a8 bd d9 7c fe bd 58 6f 42 bd
       0.011584429 -0.082453266 -0.124261566 -0.047469467
0000f0 9f b3 68 be b5 6c 90 bd a3 ef 40 be 89 47 b3 3d
       -0.2272477 -0.07051984 -0.18841414 0.087538786
000100 ce ab 4d 3d 73 41 ec 3c 74 b4 36 3d 72 31 4e 3c
       0.050212674 0.028839802 0.044605687 0.012585031
000110 c2 c3 1c be 34 29 ac bd c9 33 0b 3e da 28 ed bd
       -0.1530905 -0.08406296 0.13593973 -0.115800574
000120 90 51 85 3c 8d 15 b5 bb 6f 4e 36 3d 5f 69 98 bd
       0.016274244 -0.0055262507 0.044508394 -0.07441973
000130 4e f1 32 3c 34 f0 98 3d b8 6a 20 3d e3 d1 b9 3c
       0.010921789 0.0746769 0.039164275 0.02268309
000140 a6 be b7 3c cb 86 5a bd 44 25 86 bd 2c ea 32 3d
       0.022429775 -0.053351205 -0.065500766 0.043680355
000150 a8 83 1f 3c 50 3f 24 3e b7 92 87 bb 0f 2b ab 3c
       0.009735979 0.16039777 -0.004137363 0.020894555
000160 3e 8b b8 3d 25 8a 4f 3c 02 a9 ad bd 16 da 02 3d
       0.09010933 0.012667214 -0.08479501 0.031946264
000170 67 59 9b bc 31 b8 75 3c 8f fd 60 3b e0 97 58 bc
       -0.018963529 0.014997528 0.003433082 -0.013219804
000180 45 a0 96 3c 22 fc 4f 3c 5c 9c e1 bd f7 72 67 3c
       0.01838697 0.0126943905 -0.11016151 0.014126531
000190 7d 5a bd 3b cd 41 e2 bd d8 81 bf bc 39 aa 5f 3d
       0.0057786093 -0.11047707 -0.023377344 0.054605696
0001a0 26 61 11 bd bc ac 45 bd 40 74 d5 3c a4 25 a0 bd
       -0.03549304 -0.048260435 0.026056409 -0.078196794
0001b0 84 40 88 3b 36 d9 24 3d d2 01 c7 3c 2d c4 77 bd
       0.0041580815 0.04024621 0.02429286 -0.060489822
0001c0 c4 34 a3 bd 7d e0 ab bd 7d 9a f5 bc 91 e3 00 bd
       -0.079690486 -0.08392427 -0.029980892 -0.031467024
0001d0 10 99 6a bd b8 97 62 3b 24 11 14 3d be cd c3 bb
       -0.057274878 0.0034575295 0.03614916 -0.005975454
0001e0 c9 89 32 3d e5 d4 00 3d 7c aa ae 3d 07 a9 39 3d
       0.043588433 0.031453032 0.08528611 0.045327213
0001f0 63 45 10 bd 97 be a0 b9 ba d3 8f bd d4 8f fd 3b
       -0.035222422 -0.0003065958 -0.070228055 0.007738093
000200 69 d6 63 bd cd a0 3d 3d 78 12 dc 3c ce 3f 12 3e
       -0.0556244 0.04629593 0.026864275 0.14282152
000210 c3 c1 6f 3c e4 43 20 3b c8 50 28 3c b1 dc 07 3e
       0.014633599 0.0024454528 0.010273166 0.13267781
000220 f3 ce 2a bd fc bf 95 3c 7b f3 ae 3c bc a6 00 3e
       -0.04170127 0.018280022 0.021356335 0.12563604
000230 61 8d b7 bc 5f a2 41 bc b4 e7 fa 3d d4 1d 74 3c
       -0.022406282 -0.011818497 0.12251225 0.01489969
000240 8c 62 95 bb 8f 9b 8b bd 0d 56 07 be eb 94 23 be
       -0.004558867 -0.0681678 -0.1321642 -0.15974776
000250 31 10 77 3d ab bd 52 bd d1 9a d3 3b a7 8b 8d 3d
       0.060318176 -0.051450413 0.0064576645 0.06911402
000260 c4 31 1a 3d 9e 89 55 bd df 06 80 bd cf 9d 83 3d
       0.037645116 -0.052133195 -0.062513106 0.06426584
000270 4d b6 87 bd 69 1b ca bd 27 bf 16 bd 8b 82 66 3d
       -0.06626568 -0.09868509 -0.03680339 0.05627684
000280 1f d0 1a 3d c6 56 24 3e 70 d8 40 b9 62 30 f3 3c
       0.037796136 0.16048726 -0.00018391176 0.029686157
000290 f7 da d0 bc d7 52 8e bc a1 35 80 3c c1 62 16 bd
       -0.025495036 -0.017373485 0.015650572 -0.036715273
0002a0 30 b6 94 3d 6d 3c 84 bd d7 33 dd bd 13 9e 7c bc
       0.07261312 -0.06456838 -0.10800903 -0.015418547
0002b0 ac b8 58 bd 6f 69 05 bd e9 b6 07 3d 6c cf 49 bc
       -0.05291049 -0.032571252 0.03313342 -0.01231752
0002c0 d6 48 49 3d f0 11 e1 bd 72 c5 aa 3c ea 05 bb 3c
       0.049141727 -0.109897494 0.020846102 0.022829968
0002d0 27 46 27 3d a1 41 93 bc 99 f5 36 bd 24 69 f4 3d
       0.040838387 -0.01797563 -0.044667814 0.119341165
0002e0 de 1a 99 3d be b2 97 bd ef 19 23 3d 2a 2c 70 bd
       0.07475828 -0.07407139 0.039819654 -0.058635868
0002f0 79 e7 93 3e 3a aa d6 3d 89 f2 84 3d f9 7e 5a bc
       0.28887537 0.10481687 0.064915724 -0.013335937
000300 bd 53 8b bd a5 57 72 3d cb c7 32 bc f1 a0 20 3c
       -0.06803081 0.059165616 -0.010911892 0.009803996
000310 26 fd 3c 3d be 39 42 3e b9 92 a8 bc 7b a0 e1 3c
       0.04613986 0.1896734 -0.020577775 0.027542343
000320 06 30 10 bd 7f f4 a3 3d a1 96 6a bc 89 ae 99 bd
       -0.03520205 0.08005618 -0.014318139 -0.07503993
000330 b6 6c 09 3d 25 04 50 3c b9 e8 43 3d 81 4a 52 bd
       0.03355094 0.012696301 0.047829363 -0.051340584
000340 ab bf b7 3c a6 ad 55 bd 0b 16 16 3d ee 87 1d 3d
       0.022430262 -0.052167557 0.036642116 0.03845971
000350 23 83 1f 3c 81 b5 15 bd 95 ca bf bb 91 2c 1a be
       0.009735855 -0.03655005 -0.005853007 -0.15056063
000360 7c 0b aa bc f6 56 fd 3a 21 dd 77 bd 04 1d ab bd
       -0.02075743 0.0019328285 -0.06051362 -0.08355144
000370 e0 85 ea bc f9 60 04 3d a8 53 4e bd 13 6e 8a bc
       -0.02862829 0.032319043 -0.05037275 -0.01689819
000380 bf b1 23 bd be a5 92 3b 3b 79 af 3d 3f 63 67 3c
       -0.039964434 0.0044753244 0.08568045 0.014122783
000390 c0 2f 38 bd e9 52 6b 3d 66 44 bf bc 5b 21 4f 3b
       -0.044967413 0.057452116 -0.023348045 0.0031605575
0003a0 00 70 59 bd d1 56 4e bd 5f af 2b 3a 1b 14 06 3e
       -0.053085327 -0.050375763 0.00065492647 0.13093607
0003b0 27 97 bb bd bf 30 bb 3c 88 de 10 3d a0 d0 82 bd
       -0.091596894 0.022850392 0.035368472 -0.06387448
0003c0 b5 26 ec 3d 3b f3 8c bd 8f 84 5e 3a d5 21 73 bc
       0.1153082 -0.0688233 0.00084883807 -0.014839609
0003d0 fd f0 67 bd ef 75 7f 3d 0b f6 e0 bd 81 48 12 bd
       -0.05662631 0.06236833 -0.10984429 -0.035713676
0003e0 0a 22 00 be 1d 86 1b 3d 44 7f 9c 3d 4f cc 3e bd
       -0.12512985 0.037969697 0.076414615 -0.046581563
0003f0 5e 62 1c bd ba c0 a0 3d a7 8d 91 bd c6 24 8a bd
       -0.038179748 0.0784926 -0.07107096 -0.06745295

conv5_1.bias f4 [2]
000000 88 31 68 3f 94 33 5e bf
       0.9070058 -0.8679745
