pretrained_weights/mtcnn/best_onet_landmark.pth (torch_old, 904431 bytes, 21 tensors)

features.conv1.weight f4 [32, 3, 3, 3]
000000 ab d7 75 3e d7 dd 3a 3e ff 47 ba bd 82 b6 39 3e
       0.24008052 0.18248688 -0.090957634 0.18136027
000010 73 3d 0e be 6e 77 1d bd 0e 59 25 be 61 30 49 be
       -0.13890629 -0.038443975 -0.16147253 -0.19647361
000020 e2 01 2a be 58 6e 9d 3d 3c a2 86 3d 96 46 4f 3d
       -0.1660228 0.07687062 0.065739125 0.050604425
000030 3e 23 a7 3d 7c 8e d4 3d d2 22 6a be ad 93 70 3c
       0.08161019 0.10378739 -0.22864845 0.014683646
000040 71 18 d5 3d f6 52 9f bd 21 c1 24 3c 16 da d4 bd
       0.104050525 -0.077794954 0.010055811 -0.10393159
000050 22 ee 58 bd 95 89 f9 bd ee fd 96 ba a4 41 df 3c
       -0.052961476 -0.12184445 -0.0011519769 0.02725298
000060 78 df ed 3d 8b 7e b6 3d 41 15 80 bc be 0f 43 bd
       0.11614889 0.08910855 -0.015635135 -0.047622435
000070 b7 50 47 3e e0 cf bc bc 67 95 07 be 90 46 ef bd
       0.19464384 -0.023048341 -0.13240586 -0.116833806
000080 a6 ab 5a 3d b3 4e c1 3d 55 76 72 be 39 7c 6e be
       0.053386353 0.09438839 -0.23677953 -0.23289575
000090 e5 bb 36 3e 11 ed 9c 3d 0e 7a e2 3d ad 5a 11 be
       0.17845114 0.07662404 0.11058436 -0.14194746
0000a0 70 0c f8 3d 02 f9 c2 bd 02 47 90 3d a6 af 82 3d
       0.12111747 -0.09520151 0.07044794 0.063811585
0000b0 59 af 63 3e 87 13 1e be 50 6f 0d 3e b4 c2 61 bd
       0.22234859 -0.15437137 0.13811994 -0.055117324
0000c0 70 c8 df bd b5 a3 15 be 97 b6 c7 3d d4 33 6a 3e
       -0.10926902 -0.1461323 0.09751623 0.22871333
0000d0 aa 38 c6 3d 41 d3 34 3d 70 d3 19 be 04 4b 0c bd
       0.096787766 0.04414678 -0.15022063 -0.034251228
0000e0 2f 45 af bc 79 ed 02 bd b7 f1 10 bd 8a ee c2 3d
       -0.021395294 -0.031964753 -0.035386767 0.09518154
0000f0 8e 1b f6 3d 45 3d 32 be 5f 9a 6b bc a8 f2 66 bd
       0.120169744 -0.17406185 -0.014380067 -0.05638376
000100 8b 8e 3b 3d 0f 5a 7c 3d ad b9 e4 3d 7c 8a 2e 3e
       0.045790236 0.061609324 0.11168227 0.17045015
000110 59 86 0c 3e 77 91 ba bd b2 54 34 3d 33 a8 97 bd
       0.13723125 -0.091097765 0.044026084 -0.07405128
000120 e9 92 4e 3d 9d d4 9a 3d 07 2e 1f 3d 94 a6 c3 3d
       0.050433073 0.07560084 0.038862254 0.09553257
000130 25 2a c7 bd 78 51 57 be a9 65 fb 3d 5f cc 8e 3c
       -0.09724835 -0.21027172 0.122752495 0.017431436
000140 4f e6 0a bc ed 8f 0d be 10 4e 63 3c 57 c2 31 bd
       -0.008477761 -0.13824435 0.013873592 -0.043398228
000150 80 88 55 3e f7 e0 18 3d f1 52 18 be 89 b9 a9 3c
       0.20852852 0.03732392 -0.1487539 0.020718353
000160 00 e2 3c bc 2f e5 87 bd 8c ff 26 3d a8 cd 68 bd
       -0.011528492 -0.0663551 0.040771052 -0.056836754
000170 f1 fc 43 be 1a 70 9d bd 2f ad a6 bd 75 95 c7 bd
       -0.19139458 -0.07687397 -0.08138501 -0.097453035
000180 68 15 8e 3e 60 09 2e 3e 9c 3b 4d bd 81 84 95 3d
       0.27750707 0.16995764 -0.050105676 0.07300664
000190 9e 3e cb bd ed 53 8a bd 8b 56 a6 bd 2f 35 9a bd
       -0.09924053 -0.06754289 -0.081219755 -0.07529675
0001a0 0e 9e 16 3e c1 35 6d 3e f4 7e 05 3e d4 0d 00 3e
       0.1470873 0.23165037 0.1303671 0.12505275
0001b0 55 ac 57 bc 61 e1 ab bd 27 fc 6c bc 1d ef 67 3d
       -0.013163646 -0.08392597 -0.014464415 0.05662452
0001c0 51 68 69 be 65 3e 2a be 6d fe c7 3c 92 43 2e be
       -0.227937 -0.16625364 0.024413312 -0.17017964
0001d0 22 7f 01 bc a2 3b ac 3c d0 29 7b bd bf 56 93 bd
       -0.007903846 0.021024529 -0.061319172 -0.0719428
0001e0 20 46 31 bd db ed 70 3e e8 b0 87 3d 79 29 e6 3d
       -0.043279767 0.23528235 0.06625539 0.11238379
0001f0 87 6f 0d 3e 21 df 23 be 8c 58 8c 3b ec 79 03 3e
       0.13812076 -0.16003086 0.0042830165 0.12839478
000200 79 7a 35 3e 72 f1 a8 bc 85 27 eb 3d f1 20 67 3c
       0.17722501 -0.020622943 0.11482147 0.014106975
000210 47 14 88 be 42 26 80 3d 8e 34 29 3c b3 fe 67 3e
       -0.2657797 0.06257297 0.010327471 0.22655754
000220 e5 f0 22 bd f8 44 bc 3d 18 ff 8f bd 18 12 77 3e
       -0.039780516 0.09192842 -0.07031077 0.24127996
000230 e5 43 56 bd c9 f7 f9 3c 09 ad 6d 3e bf 20 55 bc
       -0.052310843 0.030513661 0.23210539 -0.013008296
000240 13 f0 5d bd d9 9c 7b 3d 20 0e cf bd f1 a1 3c bd
       -0.05418403 0.06142888 -0.10110116 -0.046052877
000250 70 7f d6 bd 64 d9 ba 3b 78 26 d1 bc ed 2b f3 bd
       -0.104735255 0.0057021845 -0.025531039 -0.118736126
000260 f7 c0 f6 bd 3c 3e f3 bd cc c2 15 be 3a 43 31 3e
       -0.12048524 -0.11877105 -0.1462509 0.17310801
000270 7d 42 b8 bd c2 ca 26 3d 65 f5 53 3c 6f e4 64 bd
       -0.08997057 0.04072071 0.012936925 -0.055881914
000280 8d 3b f0 3d 14 a9 dd bd 8d da b2 bd 1a 60 bb 3c
       0.117301084 -0.10823265 -0.087330915 0.022872973
000290 9b c6 05 3d 3b 4b ce 3d 13 3b 1e be 84 b6 38 bd
       0.032660108 0.10072943 -0.15452223 -0.045095935
0002a0 9c 0d 1f be ee e4 a6 3d 40 dd b4 bb df c6 cd 3d
       -0.15532535 0.081491336 -0.005519539 0.10047697
0002b0 b9 ab ef 3c 0c 99 f8 3d 6a d1 9d bd 2f ab 96 bd
       0.029256688 0.121385664 -0.07705958 -0.073568694
0002c0 4b ff 24 39 b1 1b 6a be 74 1f b8 bc 1e 1d 06 3d
       0.00015735363 -0.22862126 -0.022475936 0.032742612
0002d0 df 6d db 3d c1 54 ee 3c 6d 7d 09 bd ca 1a e6 3d
       0.107143156 0.029093148 -0.03356688 0.11235578
0002e0 8b a5 ab bd fa 8f f8 bd 92 45 ea 3d 19 53 91 3d
       -0.08381184 -0.12136836 0.11439051 0.07095928
0002f0 26 a9 00 be cb 7b 3f be 28 62 2b bd d2 ce 53 3c
       -0.12564525 -0.18699567 -0.041841656 0.012927728
000300 3d 3b d9 bd f0 f9 70 bd 77 b2 d0 bb 86 09 1b 3e
       -0.10607002 -0.05883211 -0.006368931 0.15140352
000310 0c 0d 20 bd 5e 2b 5f 3e c4 34 a1 3d bb ba 42 be
       -0.039074942 0.21793887 0.07871392 -0.19016545
000320 b6 95 1e 3e d1 a4 e0 bd be f3 ce bd fa 52 9d 3e
       0.15486798 -0.10968936 -0.10105084 0.3072737
000330 29 65 81 be a4 9e 3f 3e 39 61 b6 3d 6d 10 2c be
       -0.25272492 0.1871286 0.089052625 -0.16803141
000340 68 ee 90 bd 35 e1 11 3e 05 a1 d2 bd 2c c5 29 be
       -0.070767224 0.14246066 -0.10284618 -0.16579121
000350 6b bc 2e 3d 72 84 f8 bd 94 75 06 3e e9 a9 4d 3e
       0.042660158 -0.12134637 0.1313079 0.20084347
000360 15 c4 5b be f8 46 e5 3d 51 49 68 3e 7a e3 b1 bd
       -0.21461518 0.11195177 0.22684218 -0.08685966
000370 78 dd 7b be 91 2f 5b 3d 5a 99 39 be 36 b5 11 bd
       -0.24596202 0.05351216 -0.18124905 -0.035573207
000380 ad 46 69 3e 69 16 f0 bb d3 87 b1 3d dc 0a 3e 3e
       0.22780867 -0.0073268902 0.086684845 0.1855883
000390 11 4a 73 bd ad 3b ed bb 31 86 44 bd ea b0 1d bd
       -0.059396807 -0.00723978 -0.047979537 -0.038498797
0003a0 2f b4 7f 3e 56 bf e7 bd fa 22 b2 bd f4 81 5b 3d
       0.24971078 -0.11315791 -0.086980775 0.05359073
0003b0 d7 b0 e5 bd ae 9d 43 bd e4 66 1b bd 09 ce 0f be
       -0.1121537 -0.047757797 -0.03793992 -0.1404344
0003c0 38 65 b8 bd 46 f2 7c 3e 32 9a e6 3d 24 28 12 be
       -0.09003681 0.24701795 0.11259879 -0.14273125
0003d0 c5 e3 9c 3d e1 3f 19 be 48 b3 1f 3e e8 23 2c bc
       0.07660631 -0.14965774 0.15595734 -0.010506608
0003e0 da 8f cf 3c c0 45 44 bd e1 a3 72 3e 68 42 a5 bd
       0.025337148 -0.04791808 0.23695327 -0.080693066
0003f0 7e 0f 76 be 90 6f de 3d 63 e8 d9 bc ad 54 e8 bc
       -0.24029347 0.108611226 -0.026600068 -0.028360689

features.conv1.bias f4 [32]
000000 e8 84 dd 3d 65 70 74 3d 83 6a 2a be 24 6c 41 be
       0.108163655 0.0596775 -0.16642193 -0.18888909
000010 24 e0 87 bc 3a 9b 0e be 20 4c d0 bb 86 d0 93 bc
       -0.01658637 -0.13926402 -0.006356731 -0.018043768
000020 f3 87 64 3d 2b e7 2a be 3e 64 4b 3e 9f 46 39 3c
       0.055793714 -0.16689746 0.19862458 0.011308341
000030 e1 62 2e be 59 c3 20 be 23 9a 9a bd 84 11 b1 be
       -0.17029907 -0.15699519 -0.075489305 -0.34583676
000040 32 4e 98 bc 71 e2 5c bd 7f 8e ae 3d 50 fc 33 3d
       -0.018591974 -0.05392689 0.08523273 0.043941796
000050 52 ba 82 3d 94 cd 29 be e3 50 e6 bc 8f 78 0c bc
       0.06383194 -0.16582328 -0.028114742 -0.008573665
000060 ab cf ca bd 39 8b f1 bd 9f 8a 54 be 07 d4 e4 3b
       -0.09902891 -0.11794133 -0.20756005 0.0069832834
000070 df 34 e0 bb e0 50 05 be 3b f0 c8 bc 64 d2 2b be
       -0.00684224 -0.13019133 -0.024528613 -0.16779476

features.prelu1.weight f4 [32]
000000 a7 cd 2d 3f 9c 74 c7 3e 27 50 0c 3e 7f b3 be 3e
       0.67891926 0.38956153 0.1370245 0.3724632
000010 38 28 69 3e 4c a2 b4 3e dc 7b 0e be fe 40 d5 3e
       0.22769248 0.35280073 -0.13914436 0.41651148
000020 02 9b 2e 3d fa 0b 35 bc 80 b8 3f 3e c2 bd d3 3e
       0.042628296 -0.011050219 0.18722725 0.4135571
000030 99 c0 cf b9 4c bd 26 3e 82 6c 30 3f 86 d1 af bc
       -0.00039625613 0.16283149 0.6891557 -0.021462213
000040 22 f2 81 3e 50 93 15 3f 05 b4 cb 3e 9c cd 3a b8
       0.25380045 0.58427906 0.39785782 -4.4537344e-05
000050 fa fd ae 3e a5 23 02 3f a6 2b d5 3e b6 bd 6f 3c
       0.34178144 0.5083564 0.41634864 0.014632633
000060 6b 01 1d 3c 07 8a 02 bd c1 35 cd 3e c2 74 27 3e
       0.009582858 -0.031869914 0.40080073 0.16353133
000070 8d cb 4e 3f cf 2a 08 3d a9 63 ce 3e 62 23 c8 3e
       0.80779344 0.03324395 0.4031041 0.39089495

features.conv2.weight f4 [64, 32, 3, 3]
000000 46 de 99 bd 09 2d 17 bd ca 43 bd 3c d7 00 a4 bd
       -0.075130984 -0.036908183 0.023103613 -0.08007973
000010 32 bc 29 bc c0 99 1d bd 65 78 e0 bc bc 73 49 bd
       -0.010359811 -0.038476706 -0.027401159 -0.04918264
000020 2a 72 90 bb 86 b4 10 3d de bb 2c 3d 32 79 05 3d
       -0.0044081407 0.03532841 0.04217135 0.032586284
000030 92 2e 99 bc b8 ca 1b 3c b9 e5 e0 3c 49 9e c5 bb
       -0.018698964 0.009508781 0.02745329 -0.006030832
000040 1d 25 80 bb bf b8 02 3d 5d 47 5f 3d 84 2b bf 3d
       -0.0039106742 0.03191447 0.054511417 0.09334472
000050 39 eb 3f 3d db 10 83 bd 5b 99 e4 3d 77 b3 9c bd
       0.046855185 -0.06399699 0.11162063 -0.07651418
000060 67 e7 9f bd dc 18 93 bd e8 08 74 bc 06 16 2a 3d
       -0.07807808 -0.07182476 -0.014894702 0.04152491
000070 52 a7 b7 3c 35 a4 f5 3c fa 38 40 bd 4f 7f 26 bd
       0.022418652 0.029985527 -0.046929337 -0.040648755
000080 4f 85 c3 3b ac 94 8c bb 8f 1c c8 3b 4e f2 0c bd
       0.0059668194 -0.004290184 0.00610692 -0.034410767
000090 c9 79 14 3e fc 64 07 3e 40 bd a8 3d 07 f0 87 3e
       0.14499582 0.13222116 0.082392216 0.26550314
0000a0 64 8c 01 3e 66 8e 51 3e 18 40 20 3e bc 4c 2a 3e
       0.12651211 0.20464477 0.1564945 0.16630834
0000b0 76 ce 6b 3e be 6e d9 bd 64 89 da bd 36 7b 1a be
       0.23027977 -0.106168255 -0.106707364 -0.15086064
0000c0 e5 5d 1a bd c4 d7 c2 bd a7 1c f3 bd 03 ee 90 bd
       -0.0376872 -0.0951381 -0.118706994 -0.07076647
0000d0 db 46 e7 bd 26 6b 0f be ed 6d f7 bd 65 a4 0f be
       -0.112928115 -0.14005718 -0.120815136 -0.14027555
0000e0 e7 0d de bd 76 1d 15 be 46 68 f2 bd a3 16 32 be
       -0.108424954 -0.1456202 -0.11836295 -0.17391448
0000f0 fe 3d 09 be a9 36 b6 bd cd 1b 0d be 37 1e 9d bc
       -0.13402554 -0.08897144 -0.13780136 -0.019179447
000100 bf 87 60 bd df 94 01 bd 75 4a 00 3c 22 7b b2 bd
       -0.054816958 -0.031636115 0.007830252 -0.08714892
000110 49 70 df bd be 31 88 bd 62 c2 db bd 9d 0c 0c bd
       -0.109100886 -0.066501126 -0.10730435 -0.034191716
000120 e2 18 40 3c 08 af 19 3d 9f 16 67 bc 2b 89 34 bd
       0.0117246825 0.03752044 -0.014104514 -0.044076126
000130 d1 83 3e bd 7a 0e 15 bc d0 d1 a8 bd 9f db 13 bd
       -0.04651243 -0.00909769 -0.082431436 -0.03609812
000140 ed db a1 bd 77 20 a8 3d a8 88 be 3d 0a 31 b2 3d
       -0.07903276 0.08209317 0.09303409 0.0870076
000150 62 a6 01 bd 20 e6 03 3d 55 b6 e2 3c f1 0d 82 bd
       -0.031652816 0.032201886 0.027674833 -0.06350315
000160 cf ec 9c b9 1a ab b7 bc 22 73 5d 3e d0 bf 25 3e
       -0.00029931075 -0.022420455 0.21625951 0.16186452
000170 03 14 3f 3e 0c ae 3c 3e 06 70 75 3d ba 81 ab 3c
       0.18659978 0.18425769 0.059921287 0.020935882
000180 07 6b 70 ba 77 21 3c 3d 91 8d 27 3c fc 95 88 bd
       -0.0009171222 0.045930352 0.010226623 -0.06669232
000190 a8 5c 1e 3c 29 2b 8c bd d4 bf 9b bd 16 00 1f bd
       0.009665646 -0.0684417 -0.07604948 -0.03881844
0001a0 8b 16 20 bc 63 12 86 bd d9 b1 ce bd 5d 31 c3 3c
       -0.009771 -0.06546476 -0.100925155 0.02382725
0001b0 d1 dd 86 3d fa 52 9f 3d e0 78 67 3c d8 23 09 3c
       0.06585277 0.077794984 0.01412794 0.008370362
0001c0 fb 2a 44 3d 89 5f ab 3c 7a 28 89 3d c0 d3 f4 bb
       0.047892552 0.020919578 0.066971734 -0.0074715316
0001d0 a0 90 4b 3d 29 18 51 3d 16 0d ab 3d 4f e7 4b 3a
       0.049698472 0.05104843 0.08352105 0.0007778303
0001e0 52 de 10 3e bf 9a ab 3d bc 67 5c bd 33 fc bf bd
       0.14147308 0.08379125 -0.053809866 -0.09374275
0001f0 f2 8e 16 be ea 32 0a be af 8a 39 3e 21 f0 81 3d
       -0.14702967 -0.13495985 0.1811931 0.06344629
000200 b9 52 50 bd e3 fc a5 bd e5 ed 01 be 57 1b bf bd
       -0.05086014 -0.08104875 -0.12688406 -0.093313865
000210 a0 0d f8 bc 20 9e 1f bc 3a ff c9 3c 1c aa 2d 3c
       -0.030279934 -0.00974229 0.024657834 0.010599639
000220 16 27 9d bc 6b cc 2b bd 91 8b 80 3d dc df a3 bc
       -0.019183677 -0.041942995 0.0627662 -0.020004205
000230 8b 65 80 bc 39 d2 87 3d 32 60 77 3d 05 61 9f 3b
       -0.01567342 0.06631894 0.060394473 0.0048638606
000240 bc 48 bb b9 bd aa 92 bd 86 4e 86 3c 6d c8 36 be
       -0.0003572161 -0.07161472 0.016394865 -0.17849894
000250 3f 3f ea bd f2 17 98 bc 79 cc 9f bd 24 af 42 bd
       -0.114378445 -0.018566106 -0.07802672 -0.04753031
000260 6d b0 80 bc 7d 8b 5e bd 59 f6 65 bd d0 53 cd bd
       -0.015709126 -0.054332245 -0.05614314 -0.100257516
000270 2b 93 39 3d 0a bd 07 3e 37 99 96 bd f6 6b d9 bb
       0.045306366 0.13255706 -0.07353442 -0.0066351844
000280 9a cf 00 be 11 35 44 be 2d 55 b7 3d d6 64 e6 bc
       -0.12579194 -0.19160868 0.08951793 -0.028124254
000290 ba 20 0d bc d5 1e 0e 3d 42 6c dd 3c ec 30 0c 3d
       -0.00861376 0.034697372 0.02702916 0.034226343
0002a0 df b6 3c 3c 75 6e 86 3b 37 59 b1 bc 20 3a 90 bd
       0.011518209 0.004102523 -0.021648986 -0.070423365
0002b0 1d 35 18 be e2 d8 e5 bd 88 86 f3 bd 1b ec 16 be
       -0.14864011 -0.11223008 -0.11890894 -0.14738505
0002c0 cd d5 da bd fa 75 65 bd c2 49 df bd ed 83 ec bd
       -0.106853105 -0.056020714 -0.1090274 -0.115486
0002d0 aa f6 8e bb d7 a3 58 3d 60 c6 1e bd a0 61 30 bd
       -0.0043629007 0.052890625 -0.038763404 -0.043061852
0002e0 b4 4f fc bd 38 ef fc b9 62 a2 64 bc 43 0f 01 be
       -0.1231989 -0.00048243417 -0.013954731 -0.12603478
0002f0 95 04 3f 3b 1d 93 b3 3d 23 63 97 bc 9a ef f2 bc
       0.0029147018 0.08768294 -0.01847989 -0.029655267
000300 3c a6 d0 bb 88 34 10 3d 19 9b 90 bd ed d8 a5 3c
       -0.006367473 0.035206348 -0.070608325 0.02024504
000310 c9 2b 9e bd fd f3 b4 bd 0f c0 2f bd 01 bf e5 bc
       -0.07723195 -0.088355996 -0.04290777 -0.02804518
000320 1a 65 3f bc d2 59 28 bc ea 10 ad bd 28 77 8c 3b
       -0.011681819 -0.010275321 -0.08450492 0.0042866655
000330 cc 7b 02 3c 15 58 0a 3d 0e a6 a5 3d 85 b2 cd 3d
       0.007964086 0.033775408 0.08088313 0.100438155
000340 d0 59 fb 3b 69 9a 5a bd 41 6d 59 3c ff ed 31 bc
       0.0076706186 -0.053369913 0.013270677 -0.010859965
000350 13 bd bf 3b 5d 79 cd bd 36 47 cd bd e7 1a 95 bc
       0.005851397 -0.10032914 -0.10023348 -0.018201305
000360 22 a3 8a bc 90 87 99 3c af f7 8c bd 8a 9d 4d bd
       -0.01692349 0.018741399 -0.068831794 -0.05019907
000370 93 cd e7 bc ee 20 7f bd fa df 59 bd 6d 36 e2 3c
       -0.028296268 -0.062287264 -0.053192116 0.027613843
000380 bf 25 d0 bc 79 84 0d bd 7e cc d0 bd c5 5f ae bd
       -0.025408624 -0.034550164 -0.10195254 -0.0851436
000390 77 c9 f8 bb 47 cb 9c bc fe 26 a0 bd 72 15 95 3c
       -0.007592376 -0.019139899 -0.07819937 0.018198702
0003a0 0b a8 aa 3b 8a d7 eb 3c d8 39 ec 3b c3 2e 9c bc
       0.0052080206 0.0287893 0.007209044 -0.019065266
0003b0 97 32 4a bd 1e cc ad bc 48 31 77 3d 3e f7 5e 3d
       -0.049364652 -0.021215495 0.060349733 0.054435007
0003c0 73 ea a3 bd 26 c5 0f bc b2 9b f0 3c 65 45 3a bd
       -0.08003702 -0.008775031 0.029371116 -0.045476336
0003d0 e4 28 92 bd a0 cb 2f be bd 8d 27 bd d4 5b 44 bc
       -0.071367055 -0.1716752 -0.040906657 -0.011984784
0003e0 88 13 5d bc 3f 71 db bd 5f 3f 82 bd d6 f9 c7 bc
       -0.013493426 -0.10714959 -0.06359743 -0.024411123
0003f0 bf 22 5a 3d ce a2 59 bd 6d 6d e3 bd c0 be 4f bd
       0.053255793 -0.05313378 -0.11104856 -0.050719023

features.conv2.bias f4 [64]
000000 9f 7e 12 be db d8 5c 3c 12 35 9c bd 50 c2 73 bd
       -0.14306115 0.013479437 -0.0762731 -0.059511483
000010 32 b9 7d bd e3 29 6f bd e1 e8 38 be 91 65 bb bd
       -0.061944194 -0.058389556 -0.18057586 -0.09150232
000020 59 63 e4 3c 0d 1b 0f 3d 4d 1e bf 3d b5 a3 5b bd
       0.027879404 0.034937907 0.09331951 -0.05362292
000030 db 5e db bc 10 b9 84 bd 12 0f 31 3d c5 b3 7e 3d
       -0.026778629 -0.0648061 0.043227263 0.06218316
000040 6a 8d 85 bd 43 db b0 3b 6a 82 0a be 39 22 db bd
       -0.06521113 0.005397232 -0.13526312 -0.10699887
000050 0d 92 d5 bd a6 84 2e bd 98 6a a5 bd 9a 67 17 bd
       -0.104282476 -0.042606972 -0.08076972 -0.036964037
000060 52 81 64 bd 0f d4 3d bd 1f 40 8e 3d db f0 2a bd
       -0.055787392 -0.046344813 0.06945824 -0.041733604
000070 a9 87 29 3d 15 42 9d bd ad 3d 91 3d 76 c6 ce bd
       0.04138914 -0.0767862 0.07091842 -0.10096447
000080 86 3e 4b 3b 53 21 0a bd cf bf f6 bd ec 0c 00 3d
       0.0031012609 -0.033723187 -0.12048303 0.031262323
000090 fd 0e 02 3d 05 03 91 3d 2d cf ee bd 8d 7a 91 bd
       0.031752575 0.07080654 -0.116606094 -0.07103453
0000a0 0e f5 8d 3d cb c7 86 bd f8 63 48 be ed 7e 0c 3d
       0.06931506 -0.06581076 -0.19569385 0.034300733
0000b0 4f e2 a3 bd 24 d1 c8 bb ef 7a 17 be b2 08 de bd
       -0.08002149 -0.006128447 -0.14792989 -0.10841502
0000c0 6f 62 6c bd aa ae 38 3d 06 a9 9d 3d 2f e2 0c bc
       -0.05771106 0.045088448 0.07698254 -0.008598848
0000d0 52 15 82 bd bd 2e f0 bd e4 83 33 bd 9a 2a 44 bc
       -0.06351723 -0.117276646 -0.043826953 -0.011973048
0000e0 16 d2 d0 bd ff af 5f bd c6 bb 42 bb 1b 1c 1d be
       -0.10196321 -0.054611202 -0.0029713972 -0.15342753
0000f0 6b 70 6d bd 18 49 0a bd 96 c9 96 bd 35 9a 8f bd
       -0.05796854 -0.033761114 -0.07362668 -0.070118345

features.prelu2.weight f4 [64]
000000 e4 c0 97 3d 77 e6 3f 3d fe f3 ac 3e f3 dd 9d 3d
       0.07409838 0.046850648 0.337799 0.07708349
000010 e0 a8 ae bc bc fe d9 3d 63 e1 bb 3d 22 4f 57 3e
       -0.02132076 0.1064429 0.091738485 0.2102628
000020 8b d5 3b 3e e4 75 f7 3e 79 94 3b 3e 3e e7 c8 3c
       0.18343179 0.4833213 0.18318357 0.024524327
000030 4e df 6f 3d b0 81 9d 3d 66 c3 ad 3d 84 26 a5 3d
       0.05856257 0.076907516 0.08484535 0.08063987
000040 54 df fc 3d e6 d0 fe 3e e5 3e 70 3e 60 37 e3 3d
       0.12347284 0.49768752 0.23461492 0.11094546
000050 3f 00 12 bd 65 0a 8d 3d 9c 32 55 3d ea 45 0b 3e
       -0.035644766 0.06886748 0.052050218 0.13600889
000060 1d e0 b3 3d 45 80 b3 3e 66 25 03 3e 0c a7 28 3e
       0.087829806 0.350588 0.12807235 0.16469973
000070 cb 33 91 3e 9c 6f 39 3e 68 4b 82 3e 6e 6a 0a 3a
       0.28359827 0.18108982 0.25448155 0.00052801415
000080 d6 b9 9b 3d 90 fd 3c 3e 52 bf 9c 3e 11 3c 75 3d
       0.07603805 0.18456101 0.30614716 0.059871737
000090 7d 20 19 3e d5 f5 f3 3e 4c ef 96 3e 04 51 d8 3e
       0.149538 0.47648492 0.29479444 0.4224931
0000a0 ca 0d e7 3d a5 c1 b8 3e 46 ab 13 3e 91 ac 49 3d
       0.11281927 0.3608524 0.14420804 0.049236838
0000b0 e1 c5 59 bd d5 99 1e 3e 35 b2 1e 3e fd 1a 3b 3e
       -0.053167228 0.1548837 0.15497668 0.18272014
0000c0 2a 7b 67 3e 19 ec 28 3d 9c 25 6d 3f 64 30 8c 3e
       0.22605577 0.041240785 0.9263551 0.2738067
0000d0 38 19 ad be 98 1d 07 3e 4e de 7e 3e fb 8d 3e 3e
       -0.33808303 0.13194883 0.2488949 0.18608849
0000e0 29 7f 6b 3c 70 4a fe 3d 22 10 84 3d f1 6d 69 bd
       0.014373579 0.124165416 0.064483896 -0.056989614
0000f0 96 17 80 3e 69 d8 33 bd 11 44 72 3e 30 4f 83 3e
       0.25017995 -0.043907557 0.23658778 0.25646353

features.conv3.weight f4 [64, 64, 3, 3]
000000 c0 b8 4b bc a0 dd dd bb e9 5d 82 bd 76 e6 c4 bc
       -0.012434185 -0.0067708045 -0.06365568 -0.024035674
000010 91 74 0c bd 77 6d 03 be 74 37 92 bc fc 64 7d bd
       -0.034290854 -0.12834726 -0.017848708 -0.061863884
000020 13 8b 27 bd 80 0b 96 bb ef e2 68 3d 31 42 ff bc
       -0.040904116 -0.0045790076 0.056857046 -0.031159492
000030 32 72 23 be 46 c4 bc bd 7c 02 28 be fd 3c c6 bd
       -0.15961531 -0.09217124 -0.16407198 -0.09679601
000040 18 7b e8 bd d3 f5 02 be 1a c7 30 3e 68 9b a0 3d
       -0.11351603 -0.12789087 0.17263451 0.078421414
000050 f0 49 c5 bd 15 a2 0e 3e 07 ca 83 3d 47 b5 95 bd
       -0.09633243 0.13929017 0.06435018 -0.073099665
000060 bd b6 96 3d 38 4d dc 3d 9d a2 91 bd d9 b0 61 bd
       0.07359073 0.10756916 -0.07111094 -0.055100296
000070 05 4f 0f bd eb 73 9c bc 1e aa ce 3c 13 2f 4a bd
       -0.03498747 -0.019098243 0.025227603 -0.0493613
000080 7b d9 7d bc 08 5b 47 3d c6 5c 1c bb 8b 27 ff 3c
       -0.015493746 0.0486708 -0.0023859008 0.031146785
000090 dd 55 01 3d 16 aa 5f 3d 6b 1f a2 bc 6e 90 e2 bc
       0.031576026 0.054605566 -0.019790372 -0.02765676
0000a0 42 b8 e3 3d 2a b7 d1 3d 09 aa 81 bd f1 f8 f5 bc
       0.11119129 0.10240014 -0.0633126 -0.030025931
0000b0 62 c3 2a 3d ee 12 8e 3d 28 7e 08 3e 81 95 cb 3c
       0.041690238 0.06937204 0.13329375 0.024851562
0000c0 8b c1 85 3a bf 21 41 39 26 8d d2 bd 8f f8 96 bd
       0.0010204775 0.00018418486 -0.10280828 -0.073716275
0000d0 c9 24 69 bd ad e0 39 bd 7d 63 0f bd 45 dd 5b 3c
       -0.056919847 -0.045380283 -0.03500699 0.013419454
0000e0 14 e2 50 3b 00 a5 03 bc ef f2 5b bc 42 f7 89 bd
       0.0031873034 -0.0080349445 -0.013424619 -0.06736614
0000f0 94 14 99 3d 6a 5f fd 3c d3 64 f2 bc 8d 95 fa 3c
       0.07474628 0.030929286 -0.029589092 0.03058889
000100 f7 ff 22 3c 74 86 d0 bd 25 2e 89 3d b3 0b e2 bb
       0.009948722 -0.10181895 0.066982545 -0.0068983673
000110 ad 66 52 be 82 42 03 3e 81 c2 90 bb 38 15 41 bd
       -0.2054698 0.1281834 -0.004417718 -0.047139376
000120 34 5e cf bd 62 eb b2 3c c0 cf c5 3c 2c 8c f4 bc
       -0.1012539 0.021840755 0.024146914 -0.029851995
000130 30 69 87 3d a3 8d 40 3d cc 6a 05 be 03 2d 59 3d
       0.0661186 0.047010075 -0.13029021 0.053021442
000140 c1 42 bf 3d f3 6b c5 3c aa b3 a4 3b b9 29 98 3d
       0.09338904 0.024099326 0.0050263004 0.07429833
000150 91 60 18 3d 42 59 32 bd c2 32 07 bc 10 03 3a 3c
       0.037201468 -0.043542154 -0.008251848 0.011353269
000160 d1 ab 6c 3d a2 7b a4 3c 16 41 1e be 8c bb 41 bd
       0.057781044 0.020078484 -0.15454516 -0.047298
000170 92 ad 94 be c4 dc 7b bd 22 4f 20 3e b2 41 1a bd
       -0.29038674 -0.061489835 0.15655187 -0.03766031
000180 e1 76 94 3e 31 69 58 3e 3b d7 83 3d 40 d2 13 3d
       0.28996947 0.21133877 0.06437536 0.036089182
000190 84 75 a7 3d 60 62 f6 3c 53 32 3c bb ea 6f 72 bd
       0.08176711 0.030076206 -0.002871652 -0.05918876
0001a0 b7 aa 1f bd 0c 0e 10 3d 8f ec 65 3d 2f c0 b0 bb
       -0.038981166 0.035169646 0.056133803 -0.005394004
0001b0 c1 71 78 bc 98 44 5a 3d d7 93 3e 3d c6 4d 00 be
       -0.01516384 0.053288072 0.04652771 -0.12529668
0001c0 c1 6b ba bd 0d 54 0c be 9b e7 f6 3c 4d 4a bb bc
       -0.09102584 -0.13703938 0.030139735 -0.022862578
0001d0 63 da 19 bd 6e 9b c1 bc ea b6 0b bb 0e 12 c7 3d
       -0.037561785 -0.023633685 -0.0021318742 0.097202405
0001e0 03 b5 0b 3d 61 bb 90 3d b1 c3 69 bd d2 90 fa 3c
       0.034108173 0.0706699 -0.05707139 0.030586634
0001f0 3f 7a 13 3e 8a 02 31 bd c2 6d 7c bd 2c 55 0b bd
       0.14402102 -0.043215312 -0.06162811 -0.034016773
000200 c8 8c 16 be 36 e2 c1 bd 7f 29 17 be 1a 99 42 be
       -0.14702141 -0.094669744 -0.14761923 -0.19003716
000210 a7 a9 de bd 49 61 3b be 4f e7 47 be ec 0a d5 bd
       -0.10872202 -0.1829883 -0.19521831 -0.10402474
000220 ea e9 f6 bd 06 71 dd bd a9 d0 ea bd 7b d6 2e be
       -0.12056334 -0.10812573 -0.1146558 -0.17074005
000230 99 cf 20 be 89 62 b1 bb 98 ee 59 3c 73 4e 21 be
       -0.15704192 -0.0054133576 0.013301514 -0.15752582
000240 e1 a1 90 3d 3e fb 25 bb 5d 23 29 bd fe e5 7e bd
       0.07062126 -0.0025326754 -0.04129349 -0.062231056
000250 78 1b 04 be fd bc c7 bd 25 00 9c bd 00 53 1f 3b
       -0.12901103 -0.097528435 -0.07617215 0.0024310946
000260 84 06 92 3b 47 5b eb bb cc 35 d1 bc 7f 9e 27 bd
       0.004456343 -0.007182512 -0.025538348 -0.040922638
000270 9a ce 23 be f5 fc 47 bd 35 2c d0 bd 4a 3a af 3d
       -0.15996781 -0.048825223 -0.10164682 0.0855604
000280 44 d5 05 3e ca 11 52 3c 04 a4 81 3c df db 9f bd
       0.13069636 0.012821624 0.015825279 -0.07805609
000290 b9 76 c9 3d 8c e1 d7 bd a1 cd 48 be b6 c9 6f 3b
       0.09837098 -0.105410665 -0.19609691 0.0036588735
0002a0 10 3d 20 be f6 1b 16 be 32 50 dd bc e4 ad 07 bc
       -0.15648293 -0.14659104 -0.02701578 -0.008281205
0002b0 c4 c0 70 3b c1 8e f7 3d 63 23 60 bc a0 6e b8 bd
       0.003673599 0.12087775 -0.013680312 -0.09005475
0002c0 9e ea 96 bd ed 9a ed bd 77 05 21 be 96 d8 21 be
       -0.073689684 -0.116018154 -0.15724741 -0.15805277
0002d0 fc 2c 8f 3d e6 5e 9b 3d 91 0b 92 3d cd ac f7 3b
       0.06991002 0.0758646 0.07131112 0.0075584413
0002e0 bc 53 38 bd c9 ca 9b 3d 5b a9 2b 3c 82 38 72 bd
       -0.04500173 0.076070376 0.010477389 -0.05913592
0002f0 74 4b 01 be c7 1a cd bd 08 4d 9d bd 03 33 28 be
       -0.1262644 -0.10014873 -0.07680708 -0.1642571
000300 3e f7 2f 3d b3 6c 0f bd f9 25 83 3c 74 14 a5 3c
       0.042960398 -0.035015773 0.016009318 0.020151354
000310 d2 20 a4 bd 3a 2f 53 3d 9c 71 62 3d 02 ca 0e 3d
       -0.080140725 0.05155871 0.055284128 0.03486062
000320 d0 4e 90 bd be 8f 46 3c ee a2 fa 3c 1c 87 5f be
       -0.07046282 0.012119232 0.030595269 -0.21828884
000330 f6 7e c7 3d 38 6d 3f 3c bd c2 a6 bd 1c 1e 18 bd
       0.09741013 0.011683755 -0.08142612 -0.03713809
000340 36 f3 7b bd bb e3 19 3c 6f dc 7d bd da c5 df bd
       -0.06151124 0.009392674 -0.0619778 -0.10926409
000350 d1 40 af bd e2 30 89 3d 60 98 08 bd 46 fe 7c bd
       -0.085572846 0.06698777 -0.03334844 -0.06176593
000360 ce 08 a4 bc 0f 8a 33 bd 37 ff ef bd 4d e4 87 bc
       -0.02002373 -0.043832835 -0.117186 -0.016588354
000370 1e 44 9f bd b9 e6 fd bc 6d b6 33 bd c0 1f e6 bc
       -0.07776664 -0.030993806 -0.043875147 -0.028091311
000380 1b fb 0b be a1 43 eb 3d 5c 58 26 bd 8f 36 91 3c
       -0.13670008 0.114875086 -0.04061161 0.01772621
000390 1c ea 17 be a6 a9 97 bd e1 7d 8f bd d9 be e8 3d
       -0.148354 -0.07405405 -0.07006431 0.11364526
0003a0 7a f9 5a 3d e6 14 5d bd e9 4b 04 be 18 6a 28 bd
       0.053460576 -0.05397501 -0.12919582 -0.041116804
0003b0 b0 86 b4 3d 41 a1 29 be b3 e7 b2 bd b0 e7 3a bd
       0.08814752 -0.1656542 -0.08735599 -0.04563111
0003c0 0e 0a b6 bd d6 b5 1c bd 9c a9 0a bc 96 7f 6d 3d
       -0.088886365 -0.03825935 -0.00846329 0.057983004
0003d0 c2 5a 38 bd 0c 6d bc bd fa df cf 3c 82 55 3f bc
       -0.04500843 -0.092004865 0.025375355 -0.0116781015
0003e0 3a d2 58 bd 11 b6 65 3d 61 99 a1 3d ee 9a a2 3d
       -0.052934863 0.056081835 0.07890583 0.07939707
0003f0 62 3c da bd a4 b8 70 bc 90 be 79 ba 10 b7 82 be
       -0.10656048 -0.014692459 -0.0009526992 -0.2553029

features.conv3.bias f4 [64]
000000 43 56 03 bc d6 bd 07 be 1e fb dc 3d eb 9f a1 bd
       -0.008016172 -0.1325601 0.10790084 -0.0789183
000010 76 b9 2f bd 9e b3 dc bd 70 ca 79 3d 24 e9 3d bd
       -0.04290148 -0.10776447 0.060984075 -0.04636492
000020 7d 25 99 3c 38 1f 88 bd 25 85 55 bd 21 4a 77 3c
       0.018694634 -0.066465795 -0.05212893 0.015093357
000030 0c 83 18 be 49 ff e5 bd cc 41 26 be 30 ce 3d be
       -0.1489374 -0.112303324 -0.16236037 -0.18535686
000040 89 c2 3d be d2 34 17 3d 02 cf eb bd e5 06 4a bd
       -0.1853124 0.036915608 -0.11514093 -0.04932298
000050 0d d1 42 be 0d 61 2c be 83 50 15 3d e8 bc ac 3b
       -0.19025059 -0.16833897 0.036453735 0.005271543
000060 d5 6e 50 bd 13 42 a9 bd 0d 8c a9 bd 9f dd 1d bd
       -0.050886948 -0.08264556 -0.08278666 -0.038541432
000070 b4 db f0 bc ac 85 01 3d 01 a4 f1 bc b1 6c 4f 3d
       -0.029401638 0.03162162 -0.029497148 0.050640766
000080 57 36 46 3d 93 21 43 be 1e 9b 8a 3b 8f 3b 0f be
       0.048391666 -0.19055776 0.004229917 -0.13987564
000090 79 e0 e7 3c 85 04 c9 3a 3a 9a b2 bd bc f3 20 3d
       0.02830528 0.001533643 -0.08720823 0.039294943
0000a0 9e 16 f5 bd 51 cc ff bd ea cd 36 bd 85 4c 02 bd
       -0.119672045 -0.12490142 -0.04462997 -0.031811256
0000b0 92 db 4d bd 33 aa 87 bd 0a 8f 04 be c1 78 41 bd
       -0.050258227 -0.0662426 -0.1294519 -0.0472343
0000c0 5d 1a 37 be 37 af 92 3d ec 4d 34 bd 12 5b f7 bc
       -0.1788115 0.07162326 -0.044019625 -0.030194793
0000d0 86 f5 7b bd f6 9e b9 bd 10 4b 6e bd 3c b8 37 be
       -0.061513446 -0.090635225 -0.058177054 -0.17941374
0000e0 2f 74 48 bc 05 ae 2f be da ca ff bd a9 07 dd bc
       -0.012234732 -0.17156227 -0.12489863 -0.026981192
0000f0 d7 80 86 3d 73 78 e6 bc 9b 20 48 bd 61 42 4e bd
       0.06567543 -0.028133607 -0.04885922 -0.050356273

features.prelu3.weight f4 [64]
000000 89 4a 73 3d 14 1a 01 3d a3 b3 dc 3e 02 5f 5f 3e
       0.059397254 0.03151901 0.43105802 0.21813586
000010 5b 85 66 3e 91 7d 69 3d cb 50 c1 3e 57 45 87 3d
       0.22511809 0.057004515 0.37756953 0.066050224
000020 2c d0 83 3e 0f a9 b2 3d d3 02 01 3e 0b 3d 57 3e
       0.2574476 0.087236516 0.12598734 0.2101938
000030 57 a7 8e 3e 4d 76 21 3e 90 4f 57 3e f7 c9 8e 3e
       0.27862045 0.15767784 0.21026444 0.27888462
000040 13 ec 73 3e be 71 be 3e 1b fd 82 3e df 05 4d 3e
       0.23820524 0.37196153 0.2558373 0.20021771
000050 9e 27 0e 3e 8d 00 85 3e 61 25 19 3d 51 0e c7 3e
       0.138823 0.25976983 0.037389163 0.3887811
000060 cd 5d 4b 3e 34 20 c6 3d 72 03 9f 3d 3d 32 50 3e
       0.19860001 0.09674111 0.07764329 0.20331664
000070 88 2b ae 3d f7 65 67 3e e7 0e 8b 3d f0 66 52 3d
       0.08504397 0.2259749 0.06789952 0.0513677
000080 9c 50 36 3e 06 f4 8a 3e 3d f4 bb 3d 9b 76 50 3e
       0.17804188 0.271393 0.09177444 0.20357744
000090 c9 02 82 3e 8d 54 45 3e bb ee 81 3e c1 44 21 3a
       0.2539275 0.19270535 0.2537745 0.0006151908
0000a0 02 23 5d 3e 57 1b 32 3e f9 49 cf 3d 9d b1 da 3d
       0.21595386 0.17393242 0.10121531 0.10678408
0000b0 22 d5 64 3e 24 31 3a 3e b0 12 cb 3e b5 05 8b 3e
       0.22346929 0.18182808 0.39662695 0.27152792
0000c0 92 8f a8 3e 27 6d 8b 3e fd 5d 4d 3d aa d9 b0 3e
       0.32922035 0.27231714 0.050138462 0.34541065
0000d0 23 76 6d 3e ca 1c 67 3d 9c 35 3d 3e ad 2e 96 3e
       0.23189597 0.05642394 0.18477482 0.29332486
0000e0 f1 f3 1e 3e a4 35 ad 3d da da d2 3d 00 de 61 3d
       0.15522744 0.08457497 0.10295649 0.055143356
0000f0 e0 96 14 3e 2e 9e 82 3e d3 c5 1c 3e fe 08 7a 3e
       0.14510679 0.25511307 0.15309839 0.24417493

features.conv4.weight f4 [128, 64, 2, 2]
000000 f0 51 9f 3c 01 5f 5c bc 4a 5e ae bd bd 13 a7 be
       0.01944825 -0.013450385 -0.08514078 -0.32632247
000010 1d ea d1 3c 3d 3d ba 3c 35 97 d4 bc f2 af 4c bd
       0.02562433 0.022734279 -0.025951007 -0.049972482
000020 34 2f e6 3b ed 54 a1 bd 85 0d 8f 3d 42 af af 3c
       0.00702467 -0.078775264 0.069850005 0.021445874
000030 50 57 7b bc ed 5b d4 bc 8d e9 cc bd b8 5d 5c bd
       -0.015340641 -0.02592274 -0.10005484 -0.053800315
000040 ec 08 ad bd 7d aa 33 be c0 d3 2b be 65 df 48 be
       -0.08448967 -0.17545505 -0.16779995 -0.19616468
000050 eb a7 85 3d ff 93 47 3b bd 6e 17 3e 8a 60 fb 3d
       0.065261684 0.0030453203 0.14788337 0.12274273
000060 6a 57 90 bd 00 9f 53 bd c9 1e 08 be 10 1c 00 3e
       -0.07047923 -0.051665306 -0.13292994 0.12510705
000070 bf 8f ab 3c 4b 73 91 bc c5 c6 04 3e 78 91 a7 3d
       0.020942567 -0.017755171 0.1296645 0.08182043
000080 df 33 52 3e 6e 33 78 3d 9e 72 24 3d e8 d5 73 bd
       0.205276 0.060595922 0.04014837 -0.05953017
000090 8f f9 8a bc 1d 6c e8 3d 48 69 f8 3c 59 0c 0f 3e
       -0.016964702 0.11348746 0.03032364 0.13969554
0000a0 f6 9b 94 3d 90 0a 81 3b 3c 1c a4 bc fc 17 07 be
       0.0725631 0.0039380267 -0.020032994 -0.13192743
0000b0 93 42 b0 bc a8 80 4b 3d 62 fc 9a 3d e8 fd ab 3d
       -0.02151612 0.049683243 0.075676695 0.08398038
0000c0 7e 2b 6c 3e 73 a3 67 3e 93 86 e7 3d 55 bb 29 bd
       0.23063466 0.22620945 0.11304965 -0.04143842
0000d0 c4 2c 27 3e fe a8 98 3e a3 35 62 3e 41 69 47 3d
       0.1632567 0.2981643 0.22090773 0.048684362
0000e0 d7 f5 07 3e 57 4a 48 3e 48 7f 20 3d 5f 91 6f 3e
       0.13277374 0.19559608 0.039183885 0.23395298
0000f0 2c a3 81 bd c9 6c 21 bd 01 ab 1b be 02 8b 65 3d
       -0.06329951 -0.039410386 -0.15201952 0.05604077
000100 a8 ed f7 bc a7 a1 41 be 81 30 4e bb 17 ae 60 be
       -0.03026469 -0.18909322 -0.0031462016 -0.2194141
000110 8c 28 26 be 74 5f 32 be 29 9f 9a bd cb ca ca bd
       -0.16226405 -0.17419225 -0.07549889 -0.09901961
000120 8e 4f 81 bd 6a 2d 42 bd 43 82 9e 3d 1d 52 11 3c
       -0.06314002 -0.04740659 0.07739689 0.008869675
000130 24 95 5d bd eb 63 a3 3d df ce 3c 3d b9 0a 2d bd
       -0.05409731 0.07978042 0.046095725 -0.042246554
000140 d2 37 20 bd 58 22 bd 3d 78 44 30 3c ea f2 cd bc
       -0.039115734 0.09235066 0.010758512 -0.025140245
000150 2a f9 44 3d e6 61 08 3d 4e 42 25 bd 9e d8 47 bd
       0.048089184 0.03329649 -0.040346436 -0.048790567
000160 8f 14 ae 3d 6a b7 ac 3d 8a 7d eb 3c 96 08 89 3d
       0.08500015 0.08433421 0.028746385 0.06691091
000170 06 34 55 bd 27 f5 f1 bc 41 5f 0a be 7d 5b 5a 3c
       -0.052051567 -0.029535843 -0.13512899 0.013327477
000180 6b 07 1a 3d 52 0b 7a bd cf ef 63 3e db 26 00 bd
       0.03760473 -0.061045952 0.22259448 -0.031287055
000190 65 63 91 bd 10 44 c4 bd aa 58 b0 bd 04 dc 2c 3d
       -0.07099036 -0.095832944 -0.08610661 0.04220201
0001a0 72 ea 40 bc 31 38 d1 bd a1 4b c4 bd 69 c2 12 bc
       -0.011774646 -0.10215796 -0.095847376 -0.008957484
0001b0 b7 5b 6a bd e2 74 01 be 31 79 e3 bd d9 2c cc bd
       -0.057216372 -0.12642244 -0.111071 -0.099694915
0001c0 cd 4e 3c 3e ac 48 d8 3d 43 ca 69 3c 34 87 a5 bd
       0.18389435 0.10560736 0.014269414 -0.080824286
0001d0 e1 17 08 3d 5d b4 2b be 66 b8 33 be e4 a6 64 be
       0.033225898 -0.16768022 -0.17550811 -0.22329289
0001e0 9c 6f 7f 3b b5 db 4e 3d 6e f3 65 3c e9 22 ea b9
       0.0038976436 0.050502498 0.014035089 -0.00044657968
0001f0 28 92 2c 3e 81 7f 2f 3e 10 02 35 bd ed 20 48 3e
       0.16852629 0.17138483 -0.04419142 0.1954381
000200 2d 94 3e 3e 67 77 00 3e db 1d 6f 3d 7b cf 3f 3d
       0.18611212 0.12545548 0.05837808 0.04682873
000210 a8 ca 2b 3e 66 fb bf 3d 39 8e ea 3d 82 2c 06 3e
       0.16776526 0.09374122 0.11452908 0.13102916
000220 81 27 8a bd 0d 12 1d be d4 bf 16 be bc 98 65 be
       -0.06745816 -0.15338917 -0.14721614 -0.22421545
000230 5a b4 ca ba 38 d9 bf 3c f8 b3 24 be 0f 6e 05 bb
       -0.0015465126 0.023419008 -0.16084278 -0.002035979
000240 3a 72 2e be 24 e9 80 3d 53 55 30 be 4e d9 27 3c
       -0.17035761 0.06294468 -0.17220049 0.010244681
000250 49 c1 dc bd b0 ea 4d be fd bc ba 3d db 59 61 bd
       -0.10779054 -0.20109057 0.09118078 -0.055017333
000260 90 11 57 3c 26 b9 34 be a0 31 97 bd 81 72 6f bd
       0.013126746 -0.17648754 -0.07382512 -0.05845881
000270 29 98 1a 3e f5 a6 88 3e 03 50 a5 3b 8b 8d 0d 3e
       0.15097107 0.26689878 0.0050449385 0.13823526
000280 66 37 96 3d 3b 18 79 bc bc 4b 54 3e 6f 50 15 3e
       0.07334785 -0.015203531 0.20732015 0.14581464
000290 d5 ca 9a 3d c0 4e 36 3d 40 4f 7a 3d 13 29 c2 3d
       0.075582184 0.044508696 0.061110735 0.094804905
0002a0 8e 94 7b 3d e7 c8 2c 3e a8 4d b5 3d 49 37 9b 3e
       0.06142097 0.16873513 0.088527024 0.30315617
0002b0 4c 3f f9 bd 48 e0 0a be d0 19 93 bd 24 9b 3e be
       -0.12170276 -0.13562119 -0.07182658 -0.18613869
0002c0 9a bf 00 be 77 ea 09 3b 56 96 52 be 5d 50 21 be
       -0.1257309 0.0021044293 -0.20565161 -0.15753312
0002d0 bb 32 59 3d b1 9e 4d 3d 84 7b 02 3e 51 15 12 3e
       0.053026896 0.050200168 0.1274243 0.14265944
0002e0 9a 8f 43 3e 19 95 b5 3d 5b 99 d0 3d fc cd 84 3d
       0.19097748 0.08866329 0.101855 0.06484601
0002f0 a5 13 15 3e b3 79 5f bd dc c1 95 3d 04 1f 1f 3e
       0.14558275 -0.05455942 0.07312366 0.15539175
000300 cb 77 ab 3d e2 41 e5 3d 43 47 34 3d 12 21 8f 3c
       0.08372458 0.11194207 0.044013273 0.017471824
000310 92 1a 32 3d c5 65 7b 3d 85 bc 4b 3d 06 80 51 3d
       0.04348237 0.061376352 0.049740333 0.051147483
000320 18 7a 39 3e 72 73 3d 3e 3f d0 b9 3c cc 3e ab 3d
       0.18112981 0.1850107 0.022682307 0.08361587
000330 2b 07 b3 3a 47 6c ac 3d 0c 7d 1d bd d2 f3 a7 bd
       0.0013658752 0.0841909 -0.038449332 -0.08200802
000340 b5 35 a5 bc e0 cc ee 3d 37 10 57 bd 4f 78 40 3d
       -0.020167211 0.116601706 -0.052505698 0.046989735
000350 81 9a d4 3d 46 85 30 3e 07 c4 96 3d 1c 54 fc 3d
       0.10381032 0.1723834 0.07361608 0.1232073
000360 74 f3 06 3e 89 c6 76 3c aa 91 67 3d 42 b0 64 bc
       0.13178807 0.015061983 0.0565354 -0.013958039
000370 48 ef 2d 3e 25 12 14 3e 52 1c fe 3d 81 ad c7 3d
       0.1698581 0.14460047 0.124077454 0.0974989
000380 76 3e 25 be d0 47 03 be fc 70 da bc f8 cd 77 be
       -0.16137108 -0.12820363 -0.026665203 -0.24199665
000390 1b ca 19 3d 83 07 51 3d f0 fb 66 3d 09 6e 23 bd
       0.03754626 0.051032554 0.05639261 -0.03989986
0003a0 4f d9 9d 3e 1b 36 3a 3e f9 f1 3a 3e c9 8c 62 3e
       0.30829856 0.18184702 0.18256368 0.22124018
0003b0 c3 1c 12 3e 36 31 4d 3d 53 88 84 3d ea 00 a6 3d
       0.14268784 0.05009576 0.06471314 0.08105643
0003c0 7b d1 02 3d 6b e1 5e bd 71 57 80 bd 24 45 4e 3c
       0.031938057 -0.054414194 -0.06266678 0.012589727
0003d0 83 58 16 be 45 55 23 be fe 63 58 bc 92 b3 29 bd
       -0.14682202 -0.15950496 -0.013207434 -0.041431017
0003e0 fb 90 9d bd ba 12 8b 3d 45 2a c6 bd 4f 4b 0a be
       -0.076936685 0.06790681 -0.09676031 -0.1350529
0003f0 73 d1 c7 3c 3e 20 a9 bd 66 e9 e0 bd 5a 8a 2b be
       0.024391865 -0.08258103 -0.10982017 -0.16751996

features.conv4.bias f4 [128]
000000 b6 a1 19 be 0d 55 fb bd 28 ce aa bc 44 81 6a bd
       -0.15003094 -0.122720815 -0.020850256 -0.057252184
000010 6e 5b 30 bc 9e 57 1f bd 07 06 1b be 1d e4 c9 3d
       -0.010763986 -0.038901918 -0.15139018 0.09857962
000020 49 d2 c0 bd 88 0e 7f bd 8e f8 f2 bc 8d 20 5a 3c
       -0.09415109 -0.062269717 -0.029659536 0.013313425
000030 f8 5f d0 bd b8 10 ac bd 2a 0f 89 3d cf db 0a bd
       -0.101745546 -0.08401626 0.066923454 -0.033901032
000040 ad 7d 8b bd 08 fe 9f be 79 64 ca bd bd 7d 45 bd
       -0.0681108 -0.31248498 -0.09882445 -0.048215616
000050 c9 ef 94 be 6c 7a e7 bd 6b 1d 04 bd 0f 07 5a be
       -0.29089192 -0.11302647 -0.032254618 -0.21291755
000060 e1 53 fd 3b c1 d3 35 be 08 c1 2a be 5b bf c6 bd
       0.0077309464 -0.17756559 -0.16675198 -0.09704467
000070 e2 b0 bb bd 70 ba 04 be 1e 4e 17 be a0 a4 30 be
       -0.09164597 -0.12961745 -0.14775893 -0.172503
000080 62 b1 ed bd 64 21 2f be ed f1 0b be a9 2c 12 be
       -0.11606099 -0.17102581 -0.13666506 -0.14274849
000090 72 c6 15 be d3 84 8a bd 0e 9d 0f bd 8a 35 8e 3c
       -0.14626482 -0.067636155 -0.03506189 0.017359514
0000a0 31 e0 01 be d7 10 db bd 56 03 f6 bd 87 90 97 bd
       -0.12683178 -0.10696571 -0.12012355 -0.07400613
0000b0 57 f5 95 bd 54 c7 8b bd 44 e3 1d be d2 7f c9 bd
       -0.073221855 -0.06825128 -0.15418726 -0.09838833
0000c0 34 ff 35 bd 45 de 10 be f4 70 0b be 04 b6 88 bc
       -0.044432834 -0.14147289 -0.13617307 -0.016688354
0000d0 c0 ca ae 3d ea 38 7a bd 21 27 02 be b1 ba e0 bd
       0.08534765 -0.061089434 -0.12710239 -0.109731086
0000e0 ca ab 8f bb 02 1c 22 be 69 da 5c bd c2 f5 5d bd
       -0.0043844925 -0.15830997 -0.05391923 -0.05418945
0000f0 a2 73 67 bd 09 76 43 bd 8d 0e c5 3c 2d d7 f9 bd
       -0.05650676 -0.04771999 0.02405479 -0.12199245
000100 ce bf e6 bc d6 a0 60 bd 8c 89 a2 bd 63 1b dd bd
       -0.028167631 -0.054840885 -0.07936391 -0.10796239
000110 8c e0 95 bd 93 3c fc 3c 65 72 c5 bd 3c ee f7 bd
       -0.073182195 0.030790603 -0.0964096 -0.121059865
000120 e7 76 c1 bd 46 55 00 be 20 91 99 3c 3f 68 91 bd
       -0.09446507 -0.12532529 0.018745959 -0.070999615
000130 eb b5 94 bd 92 7a 9d bd e1 16 fd bd 6e a6 ca ba
       -0.072612606 -0.07689394 -0.123578794 -0.0015460977
000140 02 44 16 bc 18 9d 9a bd 98 c8 c9 3d 27 b4 34 bc
       -0.009171488 -0.075494945 0.09852713 -0.01102928
000150 dd 81 96 bd 63 59 07 3e 9b fa 8c bb d2 49 68 be
       -0.07348988 0.13217692 -0.0043023354 -0.2268441
000160 83 76 b6 3c 02 0a 09 be 3d 2a df bd ee ac e4 3d
       0.022273308 -0.13382724 -0.10896728 0.11165796
000170 e6 92 07 be a7 c7 ee bc 2e 08 09 bd 08 a8 40 bd
       -0.13239631 -0.029147936 -0.033455066 -0.047035247
000180 c0 ba 06 be 51 ca 4e be d8 04 ec bd 5d 77 37 be
       -0.13157177 -0.20194365 -0.11524361 -0.17916627
000190 fd da 15 be 3b 40 fd bc ae 84 48 be 5f 23 9e be
       -0.14634319 -0.030914417 -0.19581863 -0.3088636
0001a0 9e e1 35 be bd 2b 58 bd 5b bc c6 bd b8 d3 69 bd
       -0.17761847 -0.052776087 -0.09703895 -0.057086676
0001b0 86 58 3b be 5e 85 e5 bc fa 76 23 be 59 8b 41 be
       -0.18295488 -0.028017696 -0.15963355 -0.18900813
0001c0 d7 b6 03 bc 1f ea 88 be bf 73 2c be 5c 8d 65 3d
       -0.008039198 -0.2674112 -0.16841029 0.056043014
0001d0 cf 85 60 bd 4e c9 c4 bc 65 57 31 3d e6 18 89 bd
       -0.05481511 -0.02402177 0.043296237 -0.06694202
0001e0 39 a6 94 bd b2 1c 17 be 6e 32 94 bd 17 f8 07 be
       -0.07258267 -0.1475704 -0.07236181 -0.13278233
0001f0 4c 7c 1c 3e 44 f0 38 bd 3d 97 40 bd 4b 3f b0 bd
       0.1528179 -0.04515101 -0.047019232 -0.08605822

features.prelu4.weight f4 [128]
000000 b6 81 0f 3d 3c 96 49 bc 8b aa 5c 3e 90 ff 40 3e
       0.03503581 -0.012303885 0.21549432 0.1884749
000010 0d 6c 81 3e 37 3b f0 3d c6 75 1e bd 85 97 46 3e
       0.2527775 0.11730044 -0.038686536 0.19393738
000020 2a 13 b7 3b a6 05 e9 3c 11 02 33 3b 29 0c 1e 3d
       0.0055870013 0.028445076 0.0027314464 0.038585816
000030 44 ab 8f 3d 8d 6c f8 bc b5 00 c3 3c 97 0c 36 bd
       0.07015088 -0.030325199 0.023804048 -0.0444456
000040 f6 00 94 bd 1c 02 16 be 6f 11 1e bd 8b 4e 26 3e
       -0.07226746 -0.14649242 -0.038590845 0.162409
000050 fd e5 83 3d 2b e5 49 bd b3 78 01 3d 20 59 0f 3e
       0.06440351 -0.049290817 0.03160925 0.13998842
000060 63 f9 22 bd 43 b7 28 3d 1d 0d f3 bd 4f c9 07 3c
       -0.039788615 0.041190397 -0.118677355 0.008287742
000070 b9 b6 49 3c 4b 51 1f 3c 01 ad a1 bd c9 ad cc bc
       0.012311631 0.009723972 -0.07894326 -0.024985211
000080 0c 3a 4b bc 80 ba b6 bc 9d c9 50 3d 20 cb e1 3b
       -0.012403976 -0.022305727 0.050973523 0.0068906695
000090 8d c3 e2 bd 7d 5a b4 3d a8 e5 a4 bd 9e d6 12 bd
       -0.110724546 0.08806322 -0.08051616 -0.035849206
0000a0 19 b8 f0 ba 96 56 45 3c 40 69 fc bc fa 6e 1a bd
       -0.0018365412 0.0120445695 -0.030811906 -0.03770349
0000b0 f3 ff c1 3d 78 aa ce 3d f8 f5 13 3c 9b 01 33 bd
       0.094726466 0.10091108 0.0090308115 -0.043702703
0000c0 3a 6e 34 3d 89 32 d6 bc c4 85 3c bd a2 43 91 bc
       0.044050433 -0.026147144 -0.046026006 -0.017732445
0000d0 cd dc 09 3e c9 7a 8c 3c b2 74 32 bd e7 dc 1d bd
       0.13463135 0.017148392 -0.04356832 -0.038540747
0000e0 65 98 ea 3d 67 7e a5 3d 22 8d d3 3c 8e 6a 66 3d
       0.11454848 0.0808075 0.025824133 0.056253962
0000f0 07 40 54 bc 44 d5 be bc 0c 0d fa 3d e7 ca d4 3d
       -0.012954718 -0.023295052 0.1220952 0.10390263
000100 56 ef 86 3c 2e 01 da 3d f8 69 8d bc 1c 3e bc b9
       0.016471546 0.10644756 -0.017262444 -0.0003590443
000110 e8 03 72 3d fb 87 21 3e 64 d0 5e 3d fe 19 a1 3c
       0.059085757 0.15774529 0.054397956 0.019665714
000120 51 a7 de 3d df 57 ee bd c1 dc cd bc 70 f0 ca bc
       0.10871757 -0.11637854 -0.025129678 -0.024772853
000130 e4 4f 11 bc 61 ee 8f bd a0 7e a1 3d 9e 0b 14 3d
       -0.008869145 -0.07027889 0.0788548 0.03614389
000140 5e 94 9f 3d 44 bc 09 3e f8 15 e3 3d c3 f5 aa bc
       0.07791971 0.13450724 0.110881746 -0.020869141
000150 22 03 aa 3d 97 6c 87 be c7 33 89 bc 58 d4 27 3d
       0.08301379 -0.26450035 -0.016748322 0.04097399
000160 63 c8 9f 3c 60 a3 8a 3c 05 1f 25 3c b4 6b 98 3d
       0.019504732 0.016923606 0.010078196 0.07442418
000170 03 d1 01 3d 44 6f 28 3e c1 9f b0 3d 01 0c 0b bb
       0.03169347 0.16448694 0.08624221 -0.0021216872
000180 3c 3e 0c bc 8f da a2 bd b3 a4 9b 3c 2b 32 0e 3d
       -0.00855976 -0.07951843 0.018999433 0.034715813
000190 47 c1 ce bd f4 53 4a 3c 0a 2c 5d bd 63 9d 27 be
       -0.100954585 0.012349118 -0.053997077 -0.16368632
0001a0 e0 40 46 bc b6 13 0f bd 5f a7 48 3e 71 f4 f8 bd
       -0.012100428 -0.034930907 0.19595097 -0.121559985
0001b0 5c b1 c8 3d b8 35 51 3d d3 74 bb 3d ac 9b 9c bd
       0.097994536 0.05107662 0.09153142 -0.076468796
0001c0 81 57 33 3d 8e d2 00 3e 91 da 5c bb 20 15 66 3d
       0.043784622 0.1258032 -0.0033699612 0.05617249
0001d0 bc 42 d4 bc 30 91 f5 3c e3 a0 f9 3d 0a b8 41 bd
       -0.025910728 0.029976457 0.1218889 -0.047294654
0001e0 e6 b4 3a bc 40 2f 78 bd 16 8d e6 3c e9 77 64 3e
       -0.011395669 -0.060591936 0.028143447 0.22311367
0001f0 82 fc 81 3e 29 09 5b 3c 9c 40 4a 3c 76 f9 40 3e
       0.2538796 0.013368883 0.012344506 0.18845162
