pretrained_weights/mtcnn/best_onet.pth (torch_old, 904431 bytes, 21 tensors)

features.conv1.weight f4 [32, 3, 3, 3]
0	0x3e265ab3	0.16245537
1	0x3daf314f	0.08554327
2	0xbe10ca87	-0.14139758
3	0x3d9b36fd	0.075788476
4	0xbe57e991	-0.21085192
5	0xbd99a5ef	-0.075023524
6	0xbe770f81	-0.24127008
7	0xbe6f65a1	-0.23378612
8	0xbe2d039f	-0.16895913
9	0x3db50f9e	0.08840869
10	0x3cbb2902	0.022846702
11	0x3d102fbb	0.03520177
12	0x3c96727b	0.018365135
13	0x3d96424f	0.07336866
14	0xbe765c94	-0.24058753
15	0xbcd05c89	-0.02543475
16	0x3de20a3f	0.110371105
17	0xbd779b2d	-0.06045072
18	0x3e03d986	0.12875947
19	0xbd6035a7	-0.054738667
20	0x3ba982d9	0.005173069
21	0xbe293e27	-0.16527615
22	0xbc81600d	-0.01579287
23	0x3ccc8797	0.024966998
24	0x3daa4b4f	0.08315145
25	0x3dc83da2	0.097773805
26	0xb9eb9151	-0.00044930962
27	0xbde202f6	-0.11035721
28	0x3e0e680b	0.13906877
29	0xbd64c3b6	-0.055850707
30	0xbe3b6596	-0.1830047
31	0xbe1e5907	-0.15463649
32	0x3ce35292	0.027749334
33	0x3d5b6b55	0.053569157
34	0xbe7cc0a7	-0.24682866
35	0xbe7b0818	-0.24514806
36	0x3e20679d	0.15664525
37	0x3d771054	0.060318306
38	0x3de11d18	0.10991877
39	0xbe318686	-0.17336473
40	0x3dcc9a5d	0.0999038
41	0xbde0b94c	-0.109728426
42	0x3d954800	0.072891235
43	0x3db91c11	0.09038556
44	0x3e77c5ab	0.24196498
45	0xbe2ba15e	-0.16760775
46	0x3e070be6	0.13188133
47	0xbd4b0de0	-0.04957378
48	0xbe0cc346	-0.13746366
49	0xbe28c1a0	-0.16480112
50	0x3dade148	0.084902346
51	0x3e6c620d	0.23084278
52	0x3dfa22ae	0.12213646
53	0x3d756243	0.059908163
54	0xbe2d89ab	-0.16947047
55	0xbbabb3d1	-0.0052399416
56	0x3cfd214d	0.030899668
57	0xbce87f52	-0.028381024
58	0xbc946a92	-0.018117223
59	0x3df6be81	0.120480545
60	0x3e13be75	0.14428122
61	0xbe209165	-0.15680464
62	0x3b4a4592	0.003086422
63	0xbe34bdf7	-0.17650591
64	0x3d2d4b72	0.04230828
65	0x3e0ed2fe	0.13947675
66	0x3d91edfc	0.0712547
67	0x3e195f75	0.1497782
68	0x3e1b28ed	0.1515233
69	0xbda8c5f4	-0.082408816
70	0x3ce25091	0.027626308
71	0xbdb9932c	-0.09061274
72	0xbd4e1340	-0.050311327
73	0x3d929a60	0.07158351
74	0x3ddb93ad	0.10721526
75	0x3d06efa5	0.032943387
76	0xbdd0ac8f	-0.10189163
77	0xbe421d35	-0.18956454
78	0x3e13d479	0.1443652
79	0x3ca9c097	0.020721717
80	0x3b375927	0.0027976723
81	0xbdfe0f95	-0.12405316
82	0x3cf6b36e	0.030114856
83	0xbcfa89c7	-0.030583275
84	0x3e796344	0.24354273
85	0x3d8d6dda	0.06905718
86	0xbdc2429e	-0.094853625
87	0x3dafe65a	0.08588858
88	0x3d2a7dca	0.041623868
89	0xbc675f3d	-0.014121828
90	0xbca1f25b	-0.019768884
91	0xbdcce006	-0.100036666
92	0xbe5fd18a	-0.21857277
93	0xbdce27b3	-0.10066166
94	0xbdec80c8	-0.115480006
95	0xbdafd6da	-0.085859016
96	0x3e9c1755	0.3048655
97	0x3e256b78	0.16154277
98	0xbd7c3a62	-0.061579116
99	0x3c42ead0	0.011896804
100	0xbe13486d	-0.14383097
101	0xbdbe7d00	-0.093011856
102	0xbe096973	-0.13419132
103	0xbe02abdd	-0.12760873
104	0x3e1360ed	0.14392443
105	0x3e786f45	0.24261196
106	0x3e0865ca	0.1332008
107	0x3e10d76c	0.14144677
108	0xbd410abb	-0.047129374
109	0xbdca5095	-0.09878651
110	0xbce52915	-0.027973691
111	0x3ca90864	0.020633884
112	0xbe88c019	-0.2670906
113	0xbe3fc951	-0.1872914
114	0x3c3fdab4	0.011709858
115	0xbe3ee5d4	-0.1864236
116	0xbca1ed5e	-0.019766506
117	0xbc835455	-0.016031424
118	0xbd9ba3d0	-0.07599604
119	0xbdeb5b8d	-0.11492071
120	0xbd6aafbd	-0.057296503
121	0x3e524cb8	0.20537078
122	0x3d2c4f8c	0.04206805
123	0x3e0bfcff	0.13670729
124	0x3e00a35a	0.12562314
125	0xbe1ba0e9	-0.15198101
126	0x3c896f04	0.01677657
127	0x3e2fccff	0.17168044
128	0x3e338dd6	0.17534575
129	0x3b957b98	0.0045618527
130	0x3e0e3118	0.13885915
131	0x3d2d6372	0.042331167
132	0xbe62ab45	-0.22135647
133	0x3ddc5cb5	0.1075987
134	0x3da7512d	0.0816978
135	0x3e526945	0.2054797
136	0xbd026578	-0.03183505
137	0x3dde5c16	0.10857408
138	0xbd8dcd25	-0.06923894
139	0x3e7568d4	0.2396577
140	0xbd188898	-0.03723964
141	0x3d282663	0.041052233
142	0x3e70f9fd	0.23532863
143	0x3c0c0fab	0.008548657
144	0xbdbac476	-0.09119503
145	0x3dafc48c	0.0858241
146	0xbd2ef15e	-0.042710654
147	0xbd4178f8	-0.047234505
148	0xbdbd6ff3	-0.09249868
149	0x3d72f0d1	0.05931169
150	0xbbf1dae8	-0.007380832
151	0xbdca17e4	-0.09867838
152	0xbd824787	-0.06361299
153	0xbdf7cbe2	-0.120994344
154	0xbdd217e1	-0.10258461
155	0x3e79df84	0.2440167
156	0xbd77df3c	-0.060515627
157	0x3d9806d6	0.07423179
158	0x3da2442f	0.07923161
159	0xbc740d18	-0.0148957
160	0x3e1dd142	0.15411857
161	0xbd2fabee	-0.042888574
162	0xbe52bd63	-0.20580058
163	0xbd969059	-0.07351751
164	0xbd280e01	-0.04102898
165	0x3d53c067	0.05169716
166	0xbe33af62	-0.17547372
167	0xbd65c903	-0.056099903
168	0xbe1e6783	-0.15469174
169	0x3d6f7ad7	0.05846676
170	0xbc072e3b	-0.008250768
171	0x3dba17a0	0.09086537
172	0x3cdd90e9	0.027046638
173	0x3e13fbc1	0.14451505
174	0xbd7b9b8c	-0.061427638
175	0xbcf6b078	-0.030113444
176	0x3d8a9924	0.067674905
177	0xbe563fde	-0.20922801
178	0xbc8eee85	-0.01744772
179	0x3d9d4755	0.07679621
180	0x3e18249d	0.14857717
181	0x3d931b6a	0.07182963
182	0x3c93ab02	0.018025879
183	0x3e3550a8	0.17706549
184	0xbcb48c47	-0.022039546
185	0xbd722b66	-0.05912342
186	0x3e129515	0.14314683
187	0x3d955826	0.072922036
188	0xbdb1c217	-0.08679598
189	0xbe29adf9	-0.16570272
190	0xbca5c039	-0.02023326
191	0xbc0d4acd	-0.008623791
192	0xbdcae867	-0.099076085
193	0xbdafbcbb	-0.08580919
194	0xbd8826b3	-0.06648006
195	0x3e3b664a	0.18300739
196	0xbd3a7104	-0.045517936
197	0x3e39d91b	0.18149225
198	0x3e04c9d7	0.12967621
199	0xbdfc0fa6	-0.12307672
200	0x3e2c0f3f	0.16802691
201	0xbdadc537	-0.08484881
202	0xbdefa637	-0.11701625
203	0x3e823fd8	0.25439334
204	0xbe4b768a	-0.19869438
205	0x3e440424	0.19142205
206	0x3d5e2018	0.054229826
207	0xbe4c93ac	-0.19978207
208	0xbcb0d27e	-0.021584745
209	0x3e387e5a	0.1801695
210	0xbe0ad4b5	-0.13557704
211	0xbe223648	-0.15841019
212	0x3c6f28b6	0.014597109
213	0xbdca460a	-0.0987664
214	0x3e2f58bb	0.17123692
215	0x3e4bc782	0.19900325
216	0xbe154d0e	-0.14580175
217	0x3bd4fb44	0.0064996798
218	0x3d9ce2c0	0.07660437
219	0xbc8407a3	-0.016116923
220	0xbe786507	-0.24257289
221	0xbacabab5	-0.001546702
222	0xbdfc744f	-0.123268716
223	0xbe250877	-0.1611651
224	0x3da75d48	0.08172089
225	0x3d6423dc	0.05569826
226	0x3db4a565	0.08820609
227	0x3e37dec1	0.17956068
228	0xbc163190	-0.00916709
229	0x3d22e804	0.03977205
230	0xbc9fe400	-0.019517899
231	0x3d5e9c39	0.054348204
232	0x3e805280	0.25062943
233	0xbe00e2c8	-0.1258651
234	0xbd22fd76	-0.0397925
235	0x3d579533	0.05263252
236	0xbde9ccfc	-0.11416051
237	0xbc003fb8	-0.007827692
238	0xb9c585c4	-0.0003767443
239	0xbde7d83d	-0.11320541
240	0xbc90a8b1	-0.017658563
241	0x3e80052b	0.25003943
242	0x3de72123	0.11285617
243	0xbdc800ca	-0.097657755
244	0x3d394b7b	0.045238
245	0xbe098eb9	-0.1343335
246	0x3e1a7283	0.15082745
247	0xbd7c7e97	-0.061644163
248	0x3c9bbfd6	0.019012373
249	0xbd673883	-0.05645038
250	0x3e582cfe	0.21110913
251	0xbdb1c08b	-0.08679303
252	0xbe14d203	-0.14533238
253	0x3d9e539f	0.07730793
254	0xba715866	-0.0009206593
255	0xbc1b76f4	-0.00948881

features.conv1.bias f4 [32]
0	0x3d2cc628	0.042181164
1	0x3dc84021	0.097778566
2	0xbde0178e	-0.10941993
3	0xbe04de0a	-0.12975326
4	0xbd21bd73	-0.039487313
5	0xbe3ef255	-0.1864713
6	0x3d398834	0.04529591
7	0xbbb78051	-0.0056000133
8	0x3d4bca80	0.049753666
9	0xbe483d16	-0.19554552
10	0x3e7f7bfb	0.24949639
11	0x3d9d2da2	0.076747194
12	0xbe4909e7	-0.19632684
13	0xbdb2aab5	-0.08723966
14	0xbdae85ec	-0.08521637
15	0xbe8ebfe6	-0.27880782
16	0xbcbd4402	-0.023103718
17	0xbda89045	-0.08230642
18	0x3d2c0bed	0.04200356
19	0x3d7df9b7	0.062005725
20	0x3de204fd	0.11036108
21	0xbe0c5ae6	-0.1370655
22	0x3c738b2c	0.014864724
23	0xbb8a03b7	-0.0042118686
24	0x3b1ea81b	0.0024209085
25	0xbc82a13f	-0.015946029
26	0xbe80a58a	-0.25126296
27	0x3d2207da	0.03955827
28	0xbcf0508e	-0.029335286
29	0xbd62164e	-0.055197053
30	0xbc5769c8	-0.013147779
31	0xbde499c5	-0.11162142

features.prelu1.weight f4 [32]
0	0x3f41d1d7	0.75710815
1	0x3ec44d56	0.38340253
2	0x3e7db3e5	0.24775656
3	0x3e8238a4	0.25433838
4	0x3e8afc58	0.27145648
5	0x3eed1d32	0.46311337
6	0xbe822cc7	-0.25424787
7	0x3edfeb4c	0.43734205
8	0x3e329b07	0.1744195
9	0x3d64a981	0.055825714
10	0x3e1de4d9	0.1541933
11	0x3e98b0ec	0.2982248
12	0x3e5cdc4c	0.21568412
13	0x3e343395	0.17597802
14	0x3ebda9fa	0.37043744
15	0x3e0b3f56	0.1359838
16	0x3d8f048b	0.069832884
17	0x3ebd6da1	0.36997703
18	0x3ee744d4	0.451697
19	0x3ceed15c	0.029152565
20	0x3e8aeccd	0.2713379
21	0x3eddc793	0.43316326
22	0x3ec863c5	0.39138618
23	0x3d66a109	0.05630592
24	0x3ddd398b	0.10801991
25	0x3dd7cb1f	0.10536789
26	0x3f0154a4	0.50519776
27	0x3e2729b5	0.16324504
28	0x3f3f37a8	0.746943
29	0x3e2144a2	0.15748838
30	0x3ec56618	0.38554454
31	0x3f0705f0	0.52743435

features.conv2.weight f4 [64, 32, 3, 3]
0	0xbdbb7ba2	-0.091544405
1	0xbd72ac86	-0.059246562
2	0xbc011d85	-0.007880573
3	0xbdbbed7b	-0.09176155
4	0xbd00ccaf	-0.0314452
5	0xbdab2757	-0.08357113
6	0xbd1c857b	-0.038213234
7	0xbda834a4	-0.082131654
8	0xbd57118e	-0.052506976
9	0xbb716dea	-0.0036839196
10	0x3c370132	0.011169719
11	0xbc515539	-0.012776666
12	0x3c04ad30	0.008097932
13	0x3c737ed5	0.014861782
14	0x39a4d06f	0.00031435813
15	0x3c7118bd	0.014715371
16	0x3c21da19	0.009878659
17	0x3cb5c782	0.02218986
18	0xbab31fa1	-0.0013666042
19	0x3d958109	0.07300002
20	0xbb01acf4	-0.0019786926
21	0xbd7a3388	-0.0610843
22	0x3dd685e8	0.10474759
23	0xbdb99ca9	-0.09063084
24	0xbda56f61	-0.080778845
25	0xbd98bc79	-0.07457823
26	0xbd276d53	-0.040875744
27	0x3d997323	0.07492664
28	0x3d4a3f30	0.049376667
29	0x3d813cf1	0.06310452
30	0x3bd7deb7	0.006587829
31	0x3bacbdcc	0.005271649
32	0x3d0b42fd	0.033999432
33	0x3d47b175	0.04875322
34	0x3d7c700f	0.061630305
35	0x39fdfda6	0.00048444903
36	0x3dc5b1e4	0.096530706
37	0x3da8b6fa	0.08238025
38	0x3cc20856	0.023685616
39	0x3e631c78	0.22178829
40	0x3da28e62	0.079373136
41	0x3e157128	0.14593947
42	0x3dce6220	0.100773096
43	0x3dd9c5b6	0.106334135
44	0x3e208e1a	0.15679207
45	0xbdcefbdb	-0.10106631
46	0xbdb0feb3	-0.0864233
47	0xbde384b5	-0.11109296
48	0xbcc8f726	-0.024531912
49	0xbd892041	-0.06695605
50	0xbd9f86db	-0.077893935
51	0xbd36e465	-0.044651408
52	0xbd987092	-0.07443346
53	0xbdc94b84	-0.098288566
54	0xbccac17c	-0.024750464
55	0xbcfc5c15	-0.030805627
56	0x3cae98d4	0.021313109
57	0xbd593d7d	-0.053037155
58	0xbc19a37f	-0.009377359
59	0xbd639fbb	-0.055572253
60	0xbd1f6f47	-0.03892448
61	0x3c978d0f	0.01849988
62	0xbcc01199	-0.023445891
63	0xbdafd682	-0.08585836
64	0xbde2c997	-0.110736065
65	0xbd87e0b1	-0.06634653
66	0xbd6ab032	-0.05729694
67	0xbe06ea5d	-0.1317534
68	0xbe16288a	-0.14663902
69	0xbdb2a05f	-0.087219946
70	0xbdf85475	-0.12125484
71	0xbd9dc633	-0.07703819
72	0xbc85eee3	-0.016349262
73	0xbb8d544a	-0.0043130266
74	0xbd1eda6f	-0.038782533
75	0xbdb6083c	-0.08888289
76	0xbdbb14dd	-0.09134839
77	0xbcbabc17	-0.022794766
78	0xbdb35a35	-0.0875744
79	0xbd6eeb47	-0.058329847
80	0xbd950799	-0.0727684
81	0x3d78ce30	0.06074351
82	0x3d7d08e0	0.061776042
83	0x3d1792c2	0.037005194
84	0xbd0932f1	-0.033495847
85	0x3cacbea6	0.021087002
86	0xbbb07660	-0.005385205
87	0xbd812e47	-0.06307655
88	0xba0c22bf	-0.0005345754
89	0xbd71dc44	-0.059047952
90	0x3e0ff42f	0.14057992
91	0x3db57bc3	0.08861496
92	0x3dcecfeb	0.10098251
93	0x3e06336a	0.1310555
94	0x3c107299	0.008816385
95	0xbd4f012a	-0.05053822
96	0xbd5a6063	-0.053314578
97	0xbc2d2666	-0.010568237
98	0xbd92cf6a	-0.07168467
99	0xbd9cfe6e	-0.07665716
100	0x3b40c6a8	0.0029415283
101	0xbd7fd36e	-0.062457494
102	0xbd9ab61d	-0.075542666
103	0xbd093bf1	-0.03350443
104	0xbbdcedd0	-0.0067422166
105	0xbd4afdc2	-0.04955841
106	0xbdc33a9c	-0.09532663
107	0x3c9e76d7	0.019343777
108	0x3d88b8d9	0.06675882
109	0x3dc64422	0.09680964
110	0x3d41868e	0.047247462
111	0x3d4fbb09	0.05071548
112	0x3db44c2c	0.08803591
113	0x3d545572	0.0518393
114	0x3de7174b	0.1128374
115	0x3d383b51	0.044978444
116	0x3da9ef2d	0.08297572
117	0x3cb988e0	0.022648275
118	0x3d92f29b	0.071751796
119	0x3b0d159a	0.0021527768
120	0x3e0f3247	0.13984023
121	0x3dc38df7	0.09548562
122	0xbd297e41	-0.04138017
123	0xbd7ac91f	-0.06122696
124	0xbdcd09d9	-0.10011644
125	0xbdc7fbd1	-0.09764827
126	0x3e074653	0.1321042
127	0x3d3ad572	0.045613714
128	0xbcc5e355	-0.024156252
129	0xbdab9bbc	-0.08379313
130	0xbdc14bc5	-0.0943828
131	0xbdbd8a80	-0.092549324
132	0xbc55b7b1	-0.013044284
133	0xb8b423eb	-8.589759e-05
134	0x3c929a31	0.01789579
135	0xbda6326f	-0.08115088
136	0xbdadfa1c	-0.0849497
137	0xbdbd04af	-0.09229409
138	0xbc98c167	-0.018646909
139	0xbda5e829	-0.08100922
140	0xbd5c4bc7	-0.053783204
141	0xbca89c59	-0.020582365
142	0xbb878b96	-0.004136513
143	0xbd4229bc	-0.047403082
144	0xbbd49fe0	-0.006488785
145	0xbd57c055	-0.052673656
146	0x3b61d343	0.0034458197
147	0xbddad17b	-0.106844865
148	0xbd77187f	-0.060326096
149	0x399c4104	0.0002980308
150	0xbd100555	-0.035161335
151	0xbc4f2994	-0.01264419
152	0xbd21b4d7	-0.039479103
153	0xbd6e7e6d	-0.058226038
154	0xbd771ada	-0.060328342
155	0xbd5d5dcc	-0.05404453
156	0x3ce81e9b	0.028334906
157	0x3df6ed16	0.12056939
158	0xbd674e3b	-0.05647109
159	0x3cdf5999	0.027264403
160	0xbdb4a40a	-0.088203505
161	0xbe20be75	-0.15697654
162	0x3d4fb7fc	0.05071257
163	0xbd748be6	-0.05970373
164	0xbd1ba128	-0.037995487
165	0x3c8796ce	0.016551401
166	0x3c451653	0.012029248
167	0x3c795788	0.015218623
168	0x3b3198cc	0.002709913
169	0xbb1df979	-0.0024104996
170	0xbd1ef378	-0.03880641
171	0x3abde495	0.0014487678
172	0xbd9128c7	-0.07087856
173	0xbd2ca06d	-0.04214518
174	0xbd15fbfc	-0.036617264
175	0xbd8a0885	-0.06739906
176	0xbd20a372	-0.039218374
177	0x3c97d713	0.018535173
178	0xbcf0acfe	-0.029379364
179	0xbd35d465	-0.04439201
180	0xbcb2de2e	-0.02183446
181	0x3d1913bb	0.037372332
182	0xbd574284	-0.05255367
183	0xbd1be8dd	-0.038063873
184	0xbdd15ad7	-0.102224045
185	0x3bb6fd80	0.005584419
186	0x3bad3fd3	0.0052871495
187	0xbdb189ff	-0.08668899
188	0x3c1097d0	0.008825257
189	0x3d787562	0.06065882
190	0xbd0822a6	-0.03323617
191	0xbcc5e1ba	-0.024155486
192	0xbbfadf2e	-0.0076559996
193	0x3d241136	0.040055476
194	0xbd628384	-0.055301204
195	0x3cc317c1	0.023815038
196	0xbd625f97	-0.055266943
197	0xbd864d84	-0.06557754
198	0xbd95beb9	-0.07311768
199	0xbd2584b7	-0.04040977
200	0xbcb8051d	-0.022463376
201	0xbc2e8d04	-0.010653738
202	0xbdad3632	-0.084576026
203	0xbc912d6a	-0.01772185
204	0xbca534bb	-0.020166745
205	0x3c3cf5cf	0.011533215
206	0x3ceb94f1	0.028757544
207	0x3d5e40bb	0.05426095
208	0xbd2454ad	-0.040119816
209	0xbd6dfea7	-0.058104184
210	0x3d666749	0.056250844
211	0x3d35c86d	0.044380594
212	0x3d60f3f6	0.05492016
213	0xbd7ed01c	-0.062210187
214	0xbced2512	-0.02894834
215	0x3c34029f	0.010986953
216	0xbd79bf3d	-0.060973395
217	0xbcd6b8b8	-0.026211128
218	0xbdc3df06	-0.09564023
219	0xbd92a798	-0.07160872
220	0xbd3cffbf	-0.046142336
221	0xbd9f9148	-0.07791382
222	0xbd75949a	-0.05995617
223	0x3ca4b103	0.020103937
224	0xbd371fcd	-0.044708062
225	0xbc2a897d	-0.010408756
226	0xbda8d45e	-0.08243631
227	0xbd813d7b	-0.063105546
228	0x3cd83545	0.026392588
229	0x3c275850	0.010213926
230	0xbd526cdc	-0.051373348
231	0x3cfa6eec	0.03057047
232	0x3cbbdee9	0.02293344
233	0x3d1680b3	0.03674383
234	0xbd5a455c	-0.053288803
235	0xbd94cb38	-0.072653234
236	0xbdb1478e	-0.08656226
237	0xbd96941a	-0.07352467
238	0x3b835def	0.0040090005
239	0x3bdff7b5	0.006834949
240	0xbdcca2fc	-0.09992024
241	0xbd0166f0	-0.03159231
242	0x3b91b318	0.0044463985
243	0xbda61875	-0.081101336
244	0xbd8bdd72	-0.06829347
245	0xbe0dcbe9	-0.13847317
246	0xbd40b203	-0.047044765
247	0xbc62924e	-0.013828827
248	0xbcbe35ef	-0.023219077
249	0xbd6eb2ee	-0.05827611
250	0xbd51b915	-0.0512019
251	0xbd3cdb8a	-0.046107806
252	0x3d07bc64	0.033138648
253	0xbdaf05cc	-0.085460275
254	0xbdf4cb0f	-0.11952793
255	0xbd653af1	-0.055964414

features.conv2.bias f4 [64]
0	0xbd51193e	-0.051049463
1	0xbd03ef00	-0.03221035
2	0xbd5adb18	-0.0534316
3	0xbae874b1	-0.0017734972
4	0xbd25f91c	-0.040520772
5	0xbc9f9c74	-0.019483782
6	0xbddbedc2	-0.10738708
7	0xbd0f87bf	-0.035041567
8	0xbd0fc046	-0.035095476
9	0x3c4fe773	0.012689459
10	0x3c2ca93a	0.010538394
11	0x3c7c7729	0.015409269
12	0x3b060a7b	0.0020453024
13	0xbd458187	-0.04821923
14	0x3d310544	0.043217912
15	0x3cfa0713	0.030520951
16	0xbdaba1e3	-0.08380487
17	0x3d1d55b2	0.038411804
18	0xbdb6c16a	-0.089236096
19	0xbd94bae9	-0.07262213
20	0xbd905239	-0.07046933
21	0xbdaa1a81	-0.083058365
22	0xbd715f13	-0.05892856
23	0xbd76c1b2	-0.060243316
24	0xbd9db70e	-0.077009305
25	0xbd0b62d5	-0.0340298
26	0x3cc151eb	0.023598632
27	0xbd895420	-0.06705499
28	0x3c9461ed	0.0181131
29	0xb817f7fc	-3.623216e-05
30	0x3cf0ee51	0.029410513
31	0xbcd14bd0	-0.025548846
32	0xbc91de68	-0.017806247
33	0xbd829a81	-0.063771255
34	0xbcdd45c2	-0.027010802
35	0xbdd02fe0	-0.101653814
36	0x3c0ee850	0.00872238
37	0x3c917698	0.017756745
38	0xbd9174b2	-0.07102336
39	0xbd71078e	-0.058845095
40	0x3d245a42	0.04012514
41	0xbe0a6935	-0.13516696
42	0xbdb8be31	-0.09020651
43	0x3d1d5539	0.038411353
44	0xbd94e876	-0.07270901
45	0xbcd1591b	-0.025555184
46	0xbd5fc12a	-0.054627575
47	0xbdb6ea3a	-0.08931394
48	0x3c0da30e	0.008644832
49	0xbd107b16	-0.035273634
50	0x3c61dab3	0.013785052
51	0xbd7fcf21	-0.062453393
52	0xbcf2428d	-0.02957275
53	0xbd8e8491	-0.06958879
54	0xbd9ffdee	-0.07812105
55	0xbd1e958b	-0.038716834
56	0xbd0911e1	-0.033464316
57	0xbc607199	-0.013698959
58	0xbd6aa900	-0.057290077
59	0xbdb5f688	-0.08884913
60	0xbdb1205a	-0.08648749
61	0xbca2bdca	-0.01986589
62	0xbd1f69ab	-0.038919132
63	0xbd8fb697	-0.07017248

features.prelu2.weight f4 [64]
0	0x3df80a7a	0.12111373
1	0x3dc78335	0.09741823
2	0x3ec2c84b	0.38043436
3	0x3e0c4db2	0.13701513
4	0x3bd3bec9	0.0064619523
5	0x3df48665	0.11939696
6	0x3ddca424	0.10773495
7	0x3e3fefde	0.18743846
8	0x3e019381	0.12653925
9	0x3f17e1ee	0.59329116
10	0x3e9555d4	0.29167044
11	0x3da2cc21	0.07949091
12	0x3dd918fe	0.1060047
13	0x3e29ebf1	0.16593911
14	0x3e029d7e	0.12755391
15	0x3e16dcad	0.14732619
16	0x3e320f97	0.1738876
17	0x3ecd7e9e	0.40135664
18	0x3e845601	0.25846866
19	0x3dd85cbb	0.10564562
20	0x3d73d8b6	0.059532844
21	0x3e0a7ed1	0.13524939
22	0x3df1435d	0.11780427
23	0x3e4b59d1	0.19858481
24	0x3e06603f	0.13122652
25	0x3e892575	0.2678639
26	0x3e58f74b	0.21188085
27	0x3e4c3490	0.19941926
28	0x3eb3da63	0.35127553
29	0x3e0b80ba	0.13623324
30	0x3eb5a5d2	0.35478073
31	0x3db5da70	0.08879554
32	0x3dde98dd	0.10869
33	0x3e905ad2	0.2819429
34	0x3e83575c	0.25652587
35	0x3b98cb2d	0.0046628923
36	0x3e3050b2	0.17218283
37	0x3f0a89d1	0.5411654
38	0x3eb9518a	0.36195022
39	0x3ef8a94c	0.48566663
40	0x3e478987	0.19486056
41	0x3ed1b948	0.4096167
42	0x3da7abb4	0.08187047
43	0x3d4d5bdb	0.05013643
44	0x3d43200a	0.047637977
45	0x3e20e244	0.15711313
46	0x3e19fa8c	0.15036982
47	0x3e9ac1db	0.30226025
48	0x3e9696f3	0.2941204
49	0x3dabf672	0.08396615
50	0x3efce39f	0.4939241
51	0x3e92244f	0.28543326
52	0xbe99cf03	-0.3004075
53	0x3e81ee24	0.25377
54	0x3e998339	0.29982927
55	0x3e6ece08	0.23320782
56	0x3d9e89a1	0.077410944
57	0x3df44b77	0.11928456
58	0x3dd47e67	0.10375672
59	0x3daef330	0.08542478
60	0x3e9491eb	0.29017577
61	0x3d822d40	0.06356287
62	0x3e297cb8	0.16551483
63	0x3e8978d4	0.26849997

features.conv3.weight f4 [64, 64, 3, 3]
0	0x3d3fc007	0.04681399
1	0x3d25d3a6	0.040485047
2	0xbc8395f4	-0.016062714
3	0x3d05c257	0.03265604
4	0x3c8b2a93	0.016988074
5	0xbda6528e	-0.08121215
6	0x3cc69517	0.024241013
7	0xbcdb2df1	-0.026755305
8	0xbc3652cc	-0.011128139
9	0x3d90091e	0.07032989
10	0x3d56142a	0.052265324
11	0xbd471d0b	-0.048611682
12	0xbd9030a2	-0.07040526
13	0xbcc665f1	-0.024218531
14	0xbdcd53d1	-0.10025752
15	0xbdb8f48f	-0.09031021
16	0xbdf8d252	-0.121494904
17	0xbdebcedf	-0.11514067
18	0x3bfa2e24	0.007634895
19	0x3c425671	0.01186143
20	0xbdb1171b	-0.08646985
21	0x3ca93091	0.020653041
22	0xbc9a19b1	-0.018811079
23	0xbdd42329	-0.10358269
24	0x3d2b7b3b	0.04186557
25	0x3d856a5f	0.06514429
26	0xbdd99545	-0.10624174
27	0x3c89abb8	0.016805515
28	0x3d0a3a11	0.033746783
29	0x3d424262	0.04742659
30	0x3d895f5c	0.067076415
31	0x3a51e76e	0.0008007203
32	0x3d2b88cc	0.041878507
33	0x3dabf599	0.083964534
34	0x3ce260b7	0.027634008
35	0x3d466b36	0.048442088
36	0x3b282c28	0.0025661085
37	0x3c143bb4	0.009047437
38	0x3cc13f31	0.023589702
39	0xbdf5a185	-0.11993698
40	0xbc71761b	-0.014737631
41	0x3c7f867d	0.015596029
42	0xbe00fe5b	-0.12597029
43	0xbe13529f	-0.14386986
44	0xbdae8d70	-0.08523071
45	0x3e047c79	0.12938108
46	0x3e44a37e	0.19202992
47	0x3d95b498	0.07309836
48	0x3d66c2d2	0.05633814
49	0x3dc6d049	0.09707696
50	0xbc557d7b	-0.013030405
51	0x3c8e643f	0.017381785
52	0x3d1e9569	0.038716707
53	0x3c9b91e0	0.018990457
54	0xbc49127e	-0.012272475
55	0x3d49e1ae	0.04928749
56	0x3d032db7	0.03202602
57	0x3963fcef	0.00021742632
58	0x3c4e22f7	0.012581578
59	0xbcbaa968	-0.022785857
60	0x3bf5131f	0.007479086
61	0x3d28e058	0.041229576
62	0xbc05b847	-0.008161611
63	0x3dd69ad6	0.10478751
64	0x3d8731f1	0.066013224
65	0xbcdcdb5f	-0.026960073
66	0x3d8b4e18	0.068020046
67	0x3d5486ae	0.051886253
68	0xbe1199cf	-0.1421883
69	0x3d778435	0.060428817
70	0xbd3450e2	-0.04402245
71	0xbd9af7d3	-0.075668
72	0xbdd0f081	-0.102021225
73	0xbb83ff1c	-0.004028214
74	0xbc0a7b0d	-0.008452189
75	0xbd916516	-0.07099359
76	0x3d2aaa88	0.041666538
77	0x3d647724	0.055777684
78	0xbd98fa84	-0.07469657
79	0x3c5ae4c6	0.013360208
80	0x3d624a30	0.055246532
81	0x3c3cd8da	0.011526311
82	0xbc00d57c	-0.007863399
83	0x3d42b31b	0.04753409
84	0x3cccf6fa	0.025020111
85	0xbd43e039	-0.047821257
86	0xbc9b7972	-0.018978808
87	0xbcb8f4b1	-0.022577615
88	0x3ccdca0e	0.025120761
89	0xbc254667	-0.010087586
90	0xbdf574dd	-0.119851805
91	0xbd3cebc8	-0.046123296
92	0xbe93853a	-0.2881258
93	0xbdab6fd4	-0.08370939
94	0x3e118c3b	0.1421365
95	0xbd70968f	-0.058737334
96	0x3e597020	0.21234179
97	0x3e3ea7eb	0.18618743
98	0x3d4c7eb8	0.049925536
99	0x3d2fdf31	0.04293746
100	0x3d95bc57	0.073113136
101	0x3c0f92ec	0.008763056
102	0xbb8a3b59	-0.0042185006
103	0xbd78e296	-0.060762964
104	0xbd1d76d2	-0.038443394
105	0x3c951747	0.018199576
106	0x3cbf1143	0.02332366
107	0xbd0dec60	-0.034649253
108	0x3d0535c0	0.032521963
109	0x3d0c6807	0.034278896
110	0xbd476b25	-0.048686165
111	0xbce3c5c3	-0.027804261
112	0xbc93eecf	-0.018058209
113	0xbd2a0f4a	-0.041518487
114	0xbce001ff	-0.027344702
115	0xbd707ead	-0.058714557
116	0xbcc2bd70	-0.023771971
117	0x3c9d3b99	0.019193457
118	0x3c87fd2e	0.016600218
119	0x3e08c40c	0.13356036
120	0x3d64775e	0.0557779
121	0x3d262209	0.040559802
122	0x3a6565c6	0.0008750822
123	0xbb9815f6	-0.00464129
124	0x3d94f731	0.072737105
125	0xbd1ff853	-0.03905518
126	0x3cbcc275	0.023041943
127	0x3d4ea2fd	0.050448406
128	0xbde0200b	-0.10943612
129	0xbd2e4bd4	-0.042552784
130	0xbd8106a9	-0.063000984
131	0xbe09f9dc	-0.1347422
132	0xbd54dbe4	-0.051967517
133	0xbdc36a3f	-0.09541749
134	0xbe0cc956	-0.13748679
135	0x3c033e3d	0.008010444
136	0xbcf46583	-0.02983356
137	0x3c1e0a21	0.00964597
138	0xbcf0a2fc	-0.029374592
139	0xbdd58026	-0.10424833
140	0xbda9a0fd	-0.08282659
141	0xbb9e2aa4	-0.0048268605
142	0x3c5f1570	0.013615951
143	0xbdb4cfaf	-0.08828675
144	0x3e1447c6	0.14480504
145	0x3d8077f2	0.06272878
146	0x3d1d453d	0.03839611
147	0x3d39b86a	0.045341887
148	0xbc8fd77b	-0.017558804
149	0x3c47a4df	0.012185304
150	0xbae9ec1f	-0.0017846859
151	0x3d887b1b	0.066641055
152	0x3d2a9a1a	0.04165087
153	0x3c55b368	0.013043262
154	0x3b8d14d3	0.004305461
155	0xbd8631e8	-0.065524876
156	0xbe267b15	-0.1625789
157	0xbd2c9c7d	-0.042141426
158	0xbdbfb564	-0.093607694
159	0x3e047a90	0.12937379
160	0x3e355658	0.17708719
161	0x3d0057e2	0.03133381
162	0x3d998831	0.074966796
163	0x3c3b3b41	0.011427701
164	0x3df1f274	0.118138224
165	0xbb3114fd	-0.0027020567
166	0xbdb09bf4	-0.08623496
167	0x3d6baf26	0.05754008
168	0xbcce6b0f	-0.025197534
169	0xbd318339	-0.043338034
170	0x3caf4626	0.021395754
171	0x3d1090ab	0.035294216
172	0x3d5be92d	0.05368917
173	0x3dd892fb	0.10574909
174	0x3d3f1862	0.046654113
175	0xbcb0cccf	-0.021582035
176	0xbcba52b9	-0.022744523
177	0xbcbee373	-0.023301816
178	0xbdec7e1d	-0.11547492
179	0xbe49498b	-0.1965696
180	0x3d9d4427	0.07679015
181	0x3d5918d9	0.053002212
182	0x3d9ae69f	0.07563519
183	0x3d2d0f00	0.042250633
184	0xbd20b168	-0.039231688
185	0x3d6f8487	0.058475997
186	0x3d2a3ee8	0.0415639
187	0xbd38251c	-0.044957265
188	0xbd8712b6	-0.06595366
189	0xbcb3c060	-0.021942317
190	0x3d303c06	0.043025993
191	0xbc701bbb	-0.014655049
192	0x3d3c69f0	0.045999467
193	0x3baa96ce	0.0052059656
194	0x3ddb93d5	0.10721556
195	0x3d4aa255	0.04947122
196	0xbcc47906	-0.02398349
197	0x3d8caacb	0.06868514
198	0x3dc85005	0.097808875
199	0x3da41168	0.080111325
200	0xbcfbafef	-0.03072354
201	0x3d5341c1	0.05157638
202	0x3da4014e	0.08008061
203	0xbe17ff43	-0.14843468
204	0x3dda8d26	0.10671453
205	0x3d4c7821	0.04991925
206	0xbd33c0ad	-0.04388492
207	0xbcfd4157	-0.030914946
208	0xbc960529	-0.018313007
209	0x3cc7fdb7	0.024412973
210	0xbd644a65	-0.05573501
211	0xbd63fab3	-0.055659007
212	0xbd537bcc	-0.051631734
213	0x3d1e93d3	0.038715195
214	0x3c2f3070	0.010692701
215	0xbc8e5e0a	-0.017378826
216	0x3c99e51a	0.018786002
217	0xb7590514	-1.293539e-05
218	0xbd6366ed	-0.05551808
219	0x3bd2a5c5	0.0064284527
220	0xbd93dcff	-0.07219886
221	0xbd090127	-0.033448365
222	0x3be1366c	0.0068729427
223	0x3b9f82e8	0.0048679
224	0xbd9f5f0c	-0.07781801
225	0x3e24fedf	0.1611285
226	0x3a026757	0.0004974505
227	0x3c8822fc	0.016618244
228	0xbdcb1e36	-0.09917872
229	0xbd1fe3ad	-0.039035488
230	0xbd723b11	-0.05913836
231	0x3df837fb	0.121200524
232	0x3d87e693	0.066357754
233	0xbdb712bd	-0.08939121
234	0xbda21a5f	-0.07915186
235	0xbba84087	-0.0051346454
236	0x3dbb401b	0.091430865
237	0xbdba3b73	-0.0909337
238	0xbcb03526	-0.021509718
239	0x3c709fb8	0.014686517
240	0xbd0e1904	-0.034691826
241	0x3d0bebf3	0.034160566
242	0x3d72bad8	0.05926022
243	0x3ca33862	0.019924346
244	0xbd046f6e	-0.03233283
245	0xbd94eff4	-0.0727233
246	0x3d95b367	0.07309609
247	0x3d817530	0.0632118
248	0x3bef731d	0.0073074237
249	0x3d5b5b29	0.053553734
250	0x3dd85059	0.105622
251	0x3ddb0e9e	0.106961474
252	0xbe0dfa82	-0.13865092
253	0xbd3d33ce	-0.046191983
254	0xbc4ecd44	-0.012622181
255	0xbe743d68	-0.2385155

features.conv3.bias f4 [64]
0	0xbd4c7cd2	-0.049923725
1	0xbe08a320	-0.13343477
2	0x3d3a5577	0.045491662
3	0xbd258b61	-0.040416125
4	0xbce79a6c	-0.028271876
5	0xbdc80741	-0.097670086
6	0x3c4b2d08	0.012400873
7	0x3b8327c1	0.004002542
8	0xbb75f98f	-0.0037532782
9	0xbd477c21	-0.048702363
10	0xbda99e0c	-0.08282098
11	0xbcaabded	-0.020842517
12	0xbe363189	-0.17792334
13	0xbdb58e95	-0.08865086
14	0xbdc80ed8	-0.09768456
15	0xbdb7bf0d	-0.08971987
16	0xbe041f26	-0.12902507
17	0x3da117ed	0.078658916
18	0xbd8eb8b1	-0.06968821
19	0xbc535f58	-0.01290115
20	0xbe0e48a0	-0.13894892
21	0xbdde5771	-0.10856522
22	0x3d0c518a	0.03425745
23	0x3d9655ab	0.073405586
24	0xbda7c09b	-0.081910335
25	0xbd1b61cb	-0.03793506
26	0xbca7de55	-0.020491758
27	0xbd10f7b6	-0.035392486
28	0xbd7da7d8	-0.061927646
29	0x3d4283f5	0.047489125
30	0xbd4c1d72	-0.04983277
31	0x3d612214	0.05496414
32	0x3c155f44	0.009116951
33	0xbe4d318c	-0.20038432
34	0x3d0ba2b5	0.034090716
35	0xbdfa083a	-0.122086
36	0x3da2d26c	0.07950291
37	0xbd97789b	-0.073960505
38	0xbd3326ad	-0.043738056
39	0x3d1b5a55	0.037927944
40	0xbd82831c	-0.063726634
41	0xbe3475df	-0.17623089
42	0xbd123028	-0.035690457
43	0xbc2261a8	-0.009910978
44	0xbd40fc76	-0.047115766
45	0xbd56612b	-0.05233876
46	0x3c658fa0	0.014011294
47	0xbd22ec40	-0.039776087
48	0xbc90b625	-0.017664978
49	0xbc611bb8	-0.013739519
50	0xbd00abfd	-0.03141402
51	0x3b1c9b57	0.00238963
52	0xbdeddb66	-0.116141126
53	0xbd2699f7	-0.040674176
54	0xbd9f7c76	-0.07787411
55	0xbe3e8ec9	-0.18609156
56	0x3d0ea98d	0.034829665
57	0xbdaf65a3	-0.085643075
58	0xbdfb3d64	-0.12267569
59	0xbda11908	-0.078661025
60	0xbc9387e8	-0.018009141
61	0xbd0eaa35	-0.03483029
62	0xbc8e13ba	-0.01734339
63	0xbc3a3561	-0.011365266

features.prelu3.weight f4 [64]
0	0x3e37e19e	0.1795716
1	0x3d9fc54d	0.07801304
2	0x3ec91f7c	0.39281833
3	0x3e75641d	0.23963971
4	0x3e322d41	0.17400075
5	0x3dc74c6a	0.09731372
6	0x3e9368ce	0.28790897
7	0x3e068012	0.13134792
8	0x3e75077f	0.23928641
9	0x3e21683a	0.15762416
10	0x3e16903d	0.1470346
11	0x3e6e15fe	0.23250577
12	0x3ed700b3	0.4199272
13	0x3e2de51e	0.16981933
14	0x3e45bba2	0.19309857
15	0x3e59b04b	0.21258657
16	0x3e53c4ff	0.20680617
17	0x3f013884	0.5047686
18	0x3e6de233	0.2323082
19	0x3e4d6c61	0.20060875
20	0x3e275ba1	0.16343547
21	0x3e79c201	0.24390413
22	0x3e035b99	0.1282791
23	0x3ecb644b	0.39724955
24	0x3e50a9fe	0.20377347
25	0x3de90539	0.11377949
26	0x3dfc0907	0.12306409
27	0x3e89bde7	0.26902696
28	0x3e29b624	0.16573387
29	0x3e88629a	0.26637727
30	0x3da00db1	0.078151114
31	0x3e2f0a50	0.17093778
32	0x3e1fca42	0.15604499
33	0x3eb14827	0.3462536
34	0x3e6ad4d8	0.22932756
35	0x3e8c965f	0.27458474
36	0x3e83d4a1	0.2574816
37	0x3e53c3ad	0.20680113
38	0x3e507d85	0.20360382
39	0x3e04e3e6	0.12977561
40	0x3e6596e7	0.22420846
41	0x3e5747e7	0.21023522
42	0x3e31bc56	0.17357
43	0x3e1881a7	0.14893208
44	0x3e52e556	0.20595297
45	0x3e70e2ba	0.2352399
46	0x3eb62525	0.35575214
47	0x3e8d4e8b	0.27598986
48	0x3e9077ce	0.28216404
49	0x3e97f63c	0.2968005
50	0x3de32611	0.11091245
51	0x3ee19a18	0.44062877
52	0x3e8da915	0.27668062
53	0x3dde69b3	0.10860004
54	0x3e63daae	0.22251388
55	0x3ec506fc	0.3848189
56	0x3e62895f	0.22122715
57	0x3e215b47	0.15757476
58	0x3e282354	0.16419727
59	0x3dd2c290	0.10291016
60	0x3e81e73e	0.25371736
61	0x3e1a41cc	0.15064162
62	0x3e1e6a6c	0.15470284
63	0x3e73d3ca	0.2381126

features.conv4.weight f4 [128, 64, 2, 2]
0	0x3d3e41b5	0.04644938
1	0xbd2bd402	-0.041950233
2	0xbdc5a224	-0.096500665
3	0xbe13e3c3	-0.14442353
4	0x3db60bcd	0.088889696
5	0x3db697f7	0.08915704
6	0x3da17baa	0.07884915
7	0x3c2379b0	0.009977743
8	0xbd2c3d85	-0.042050857
9	0xbe05f901	-0.13083269
10	0x3d1ba6d0	0.03800088
11	0xbc7fe976	-0.015619626
12	0xbc481714	-0.0122125335
13	0xbd203c6c	-0.039120123
14	0xbd6a71ba	-0.057237364
15	0xbc2a49b0	-0.010393545
16	0xbd8c9cc0	-0.06865835
17	0xbde2dacf	-0.11076891
18	0xbdc74859	-0.09730596
19	0xbda73a14	-0.081653744
20	0x3dbf7f9a	0.0935051
21	0x3d215eee	0.039397173
22	0x3de7b1ae	0.113131866
23	0x3e077a41	0.1323023
24	0x3b8a9deb	0.004230251
25	0xbd97f1b9	-0.07419152
26	0xbd9c1d3d	-0.07622764
27	0x3cd05a50	0.02543369
28	0xbd2b92ea	-0.041888155
29	0xbd904525	-0.07044438
30	0x3cb08227	0.021546436
31	0xbd8dc52a	-0.06922372
32	0x3dc30c7e	0.09523867
33	0xbd8a08bb	-0.067399465
34	0x3d01083e	0.031502
35	0xbdb13655	-0.08652941
36	0x3d46258c	0.04837565
37	0x3e1d4107	0.15356837
38	0x3d890525	0.06690434
39	0x3e125e02	0.14293674
40	0xbc2f351f	-0.010693817
41	0xbc9b532e	-0.018960562
42	0xbcdb2e88	-0.026755586
43	0xbddfaca2	-0.10921599
44	0xbd5cc97e	-0.053903095
45	0x3c9c5c8d	0.0190871
46	0xbdc0a723	-0.09406879
47	0x3d0fa13b	0.03506587
48	0x3e770cbd	0.24125953
49	0x3e8cb3e6	0.27481002
50	0x3dce3774	0.100691706
51	0xbbb12a5a	-0.00540666
52	0x3e1a65d4	0.15077907
53	0x3e62a9dc	0.22135109
54	0x3e38c227	0.18042813
55	0xbbdc0947	-0.006714973
56	0x3df92a4e	0.12166272
57	0x3e2f59c5	0.17124088
58	0x3d88fb42	0.066885486
59	0x3e5bc950	0.21463513
60	0xbbb66a6f	-0.005566887
61	0xbbb6b751	-0.0055760522
62	0xbdf345f7	-0.11878579
63	0x3da2aa61	0.079426534
64	0x3dcf9e1c	0.10137579
65	0xbce31ad8	-0.027722761
66	0x3df4ed07	0.11959272
67	0x3cf34a7b	0.029698601
68	0xbe1c51b5	-0.15265544
69	0xbe06e3e5	-0.13172872
70	0xbddc00db	-0.10742351
71	0xbdbf1a1f	-0.09331154
72	0x3d5c5532	0.053792186
73	0x3d94dc1e	0.072685465
74	0x3de88338	0.11353153
75	0x3c18602c	0.009300273
76	0x3d3fd4ad	0.046833683
77	0x3d8a32a4	0.0674794
78	0x3dfe73eb	0.12424453
79	0x3ca865e4	0.020556398
80	0x3bfe241b	0.007755769
81	0x3dc936b7	0.09824889
82	0x3d8cc8c4	0.068742305
83	0x3d8224cb	0.06354674
84	0x3e137474	0.14399892
85	0x3de32eda	0.110929206
86	0x3ca5bf63	0.020232862
87	0x3d3c8562	0.04602564
88	0xbdd8990e	-0.10576068
89	0xbd85c81b	-0.06532308
90	0xbdba3a16	-0.0909311
91	0xbd7a84df	-0.061161872
92	0xbd0b45fa	-0.03400228
93	0x3d0d0d48	0.034436494
94	0x3a3d5fd4	0.00072240573
95	0x3da562d8	0.080754936
96	0x3d820c8c	0.063500494
97	0xbd179c80	-0.037014484
98	0x3e119c5a	0.142198
99	0x3be476fc	0.006972192
100	0xbcd57f58	-0.026061699
101	0xbd71e919	-0.05906019
102	0xbd4efb9d	-0.050532926
103	0x3d51e54a	0.051244058
104	0x3c082070	0.008308515
105	0xbd974b46	-0.07387404
106	0xbd5431f0	-0.051805437
107	0xbc1465c3	-0.009057465
108	0x3d41ab53	0.047282528
109	0xbd2a1daa	-0.041532196
110	0xbc8406c7	-0.016116513
111	0xbd458d40	-0.04823041
112	0x3dae4a49	0.085102625
113	0xbcca3a79	-0.024686085
114	0x3d83de83	0.06438925
115	0xbd8a47a7	-0.06751948
116	0x3d946f6c	0.072478145
117	0xbd9bf159	-0.07614393
118	0x3bbeb690	0.005820103
119	0xbdf2b9a4	-0.118518144
120	0xbc8760c1	-0.016525628
121	0x3b47291c	0.0030389493
122	0x3c6a96b1	0.014318154
123	0xbc2c9f42	-0.010536017
124	0x3ca498fd	0.020092482
125	0xbc80f1e1	-0.015740337
126	0xbe0c1229	-0.13678803
127	0x3cde6940	0.027149796
128	0x3e0327d8	0.12808168
129	0x3d70265f	0.058630344
130	0x3cf4de3e	0.02989113
131	0xbd627318	-0.055285543
132	0x3c3bf32d	0.011471552
133	0x3bda0f47	0.006654653
134	0xbb969236	-0.0045950664
135	0x3d4a7808	0.049430877
136	0xbdd5bf12	-0.104368344
137	0xbdeac721	-0.11463762
138	0xbdbf5d8b	-0.09344014
139	0xbe2707e6	-0.16311607
140	0x3d0c86f1	0.034308378
141	0x3d6504f6	0.055912934
142	0xbd284883	-0.041084778
143	0x3d8fcb74	0.070212275
144	0xbe09e253	-0.13465242
145	0x3cecdbe4	0.028913446
146	0xbe1ad95e	-0.15121982
147	0x3c17e6cf	0.009271338
148	0xbc906664	-0.017626949
149	0xbdb2f56a	-0.08738215
150	0x3dbfb778	0.09361166
151	0x3ce045be	0.027377006
152	0x3c420993	0.011843103
153	0xbe13dd70	-0.1443994
154	0xbd56c84b	-0.052437108
155	0xbc95a86c	-0.018268786
156	0x3ca32063	0.019912904
157	0x3db34443	0.08753254
158	0xbdb8f049	-0.09030206
159	0x3bb631f2	0.005560153
160	0x3d901ecd	0.07037125
161	0xbb5e669d	-0.0033935674
162	0x3dd0952a	0.10184701
163	0x3d72da88	0.05929044
164	0x3d0b610a	0.03402809
165	0x3ce4d949	0.02793564
166	0x3d7e7bae	0.06212967
167	0x3d8d6449	0.069038935
168	0xbbd13baf	-0.0063852887
169	0x3d82b7f9	0.06382746
170	0x3d33d07e	0.043900006
171	0x3e46df6a	0.19421163
172	0xbd1ac405	-0.037784595
173	0xbd573917	-0.05254468
174	0x3c6cf17f	0.014461874
175	0xbde41b5e	-0.111380324
176	0x3dab3ce2	0.08361222
177	0x3dccd957	0.10002392
178	0xbc6fae29	-0.014628925
179	0x3c2bfb67	0.010496951
180	0x3d160be0	0.03663242
181	0x3a201d3d	0.00061078725
182	0x3db66515	0.089059986
183	0x3dc8fb08	0.098135054
184	0x3e1ba3d8	0.1519922
185	0x3d9669d1	0.07344402
186	0x3d832689	0.064038344
187	0x3d008149	0.031373296
188	0x3e0204cb	0.12697141
189	0xbdc6cd94	-0.0970718
190	0x3d06e320	0.032931447
191	0x3d1de25b	0.038545948
192	0x3d86fcd4	0.06591192
193	0x3d9237b5	0.071395315
194	0x3d67d1ec	0.05659668
195	0x3c9f3253	0.019433176
196	0xbd3026c5	-0.043005724
197	0xbd05df85	-0.032683868
198	0xbdb9421f	-0.09045815
199	0xbd7d97a1	-0.061912183
200	0x3c644e67	0.013934708
201	0x3cad8858	0.021183178
202	0xbdc30de1	-0.095241316
203	0xbda59ca4	-0.080865175
204	0x3cae423c	0.021271817
205	0x3d210c9d	0.03931867
206	0x3d0ebf62	0.034850486
207	0xbd85aa9b	-0.06526681
208	0x3c27ed81	0.010249496
209	0x3e349aba	0.17637148
210	0x3c853e35	0.016265014
211	0x3de6c756	0.11268489
212	0x3dc338e4	0.095323354
213	0x3e015e71	0.12633683
214	0x3c8e64c9	0.017382042
215	0x3d9e5e91	0.07732881
216	0x3da1e898	0.07905692
217	0x3d393f89	0.045226607
218	0x3dc6d21a	0.097080424
219	0x3be75693	0.007059881
220	0x3df366d0	0.11884844
221	0x3d99abc5	0.075034656
222	0x3dab1a49	0.08354623
223	0x3d5f99ef	0.054590162
224	0xbc5ccba0	-0.013476282
225	0x3c9b5207	0.018960012
226	0x3d520d82	0.051282413
227	0xbd8ddfc5	-0.06927446
228	0x3d3b5811	0.045738284
229	0x3d9d251b	0.07673093
230	0x3d9cbc17	0.07653063
231	0xbc60adf8	-0.013713352
232	0x3e31e517	0.17372547
233	0x3d65ecf9	0.056134198
234	0x3db857c7	0.09001117
235	0x3dc80de8	0.097682774
236	0x3d2fdb21	0.042933587
237	0xbdce6f7f	-0.1007986
238	0xbccaa415	-0.024736444
239	0xbc56b0a3	-0.013103637
240	0x3c9c851a	0.019106437
241	0xbd7d3bca	-0.061824597
242	0xbc14cd47	-0.009082145
243	0xbce9b83a	-0.028530229
244	0xbd439a9a	-0.04775486
245	0xbccdc484	-0.02511812
246	0x3d7ade82	0.061247356
247	0x3d0f182f	0.034935173
248	0xbd848a8e	-0.0647174
249	0x3d905f81	0.07049466
250	0xbcd4c498	-0.02597265
251	0xbd886e17	-0.06661623
252	0xbce1e758	-0.027576134
253	0xbddbb098	-0.10727042
254	0xbd98b482	-0.07456304
255	0xbdc1ca04	-0.094623595

features.conv4.bias f4 [128]
0	0xbd2fad16	-0.042889677
1	0xbda66c9a	-0.08126183
2	0xbd9ec1bd	-0.077517964
3	0xbd81ee02	-0.063442245
4	0x3cb42400	0.021989822
5	0xbd847654	-0.06467882
6	0xbd46b684	-0.048513904
7	0xbd2f3023	-0.042770516
8	0xbdd107e3	-0.102065824
9	0xbd27c6dd	-0.040961135
10	0xbcc14cbe	-0.023596164
11	0xbd117320	-0.035510182
12	0xbd848d57	-0.06472271
13	0xbdd97830	-0.10618627
14	0x3da07b88	0.07836062
15	0xbd8cc11e	-0.06872772
16	0xbd630969	-0.055428896
17	0xbd4df9eb	-0.05028717
18	0xbd9ac9ba	-0.075580075
19	0xbdfaa97b	-0.12239357
20	0xbdf11b62	-0.11772801
21	0xbc354fbc	-0.011066373
22	0x3d37b2ad	0.044848133
23	0xbdd0c2f3	-0.101934336
24	0x3d1b4758	0.037909836
25	0xbde48d9b	-0.111598216
26	0xbda02fdc	-0.078216285
27	0xbddbfc33	-0.107414626
28	0xbda1e62a	-0.079052284
29	0xbd87291b	-0.06599637
30	0xbda18629	-0.07886917
31	0xbd8c5d82	-0.06853773
32	0xbd9752af	-0.073888175
33	0xbd85f797	-0.06541365
34	0xbdd021db	-0.101627074
35	0xbd9a87e8	-0.07545453
36	0xbe0cf562	-0.13765481
37	0xbe442efe	-0.19158551
38	0xbd6c73cb	-0.057727616
39	0xbd3c1c50	-0.04592544
40	0xbd52820d	-0.051393557
41	0xbd2d1939	-0.042260382
42	0xbe0510f7	-0.12994753
43	0xbdb8f10d	-0.09030352
44	0xbddffa58	-0.10936421
45	0xbdacae11	-0.08431638
46	0xbd940544	-0.07227567
47	0xb9ef10fe	-0.00045598292
48	0xbd576795	-0.052589018
49	0xbe41b382	-0.18916133
50	0xbd911d32	-0.07085647
51	0xbd857e17	-0.0651819
52	0x3d3afafb	0.04564951
53	0xb9b2f9b3	-0.00034136846
54	0xbdbc5e1b	-0.09197637
55	0xbd95957d	-0.07303903
56	0xbdc13fb5	-0.09435979
57	0xbdbbdcff	-0.09173011
58	0x3c36012f	0.011108681
59	0x3d12ead4	0.03586848
60	0xbd665a38	-0.056238383
61	0xbd3bcde5	-0.045850653
62	0xbd1865c0	-0.03720641
63	0xbe1f0c81	-0.15532114
64	0xbd85a090	-0.065247655
65	0xbdb04a44	-0.08607915
66	0xbd574930	-0.05256003
67	0xbde43b12	-0.11144079
68	0x3cec8428	0.02887161
69	0x3d447f40	0.047972918
70	0xbd6fb4eb	-0.058522146
71	0xbd15676e	-0.03647559
72	0xbdd6d562	-0.10489918
73	0xbd0e93d8	-0.034808964
74	0xbcdfdb34	-0.027326204
75	0xbdb5fa7c	-0.08885667
76	0xbda2d01d	-0.07949851
77	0xbd440906	-0.047860168
78	0xbd2bc23f	-0.041933294
79	0x3cf3da00	0.029767036
80	0xbd78178a	-0.060569324
81	0xbc87102b	-0.016487202
82	0x3e1efaec	0.15525407
83	0x3cef90e4	0.029243894
84	0xbda3cd84	-0.07998183
85	0x3e2f8869	0.1714188
86	0xbcd8d50f	-0.026468782
87	0xbde8e525	-0.11371831
88	0x3dbf54a4	0.09342316
89	0xbdd473fe	-0.10373686
90	0xbd39b259	-0.0453361
91	0x3e774364	0.24146801
92	0xbd84eb1b	-0.06490155
93	0xbdef3a82	-0.11681081
94	0xbe06ab63	-0.13151316
95	0xbd07ae45	-0.03312518
96	0xbd7dd224	-0.061967984
97	0xbe06b905	-0.13156517
98	0xbd7e542d	-0.062091995
99	0xbd8da8b7	-0.069169454
100	0xbdaf19f7	-0.08549874
101	0xbdf9716a	-0.12179835
102	0xbdb035ab	-0.08603986
103	0xbdc3fe30	-0.09569967
104	0xbdc86eaa	-0.097867325
105	0xbd974c2d	-0.07387576
106	0xbe1dcfd7	-0.15411316
107	0xbcc5ca5d	-0.024144346
108	0xbe1d0535	-0.15334018
109	0xbc859454	-0.01630608
110	0xbe22cb8c	-0.1589796
111	0xbc935939	-0.01798688
112	0x3b95132c	0.0045494046
113	0xbdbc70b9	-0.09201188
114	0xbd9cb4fd	-0.07651708
115	0xbd5fd622	-0.054647572
116	0xbca1a10f	-0.019730119
117	0x3c3648c9	0.011125752
118	0x3c3fcfe0	0.011707276
119	0xbdab275e	-0.08357118
120	0x3ae29950	0.0017288122
121	0xbdd2fd3f	-0.10302209
122	0xbc95c9bc	-0.018284671
123	0xbc0ae64c	-0.008477759
124	0xbcb23c5e	-0.021757301
125	0xbdc302d9	-0.095220275
126	0xbc9abd62	-0.018889133
127	0xbe222f41	-0.15838338

features.prelu4.weight f4 [128]
0	0xbb6b5b6d	-0.0035912648
1	0x3c521d84	0.01282442
2	0x3d8b7221	0.06808878
3	0x3e3e491c	0.18582577
4	0x3d575943	0.05257536
5	0x3e2f6248	0.17127335
6	0x3cd77612	0.026301417
7	0x3e40432c	0.18775624
8	0x3dac0a2b	0.08400377
9	0x3bc4bb98	0.006003808
10	0x3d93ad7e	0.072108254
11	0x3df96fb5	0.121795096
12	0xbda2210f	-0.07916462
13	0x3d5b668d	0.053564597
14	0x3daa6edf	0.08321928
15	0x3d52958d	0.051412154
16	0x3d3ca33f	0.04605412
17	0xbddd08be	-0.10792683
18	0x3cd31aef	0.025769679
19	0x3e57a677	0.21059595
20	0xbbed7e46	-0.007247719
21	0xbd74f377	-0.0598025
22	0x3deae31d	0.114691
23	0x3e0b3116	0.13592944
24	0x3cb4ae5d	0.0220558
25	0x3e016bc4	0.12638766
26	0xbd41b7c7	-0.047294404
27	0x3d6b0c28	0.05738464
28	0x3e00d866	0.1258255
29	0x3e0677bd	0.13131614
30	0x3d9d89aa	0.07692273
31	0x3c6b732e	0.014370723
32	0x3d75b4a6	0.059986733
33	0x3cbbbf03	0.02291823
34	0x3bd2d9de	0.006434663
35	0x3d05a057	0.032623615
36	0x3cbdc350	0.023164421
37	0x3e2e7801	0.17037965
38	0x3d8b1f20	0.06793046
39	0x3c90609c	0.017624192
40	0x3c252187	0.010078794
41	0xbb9b9257	-0.0047476697
42	0x3d4d5c7e	0.050137036
43	0x3d4cb8a4	0.049980775
44	0x3e365de7	0.17809258
45	0x3e1c6ea7	0.15276586
46	0x3d350218	0.04419145
47	0x3e1da018	0.15393102
48	0x3dbaa087	0.091126494
49	0x3e16a675	0.14711936
50	0x3d4fa00b	0.05068974
51	0x3da65692	0.08121981
52	0x3e3ae5bb	0.18251698
53	0x3a3be95e	0.00071682583
54	0x3c1c2ddb	0.009532417
55	0x3e246584	0.1605435
56	0x3e37988c	0.17929286
57	0x3d4e11fe	0.050310127
58	0x3e05a72d	0.13052054
59	0xbcf61954	-0.030041374
60	0x3b5fcd58	0.0034149494
61	0x3d969516	0.07352655
62	0x3e2fce52	0.17168549
63	0x3e645adf	0.2230029
64	0x3e196911	0.14981486
65	0x3e561fc9	0.20910563
66	0x3c148d69	0.009066918
67	0x3e0ea82f	0.13931344
68	0x3e3de33c	0.18543714
69	0x3e00155a	0.12508145
70	0x3cce0859	0.025150465
71	0xbc2797c8	-0.010229059
72	0x3e10f138	0.14154518
73	0xb9c802ef	-0.00038149158
74	0x3db0cb26	0.086324975
75	0x3d38fb96	0.045161806
76	0x3da7d764	0.081953794
77	0x3d645fc8	0.055755407
78	0x3b981b25	0.0046419078
79	0x3dfbfbc7	0.12303882
80	0x3d91bee3	0.07116487
81	0x3e08f82a	0.13375917
82	0x3de98aa4	0.11403397
83	0x3d80e6ec	0.06294045
84	0x3e0effba	0.1396474
85	0xbe8bb768	-0.27288365
86	0x3d83eac6	0.06441264
87	0x3df5ddf7	0.12005227
88	0x3bb809d5	0.0056164064
89	0x3b95a6ca	0.004567002
90	0x3b60399b	0.0034214023
91	0x3d5166ab	0.051123302
92	0x3da1be43	0.07897618
93	0x3e113f03	0.14184193
94	0x3e1506e5	0.14553411
95	0x3dd75916	0.10515039
96	0xbbc0d9a2	-0.005885319
97	0x3d079f7a	0.033111073
98	0x3b54978f	0.0032438969
99	0xbbfb8db1	-0.007676803
100	0x3d9782b1	0.07397974
101	0x3dd1762e	0.10227619
102	0xbd9c36c2	-0.07627632
103	0xbdf89231	-0.12137259
104	0x3c041777	0.008062235
105	0x3d868253	0.06567826
106	0x3e316349	0.1732303
107	0xbe4ab06d	-0.19793864
108	0x3dc30a0f	0.09523403
109	0x3e12c197	0.14331661
110	0x3e257ce8	0.16160929
111	0x3bbd0045	0.0057678544
112	0x3e024de1	0.12725021
113	0x3b91f800	0.0044546127
114	0x3db4b6f6	0.088239595
115	0x3d738164	0.05944957
116	0x3dcb4a80	0.09926319
117	0x3e0a95b4	0.1353367
118	0x3e69c372	0.22828463
119	0x3d12b761	0.035819415
120	0x3d88e7ea	0.06684859
121	0xbd0ed74d	-0.034873296
122	0xbb301928	-0.0026870463
123	0x3e18f6ab	0.14937846
124	0x3ea7ab66	0.32747954
125	0x3e0da587	0.13832675
126	0x3d543d6c	0.05181639
127	0x3e9c0331	0.30471185

features.conv5.weight f4 [256, 512]
0	0x3e0e66d2	0.1390641
1	0x3e05002a	0.12988344
2	0x3e1656bc	0.14681524
3	0x3ded5a1a	0.11589451
4	0x3e09ddd3	0.13463525
5	0xbd7e985e	-0.062157027
6	0x3d2f89b6	0.04285594
7	0xbdcbc725	-0.09950093
8	0xbdb2b573	-0.08726015
9	0xbd82daea	-0.06389411
10	0xbe27e5ef	-0.16396306
11	0xbd4f296c	-0.050576612
12	0x3d113e5d	0.035459865
13	0xbb77c074	-0.003780392
14	0xbc4b57e0	-0.012411088
15	0xbdb63e52	-0.088986054
16	0x3d3d46d0	0.04621011
17	0x3ca1e284	0.019761331
18	0xbb4a11e9	-0.003083343
19	0x3d629209	0.05531505
20	0xbcd39362	-0.025827114
21	0xbcb581a8	-0.022156551
22	0xbd4161e7	-0.047212508
23	0xbcde578f	-0.02714136
24	0x3d7dc292	0.061953135
25	0xbb81c87e	-0.003960668
26	0x3a427c3e	0.0007419026
27	0x3c581925	0.013189589
28	0xbc90613b	-0.017624488
29	0x3ca33f29	0.019927578
30	0xbd875d18	-0.06609553
31	0x3c514631	0.012773083
32	0x3b902688	0.0043991245
33	0x3d31ca9f	0.043406125
34	0x3d691647	0.05690601
35	0x3c4bd0f8	0.012439959
36	0x3da4fd02	0.0805607
37	0x3c7b74ac	0.015347641
38	0x3d9289d2	0.071551934
39	0x3d6f5fdc	0.058441028
40	0xbd2d7e69	-0.042356882
41	0x3e137a24	0.14402062
42	0x3d230176	0.039796315
43	0x3d60c8b2	0.054878898
44	0x3d4ba00a	0.049713172
45	0x3d81a6e4	0.0633066
46	0x3ca87d3d	0.02056753
47	0x3db29c91	0.08721269
48	0x3c22b772	0.009931432
49	0x3db7edf6	0.08980934
50	0xbc960b60	-0.01831597
51	0xbc9d9479	-0.019235836
52	0x3cae84fb	0.021303644
53	0x3da03128	0.07821876
54	0xbce5ec6c	-0.028066836
55	0x3c9ffdd5	0.019530216
56	0xbd8a9e6f	-0.067685
57	0x3dfff5fe	0.12498091
58	0xbdb53fa1	-0.08850027
59	0x3df36282	0.11884023
60	0x3c470937	0.012148193
61	0x3b1b1317	0.0023662501
62	0x3d4be685	0.049780387
63	0xbd6d2052	-0.05789215
64	0xbd8c8cfe	-0.068628296
65	0xbd81d26e	-0.063389644
66	0xbd767090	-0.06016594
67	0xbda20700	-0.079114914
68	0x3d91c3b9	0.07117409
69	0x3e5fa6e1	0.21841003
70	0x3df91b92	0.12163462
71	0x3dd92c4c	0.10604152
72	0x3d0b7a85	0.03405239
73	0xbc97f0f3	-0.01854751
74	0x3ccb499b	0.024815371
75	0x3ce707bd	0.028201932
76	0xbd86703e	-0.06564377
77	0xbbc6b747	-0.006064329
78	0xbd1ff354	-0.039050415
79	0x3cbd1e77	0.023085816
80	0x3cef4653	0.029208338
81	0x3d7f59da	0.06234155
82	0x3dbf727f	0.0934801
83	0x3e19ee9f	0.15032433
84	0xbd662c3b	-0.056194525
85	0xbcf540f7	-0.029938204
86	0x3d0d9375	0.034564454
87	0xbd2f4045	-0.0427859
88	0xb8df4043	-0.00010645438
89	0x3d8fcae5	0.07021121
90	0x3c908618	0.017642066
91	0x3d5cd663	0.053915393
92	0x3dc66ba9	0.09688503
93	0x3de9d704	0.11417964
94	0x3d437053	0.047714543
95	0x3cd1b18b	0.025597354
96	0xbc13151c	-0.008977201
97	0xbd8e92f1	-0.069616206
98	0xbd8a1175	-0.06741611
99	0xbd83f555	-0.06443278
100	0x3c96b21e	0.01839548
101	0x3d466151	0.048432652
102	0x3d2855f2	0.04109759
103	0x3d5694b5	0.05238791
104	0xbd830d4e	-0.06399022
105	0x3b01bf2b	0.0019797783
106	0xbddced7a	-0.107874826
107	0xbd8446e0	-0.06458831
108	0x3d146441	0.036228422
109	0x3ccaa793	0.024738109
110	0x3d23770b	0.03990845
111	0x3d1fbcd4	0.03899844
112	0xbc3a77ec	-0.011381131
113	0xbc85120f	-0.016243963
114	0xbd1ee420	-0.038791776
115	0xbc0d92c7	-0.0086409515
116	0x3d25aae6	0.040446185
117	0x3d0a213b	0.033723097
118	0xbb90f6a4	-0.004423933
119	0xbd435e66	-0.047697447
120	0x3d172ed9	0.03690991
121	0xbb8f5fd4	-0.0043754373
122	0xbd063161	-0.032761935
123	0x3d69faa4	0.057123795
124	0xbaa55c8f	-0.0012616086
125	0x3c75e92f	0.015009209
126	0xbd8e4f01	-0.069486625
127	0x3a747c34	0.0009326369
128	0xbdb35066	-0.08755569
129	0x3dafd765	0.08586005
130	0x3d072015	0.03298958
131	0x3d17003d	0.03686546
132	0xbcaafe72	-0.020873282
133	0x3c8da548	0.017290726
134	0x3a87dafb	0.0010364944
135	0xbd498ea6	-0.049208306
136	0x3c359ddd	0.011085001
137	0x3d80ccbe	0.062890515
138	0x3e2deeea	0.1698567
139	0x3cb1a69e	0.021685895
140	0x3d83a720	0.06428361
141	0x3d9f937a	0.07791801
142	0x3e21b3b2	0.15791205
143	0x3df7cf54	0.121000916
144	0xbc48a089	-0.012245306
145	0x3bf87697	0.0075824964
146	0xbc91350c	-0.01772549
147	0xbbabbf2a	-0.0052412944
148	0xbd0bdebf	-0.034147974
149	0x3c3c3a19	0.011488461
150	0xbe2d45d7	-0.16921173
151	0xbe150de4	-0.1455608
152	0xbd524864	-0.05133857
153	0xbd207418	-0.039173216
154	0xbdbb1666	-0.091351315
155	0xbd19ef24	-0.037581578
156	0x3d157d95	0.036496717
157	0x3ce649c4	0.028111346
158	0x3ac2aae2	0.0014851952
159	0xbba43533	-0.0050112247
160	0x3c506724	0.012719903
161	0x3d5adcf4	0.053433374
162	0x3de95b95	0.11394421
163	0x3d732daf	0.05936974
164	0x3e0ef202	0.13959506
165	0xba03be82	-0.00050256413
166	0x3df83d3b	0.12121054
167	0x3d6ff916	0.058587156
168	0xbcfa8a64	-0.030583568
169	0x3c4889b5	0.012239863
170	0x3d0160bc	0.031586394
171	0xbcbb0923	-0.022831505
172	0x3b1314e1	0.0022442865
173	0x3b1cf630	0.002395045
174	0xbd4a977f	-0.049460884
175	0x3c963542	0.018335942
176	0x3c16c640	0.00920254
177	0x3d162206	0.03665354
178	0x3c881df8	0.016615853
179	0xbbfac8d6	-0.007653336
180	0x3c3255b1	0.010884688
181	0x3ddd15a8	0.10795146
182	0x3d3c74e1	0.046009902
183	0x3dfe715c	0.12423965
184	0x3c6192ea	0.013767937
185	0x3dc0305b	0.09384223
186	0x3c308ec6	0.010776227
187	0x3d7dd2d0	0.061968625
188	0xbcccf7e3	-0.025020545
189	0xbc51ea05	-0.012812142
190	0x3c872452	0.016496811
191	0x3ce9c890	0.028538018
192	0x3d0cf026	0.03440871
193	0x3ce08857	0.027408762
194	0xbcd09d27	-0.025465561
195	0x3bea6000	0.0071525574
196	0xbde5fb43	-0.11229565
197	0xbdad17f2	-0.08451833
198	0xbda7f14b	-0.0820032
199	0xbd361171	-0.044450227
200	0xbd2b638e	-0.04184299
201	0x3d76b9d0	0.0602358
202	0x3d2eae5f	0.042646762
203	0x3b6bc1e4	0.0035973722
204	0x3c7d26bd	0.01545113
205	0xbddedff8	-0.108825624
206	0xbc4584c2	-0.012055578
207	0xbc6487a0	-0.013948351
208	0x3dbf58f1	0.09343136
209	0xbcc40b02	-0.02393103
210	0xbcce8755	-0.025211016
211	0xbca7639e	-0.020433243
212	0x3d4d4d5c	0.050122604
213	0x3db5bca7	0.08873873
214	0x3dcd6c25	0.100303926
215	0x3d92d751	0.071699746
216	0xbc82ba5e	-0.015958007
217	0xbd16bfc9	-0.036803994
218	0xbdcb98fe	-0.0994129
219	0x3c9550e0	0.01822704
220	0xbd399e65	-0.045317072
221	0x3d6af897	0.05736598
222	0x3cca474e	0.024692204
223	0x3d371eee	0.04470723
224	0x3d9600f2	0.07324399
225	0x3c11f2e0	0.008908004
226	0xbcdcbd32	-0.026945684
227	0xbd827294	-0.0636951
228	0x3db55db7	0.08855765
229	0x3de2e2dd	0.11078427
230	0x3df972ea	0.12180121
231	0x3dfeb977	0.12437718
232	0xbda6606e	-0.08123861
233	0x3d1e0e8d	0.038588095
234	0x3cdde82e	0.027088251
235	0x3c46a72e	0.01212482
236	0xbc2c9a80	-0.010534883
237	0xbba8a43f	-0.005146533
238	0x3b157ceb	0.0022810053
239	0xbd974f23	-0.07388141
240	0x3ce04740	0.027377725
241	0xbd72df22	-0.059294827
242	0x3cfb9126	0.03070886
243	0x3c7667c9	0.015039393
244	0xbd13cfcb	-0.03608684
245	0xbccca14f	-0.024979262
246	0xbd160be1	-0.036632422
247	0xbd98b4bf	-0.074563496
248	0x3ca337f7	0.019924147
249	0xbd7f6488	-0.062351733
250	0x3d1bfe22	0.038084157
251	0xbd85cb70	-0.06532943
252	0xbd46fb55	-0.048579533
253	0xbd9bad5e	-0.076014265
254	0xbcb6d252	-0.022317085
255	0xbd40ad6a	-0.04704038
