pretrained_weights/mtcnn/best_rnet.pth (torch_old, 239719 bytes, 16 tensors)

features.conv1.weight f4 [28, 3, 3, 3]
0	0xbe8b50f5	-0.27210203
1	0xbf26a873	-0.65100783
2	0xbf66dab0	-0.9017744
3	0x3df2a539	0.1184792
4	0xbe33367d	-0.17501254
5	0x3eba7e97	0.36424705
6	0x3f5fe946	0.8746532
7	0x3f2d70e6	0.67750394
8	0x3bbf14f8	0.005831357
9	0x3e8bfff4	0.27343714
10	0x3e68d013	0.22735624
11	0x3ea6a06c	0.32544267
12	0xbe778e9d	-0.24175496
13	0x3e054dfd	0.13018031
14	0x3f2667f1	0.6500235
15	0xbed4b18c	-0.41541708
16	0xbec58b42	-0.38582808
17	0xbf5dbda1	-0.86617476
18	0x3e74da9e	0.23911521
19	0x3dc75b9a	0.097342685
20	0x3dc18810	0.0944978
21	0xbe8a229e	-0.26979536
22	0x3e6b84e3	0.22999911
23	0x3f1c3810	0.61023045
24	0xbe8ffdc1	-0.28123286
25	0xbd67fe82	-0.056639202
26	0xbedb9d4d	-0.42893448
27	0x3f0431fb	0.51638764
28	0x3f055840	0.52087784
29	0x3e6808bf	0.22659586
30	0xbf1a0867	-0.6016907
31	0xbf5008ac	-0.8126323
32	0xbf443680	-0.7664566
33	0x3ecaec66	0.39633483
34	0x3e17610e	0.14783117
35	0x3ed1b581	0.4095879
36	0x3e35fdb0	0.17772555
37	0x3e8921e5	0.26783672
38	0x3ec9aac6	0.39388102
39	0xbf19c0da	-0.60059893
40	0xbf1a2921	-0.6021901
41	0xbf09c10d	-0.538102
42	0x3ea5a25d	0.32350436
43	0x3e1072ae	0.14106247
44	0x3dc5c864	0.09657362
45	0x3e807063	0.25085744
46	0x3e8ca215	0.2746741
47	0x3e16016d	0.14648981
48	0xbeaeb076	-0.34119004
49	0xbecf4e19	-0.4048927
50	0xbe1ba3f4	-0.15199262
51	0xbd74f784	-0.05980636
52	0x3f03fc66	0.51557004
53	0x3ecdec90	0.40219545
54	0x3e33aea1	0.17547084
55	0xbe13cd8c	-0.14433879
56	0xbed9c3ba	-0.4253214
57	0xbe1aec42	-0.15129188
58	0xbe9e014e	-0.3086037
59	0x3ea4fed6	0.32225674
60	0x3e0f7191	0.14008166
61	0xbe0a5769	-0.13509907
62	0x3f158405	0.5840457
63	0x3f21292b	0.6295344
64	0xbeb3dab9	-0.3512781
65	0xbe9efbb2	-0.31051403
66	0x3ed6bd7b	0.41941437
67	0xbe6dd5ab	-0.23226039
68	0x3e57802e	0.2104499
69	0x3e0872d8	0.1332506
70	0xbdb3de1e	-0.087826
71	0x3e872f65	0.26403347
72	0x3e3857b1	0.18002202
73	0xbef7569f	-0.48308274
74	0xbeccc450	-0.39993525
75	0x3d66f28c	0.056383654
76	0xbe61aa02	-0.22037509
77	0xbdc1ed3c	-0.09469077
78	0x3efb95a5	0.49137607
79	0x3b8f9e39	0.0043828753
80	0xbe72fe39	-0.23729791
81	0xbdc45c7a	-0.09587951
82	0xbd9f8e77	-0.07790845
83	0xbedf2876	-0.43585557
84	0x3da2c707	0.07948118
85	0xbe802eb5	-0.25035635
86	0xbef83667	-0.48479006
87	0xbf096fe6	-0.5368637
88	0xbf291c0a	-0.6605841
89	0xbf6498ce	-0.8929566
90	0x3e14ebb6	0.14543042
91	0x3e450c73	0.1924303
92	0x3f013b7f	0.5048141
93	0x3e689a58	0.22715127
94	0x3e665b25	0.22495706
95	0x3eae14d5	0.3400027
96	0x3eb915ed	0.3614954
97	0x3ee82de2	0.45347506
98	0x3f1276bd	0.5721243
99	0x3aea08eb	0.0017855441
100	0xbdda3fd5	-0.10656706
101	0x3c61b837	0.01377683
102	0xbe5b444a	-0.21412769
103	0xbb46b32d	-0.00303192
104	0x3e3022ba	0.17200747
105	0x3e275e64	0.16344601
106	0x3e35865e	0.17727038
107	0x3eae3576	0.34025162
108	0x3edd3b74	0.43209422
109	0x3ea849af	0.32868716
110	0x3eb50f9f	0.3536348
111	0x3e79f4ed	0.24409838
112	0x3d35b3c5	0.044360895
113	0x3d009a5c	0.03139721
114	0xbefb1413	-0.49038753
115	0xbed05c9f	-0.40695664
116	0xbf047b08	-0.5175023
117	0x3e84a340	0.259058
118	0x3e414332	0.18873289
119	0x3eb7cce3	0.35898504
120	0x3e3065f3	0.1722639
121	0x3e4b00d1	0.1982453
122	0x3e0213f9	0.12702931
123	0xbeaea907	-0.34113333
124	0xbec58059	-0.38574484
125	0xbee8ae84	-0.45445645
126	0xbdac2e5f	-0.08407282
127	0x3bd73d2f	0.006568573
128	0x3e5ebfef	0.21752904
129	0x3e3134a9	0.17305245
130	0xbc990228	-0.018677786
131	0x3e5d212c	0.21594685
132	0xbe82435d	-0.2544202
133	0xbe42b9c3	-0.19016175
134	0xbe74ef1b	-0.23919336
135	0xbd8b97f6	-0.068160936
136	0x3e7c65a3	0.24648146
137	0x3eb93c13	0.36178645
138	0x3ee2a354	0.44265234
139	0x3ed48440	0.4150715
140	0x3ee1aad4	0.44075644
141	0xbfa75dd6	-1.3075511
142	0x3cfe4cf0	0.031042546
143	0xbdb0fe6f	-0.08642279
144	0xbd26d05f	-0.040726062
145	0xbedfa2b3	-0.43678817
146	0xbd6363a5	-0.05551495
147	0x3f35cb5e	0.7101344
148	0xbe196403	-0.14979558
149	0xbd519cda	-0.051174976
150	0xbf397287	-0.7244038
151	0xbd4f9894	-0.05068262
152	0xbe9eda56	-0.31025952
153	0xbdff3688	-0.12461573
154	0xbee5944e	-0.4483971
155	0xbd93fac9	-0.07225568
156	0x3f06bca5	0.526316
157	0xbe260d86	-0.16216096
158	0x3e529066	0.20562896
159	0xbe383c22	-0.17991689
160	0x3eeab9e2	0.45844942
161	0x3d8ccef2	0.06875409
162	0xbf50b8f0	-0.8153219
163	0xbf5c1206	-0.85965
164	0xbf4b70b5	-0.7946885
165	0xbde87696	-0.113507435
166	0x3e8afbad	0.27145138
167	0x3e6ee0a9	0.23327889
168	0x3f17accf	0.5924806
169	0x3f1671e8	0.5876756
170	0x3f16ff6f	0.5898351
171	0xbe801add	-0.25020495
172	0xbd1c94d7	-0.038227882
173	0x3aac9d25	0.0013169391
174	0xbe030cc3	-0.12797837
175	0x3d078862	0.03308905
176	0xbdb7599e	-0.0895264
177	0x3cfec3c1	0.031099202
178	0x3ef1a592	0.47196633
179	0x3d5debe0	0.054180026
180	0xbd0ea4f0	-0.034825265
181	0x3dbf76a0	0.09348798
182	0x3e034a21	0.12821247
183	0xbd9de63b	-0.077099286
184	0x3e445e38	0.19176567
185	0x3cbe5c10	0.023237258
186	0xbe411a99	-0.18857802
187	0x3e2e2df2	0.17009714
188	0xbe6a33f4	-0.22871381
189	0xbeaf3ba5	-0.34225193
190	0xbebfd3c4	-0.37466252
191	0xbe205c4c	-0.15660208
192	0xbf42d111	-0.7610026
193	0xbf0ccab0	-0.54996777
194	0xbe8c7921	-0.27436164
195	0x3e34b584	0.17647368
196	0xbf14de01	-0.5815125
197	0xbe425ff9	-0.18981923
198	0x3f1fbca5	0.62397224
199	0x3ee1a2ab	0.44069418
200	0x3ecf0d00	0.40439606
201	0x3e0edc6c	0.13951272
202	0x3d9576a6	0.07298021
203	0x3ee5d7c7	0.44891188
204	0x3f0f0242	0.5586282
205	0xbe80df50	-0.25170374
206	0x3d9aa011	0.075500615
207	0x3f01eedb	0.5075509
208	0x3ec43c50	0.38327265
209	0x3e429ef1	0.19005944
210	0xbe0cb289	-0.13739981
211	0xbe7137d2	-0.2355645
212	0x3e2a5ec8	0.16637719
213	0x3d87fdb3	0.06640186
214	0xbeb7bf61	-0.35888198
215	0xbf09e56b	-0.5386569
216	0x3e04826b	0.12940376
217	0x3f03d687	0.5149922
218	0x3e2113c1	0.15730192
219	0x3e6df3fd	0.23237605
220	0x3e97122d	0.29506055
221	0xbedf5c1b	-0.43624958
222	0x3e3a6da7	0.18205892
223	0xbec37eac	-0.3818258
224	0xbf027379	-0.5095745
225	0x3e930be9	0.28720024
226	0x3e8f5f06	0.28002185
227	0xbebe4ad3	-0.3716646
228	0x3ed316f8	0.4122846
229	0xbd02415a	-0.031800605
230	0xbf02ae20	-0.51046944
231	0x3d853be3	0.06505563
232	0xbed1dbe4	-0.40988076
233	0xbecb3515	-0.39688936
234	0x3e27dfbe	0.16393945
235	0x3ed4b17d	0.41541663
236	0xbe6cea1f	-0.23136185
237	0x3eaf8834	0.34283602
238	0x3e74f853	0.23922853
239	0xbecab529	-0.3959134
240	0xbc4bf91b	-0.012449528
241	0xbc913f8f	-0.017730502
242	0xbcb5a927	-0.022175385
243	0xbd1b4c56	-0.037914596
244	0xbe8337f7	-0.25628635
245	0xbe058526	-0.13039073
246	0xbe467141	-0.1937914
247	0xbda17ed7	-0.07885521
248	0x3e139c56	0.14415106
249	0xbdaeb175	-0.08529941
250	0xbebb16f7	-0.36540958
251	0xbe92c71d	-0.28667536
252	0x3f24ea39	0.64419895
253	0x3ed5152b	0.41617712
254	0x3eeeb9a6	0.46626014
255	0x3e3579c4	0.17722231

features.conv1.bias f4 [28]
0	0xbd5ccaa4	-0.05390419
1	0xbc0c236b	-0.008553366
2	0xbf44bde3	-0.76852244
3	0x3f5ba14e	0.85793006
4	0xbd8dedb3	-0.06930103
5	0xbf33b985	-0.70204955
6	0xbf29d679	-0.66342884
7	0xbf2bb103	-0.67066973
8	0xbdb82374	-0.08991137
9	0xbce6c88e	-0.028171804
10	0xbe132f98	-0.14373624
11	0xbe97e780	-0.29668808
12	0xbead6ed7	-0.33873627
13	0xbdca548a	-0.09879406
14	0x3cd2c841	0.025730254
15	0xbf140788	-0.5782399
16	0xbe180b1c	-0.14847988
17	0xbf0a09fe	-0.53921497
18	0xbf4c71a7	-0.7986092
19	0xbeb60dfe	-0.3555755
20	0x3c42d17a	0.011890763
21	0xbf07957c	-0.5296247
22	0xbf04c747	-0.51866573
23	0xbf2ae1de	-0.66750896
24	0xbeda66d4	-0.42656577
25	0xbd8d8011	-0.06909192
26	0xbf2bce6f	-0.6711187
27	0x3bb23398	0.0054382794

features.prelu1.weight f4 [28]
0	0x3f442042	0.7661172
1	0x3f88df97	1.0693234
2	0x3d49bfd1	0.049255196
3	0x3f2130a3	0.6296484
4	0x3dc4264d	0.09577618
5	0x3d5897b5	0.052879054
6	0x3b3496c9	0.0027555695
7	0x3c917b86	0.017759096
8	0x3f1e99a6	0.619532
9	0x3e8b5959	0.27216604
10	0x3fa29843	1.2702717
11	0xba85bcb3	-0.0010203331
12	0x3f3ef5a7	0.74593586
13	0x3f82c4d9	1.0216323
14	0x3f152d90	0.5827265
15	0x3bd2223c	0.0064127725
16	0x3f0d6aab	0.5524089
17	0xbc252f10	-0.010082021
18	0x3c9be3b3	0.019029474
19	0x3f48a611	0.783784
20	0x3e0e63f0	0.1390531
21	0xbbcc7e4d	-0.006240642
22	0x3e19977e	0.14999196
23	0x3ddb89d6	0.107196495
24	0xbd183c89	-0.037167106
25	0x3f230a25	0.63687354
26	0x3d858695	0.0651981
27	0x3c647e0a	0.013946066

features.conv2.weight f4 [48, 28, 3, 3]
0	0x3ec13151	0.37732938
1	0x3ea107cf	0.3145127
2	0x3ec2cbb8	0.3804605
3	0x3e422f8e	0.18963453
4	0x3e5f114c	0.21783942
5	0x3ee1accf	0.44077155
6	0xbef6aa03	-0.48176584
7	0xbeacd0de	-0.33753103
8	0xbec19502	-0.37808996
9	0x3e5da33e	0.21644303
10	0xbf1bbd5a	-0.608358
11	0xbefda59e	-0.49540418
12	0x3e961516	0.29312962
13	0xbe8fb317	-0.28066322
14	0x3efc4046	0.49267787
15	0xbf899539	-1.0748664
16	0xbd7ec42d	-0.062198807
17	0x3f57a9f6	0.84243715
18	0xbef6a4ea	-0.48172694
19	0x3edc8b6b	0.43075117
20	0xbf1ae7cc	-0.60509944
21	0x3ec36af0	0.38167524
22	0xbec4cf80	-0.3843956
23	0xbe8e838a	-0.2783473
24	0xbe14ec94	-0.14543372
25	0x3f03acad	0.5143536
26	0xbed22e5c	-0.41050994
27	0x3f0dd4a0	0.55402565
28	0xbe6ee785	-0.23330505
29	0xbd37f5d3	-0.04491217
30	0xbe17d62a	-0.14827791
31	0xbf53007e	-0.82422626
32	0xbd0332f9	-0.032031033
33	0x3ef4ffa3	0.47851285
34	0xbcc17ab3	-0.023618078
35	0x3f4b101b	0.7932145
36	0x3dfefd2c	0.124506325
37	0xbef8c5a5	-0.4858829
38	0x3d5a6b46	0.05332496
39	0xbecf29fd	-0.40461722
40	0xbef634f5	-0.48087278
41	0x3f49f729	0.7889276
42	0xbf22d6f6	-0.63609254
43	0xbca143b4	-0.019685604
44	0x3e98d9f4	0.29853785
45	0x3e41d4ab	0.18928783
46	0x3f1b6d97	0.60714096
47	0x3ee6db3f	0.45089146
48	0xbe8ad837	-0.27118084
49	0x3cd5c1fd	0.026093477
50	0x3f88d78d	1.0690781
51	0xbe881fa9	-0.26586655
52	0xbea1707f	-0.3153114
53	0xbe3cdb62	-0.18443063
54	0xbf3664b3	-0.71247405
55	0xbe688d9f	-0.22710274
56	0x3d16856d	0.03674834
57	0x3e51b63a	0.2047967
58	0x3e9e97d1	0.30975202
59	0x3ed8a05c	0.42309844
60	0x3f30b503	0.690262
61	0x3e084c8c	0.1331045
62	0xbeba1cff	-0.36350247
63	0x3ed71ea6	0.4201557
64	0x3e073b6a	0.13206258
65	0xbed29130	-0.41126394
66	0x3ef1702c	0.47155893
67	0x3e7f1689	0.2491094
68	0xbed5e0f8	-0.417732
69	0xbde9ed3a	-0.114222005
70	0x3ec9874a	0.3936103
71	0x3e8a3a4e	0.26997608
72	0x3d945609	0.072429724
73	0x3e0a458e	0.13503096
74	0xbf71514b	-0.9426467
75	0x3f8a16bf	1.0788192
76	0x3f07b545	0.5301097
77	0x3e7199ba	0.23593798
78	0xbc0b68bd	-0.008508858
79	0xbe5b6cfe	-0.21428296
80	0xbe04b391	-0.12959124
81	0x3dd274aa	0.10276158
82	0x3d13b092	0.036057062
83	0x3c966b6d	0.018361771
84	0xbe4a2ef2	-0.1974447
85	0xbdd6f53e	-0.10495995
86	0xbef5d0d6	-0.48010892
87	0xbe188025	-0.14892633
88	0xbe118fe8	-0.14215052
89	0xbf0d7e93	-0.5527126
90	0xbe4fee17	-0.20305668
91	0xbf388176	-0.7207254
92	0x3f8c8e91	1.0981008
93	0xbefe55fa	-0.4967497
94	0x3ec7d31e	0.39028257
95	0xbdd98559	-0.10621137
96	0x3df07041	0.11740161
97	0x3e7c253f	0.24623583
98	0xbd3ed3fa	-0.046588875
99	0x3e7ea308	0.24866879
100	0xbc3f6f11	-0.011684195
101	0xbdfe502b	-0.124176346
102	0x3d197539	0.037465308
103	0xbe72e678	-0.2372073
104	0xbe1d15b4	-0.1534031
105	0xbdff9abc	-0.12480685
106	0xbd8e992d	-0.0696281
107	0x3f0e644f	0.5562181
108	0xbf899bec	-1.0750709
109	0xbf5433c8	-0.8289151
110	0x3d658f8b	0.056045096
111	0xbf522aa1	-0.82096297
112	0x3cb81943	0.022472983
113	0x3f53d0d6	0.82740533
114	0x3d6ebdf5	0.058286626
115	0x3ea02f5a	0.31286126
116	0x3f160141	0.58595663
117	0x3d446402	0.047946937
118	0xbf36f350	-0.71465015
119	0xbde1c1d3	-0.11023297
120	0xbf06047e	-0.52350605
121	0xbe481ff2	-0.19543436
122	0xbf303bbb	-0.6884114
123	0xbe223bc1	-0.15843107
124	0x3f30ed5e	0.69112194
125	0x3edb6669	0.4285157
126	0xbf0624c8	-0.52399874
127	0xbecf02aa	-0.4043172
128	0x3f355c6c	0.7084415
129	0xbe4dcdbe	-0.20098016
130	0x3deef2aa	0.11667378
131	0x3e5af0ac	0.21380872
132	0x3e7884d0	0.24269414
133	0xbe4a57f7	-0.19760118
134	0xbf08feee	-0.5351399
135	0x3eb8e203	0.36109933
136	0x3eb918a4	0.36151612
137	0xbf6c288f	-0.9224939
138	0xbc0543da	-0.008133853
139	0xbed44b38	-0.41463637
140	0xbeb10894	-0.34576857
141	0xbe4f63e1	-0.20252945
142	0x3ec32eb2	0.38121563
143	0xbf810d74	-1.008223
144	0xbca5b118	-0.020226046
145	0xbdd47a72	-0.10374917
146	0xbf3cdc96	-0.7377409
147	0xbd8fedef	-0.07027804
148	0x3fb00f91	1.375475
149	0x3dac9a9f	0.08427929
150	0x3e5d5c8b	0.21617334
151	0x3d561b43	0.052272093
152	0x3cd84e4a	0.026404519
153	0x3ef4becc	0.47801816
154	0xbf0c09de	-0.54702556
155	0x3f70e5f5	0.94100887
156	0x3edfc71e	0.43706602
157	0xbecdff04	-0.40233624
158	0x3e9596ab	0.29216513
159	0xbddf0433	-0.10889473
160	0xbf5fcfe6	-0.874266
161	0xbed24e5a	-0.41075402
162	0x3e740dc7	0.2383338
163	0x3eb3bc8c	0.35104787
164	0xbea87518	-0.32901835
165	0xbe7d5a91	-0.2474158
166	0x3e039ad9	0.12852038
167	0x3c1a57a2	0.009420307
168	0xbc3893bd	-0.011265692
169	0x3ded4aaa	0.11586507
170	0x3e180063	0.14843898
171	0xbe6e50ab	-0.2327296
172	0x3f3d8631	0.74032885
173	0xbe991184	-0.29896176
174	0xbe349f56	-0.17638907
175	0x3da00f2a	0.07815392
176	0x3f35ee18	0.7106643
177	0xbe812156	-0.25220746
178	0xbe9bcfa2	-0.3043185
179	0x3e927de3	0.2861167
180	0x3f56dda7	0.83931965
181	0x3e0f824e	0.14014551
182	0xbf4ded26	-0.80439985
183	0x3e890a1c	0.26765525
184	0xbed29803	-0.411316
185	0xbf2b550f	-0.66926664
186	0xbf2f716c	-0.68532443
187	0x3cd478f0	0.025936574
188	0xbdb14c9d	-0.08657191
189	0xbf0712a9	-0.5276285
190	0x3ebc3e9a	0.3676651
191	0xbef46975	-0.47736707
192	0xbea1a60d	-0.31572
193	0x3ecd2396	0.40066212
194	0x3cd72c94	0.026266374
195	0xbe403ff3	-0.18774395
196	0xbf65dac9	-0.89786965
197	0x3e809808	0.2511599
198	0x3e46109c	0.19342273
199	0x3e6fa5e4	0.23403126
200	0xbe53f7ec	-0.20700043
201	0x3e3ef432	0.1864784
202	0x3f0cd511	0.55012614
203	0xbe5a8d74	-0.21343023
204	0xbe5ce3dc	-0.21571296
205	0x3e9fc0c8	0.31201768
206	0xbea170ca	-0.31531364
207	0x3efaf860	0.4901762
208	0x3e01b1aa	0.1266543
209	0xbec7f0b5	-0.39050832
210	0x3e9b1cc6	0.3029539
211	0xbe001676	-0.12508568
212	0xbf9c6bf0	-1.222044
213	0xbeb7b75c	-0.3588208
214	0xbe519970	-0.20468688
215	0x3de0728e	0.109593496
216	0x3f334bf2	0.7003776
217	0xbbfaed66	-0.0076576946
218	0xbedb057b	-0.4277762
219	0x3e68a79a	0.22720185
220	0xbe41be5c	-0.18920273
221	0xbf2884f9	-0.658279
222	0x3d401eb7	0.046904292
223	0xbe339d44	-0.17540461
224	0x3e5458b1	0.20736958
225	0xbf1456e3	-0.5794508
226	0xbef8a661	-0.48564437
227	0x3f530d55	0.8244222
228	0xbd1e74d1	-0.038685624
229	0xbed63952	-0.41840607
230	0xbeb5e4e7	-0.355262
231	0xbe3c34c0	-0.18379498
232	0x3f131343	0.57451266
233	0xbd9bf9a9	-0.07615978
234	0x3e1eca73	0.15506916
235	0xbe4eaac5	-0.20182331
236	0x3ee33825	0.44378772
237	0xbeb2dda3	-0.3493472
238	0xbded9f7c	-0.11602685
239	0xbe306fe3	-0.17230181
240	0xbebfb81a	-0.37445146
241	0x3de8d465	0.11368636
242	0x3eb79584	0.3585626
243	0x3e1b1d04	0.15147787
244	0x3f59b6a7	0.8504433
245	0xbe18fd06	-0.14940271
246	0xbe2ce11d	-0.16882749
247	0x3f1e53be	0.6184653
248	0xbe878d2b	-0.2647489
249	0xbd6c8a55	-0.05774911
250	0x3db6ead6	0.0893151
251	0xbedd4229	-0.4321454
252	0x3d5e3e0d	0.054258395
253	0x3e489964	0.19589764
254	0x3f1840a6	0.59473646
255	0x3e8297a1	0.2550631

features.conv2.bias f4 [48]
0	0xbf05d500	-0.5227814
1	0xbed0faae	-0.40816253
2	0xbe8b92fa	-0.27260572
3	0x3d16ee32	0.036848255
4	0x3f3fb736	0.7488893
5	0xbee88088	-0.45410562
6	0xbf180ba7	-0.5939278
7	0xbe7c2bbb	-0.24626057
8	0xbe49124e	-0.19635889
9	0xbedec24c	-0.43507612
10	0xbf2888f3	-0.6583397
11	0x3ea73d42	0.32663924
12	0xbef76d55	-0.483256
13	0x3e418ab1	0.18900563
14	0x3ec1deca	0.37865287
15	0xbf92bae0	-1.146328
16	0x3e08f1ef	0.1337354
17	0xbf33afec	-0.7019031
18	0xbf0dcde8	-0.55392313
19	0x3dd9cb99	0.10634536
20	0xbf0450a0	-0.51685524
21	0xbec81067	-0.39075014
22	0xbf205bc4	-0.62640023
23	0xbfe95756	-1.8229778
24	0xbf0c2a92	-0.5475246
25	0xbeff746d	-0.49893513
26	0xbf2b404e	-0.66894996
27	0xbe953cf9	-0.2914808
28	0xbe4b284f	-0.19839595
29	0xbe9fd62a	-0.31218082
30	0xbed510b3	-0.41614303
31	0xbeda086a	-0.42584544
32	0xbf1eaf26	-0.61986005
33	0xbf062fa7	-0.5241646
34	0xbef32e80	-0.47496414
35	0xbf2c2c7d	-0.67255384
36	0xbefe604f	-0.49682853
37	0xbdf93335	-0.1216797
38	0xbf555b95	-0.8334287
39	0xbf86fdc3	-1.0546192
40	0xbf09a817	-0.5377211
41	0xbe555156	-0.20831808
42	0xbdf1a3cf	-0.11798822
43	0x3ea5395c	0.32270324
44	0xbefd99bf	-0.4953136
45	0xbefc122b	-0.4923261
46	0xbec239aa	-0.3793462
47	0xbea48a45	-0.3213674

features.prelu2.weight f4 [48]
0	0x3e9009c9	0.28132465
1	0x3d1bd9ac	0.038049385
2	0x3e059159	0.13043727
3	0x3d08261f	0.03323948
4	0x3e900a6b	0.28132948
5	0x3ec04709	0.37554196
6	0x3e39a1c1	0.1812811
7	0x3e4d33fa	0.20039359
8	0xbd278159	-0.04089484
9	0x3e4d0cb8	0.20024383
10	0x3e74711e	0.23871276
11	0x3e8c61a6	0.2741825
12	0x3e717d37	0.23582922
13	0x3e3317f4	0.17489606
14	0x3d054f45	0.0325463
15	0x3e862533	0.26200256
16	0x3ec2e59c	0.38065803
17	0x3e0685e7	0.13137017
18	0x3e67be79	0.22631253
19	0x3e82d7be	0.25555223
20	0x3eb9c541	0.36283305
21	0x3e31f736	0.1737946
22	0x3e7f26b9	0.24917115
23	0x3f06f4a5	0.5271705
24	0x3d36217a	0.04446552
25	0x3e146ca7	0.14494573
26	0x3c66c5d0	0.014085248
27	0x3e9546f3	0.29155692
28	0x3e3e7025	0.18597467
29	0x3e83ecb9	0.25766543
30	0x3ed96d95	0.42466417
31	0x3e6ce328	0.23133528
32	0x3dad8179	0.084719606
33	0x3e6821a3	0.22669081
34	0x3e95e71e	0.2927789
35	0x3ec80012	0.39062554
36	0x3dd36dd8	0.103236854
37	0x3e9d0df5	0.3067471
38	0x3ece912e	0.40345138
39	0x3e9e9e91	0.30980352
40	0x3e14cc1d	0.14530988
41	0x3e07bb04	0.13254935
42	0x3e3b3584	0.18282133
43	0x3e1b4383	0.15162472
44	0x3ec0c7f2	0.37652546
45	0x3e8edf6a	0.27904826
46	0x3ecbf210	0.39833117
47	0x3e33d6c6	0.17562398

features.conv3.weight f4 [64, 48, 2, 2]
0	0xbf05d9fb	-0.52285737
1	0x3eae5f2d	0.34056988
2	0x3d83bb18	0.0643217
3	0xbed51e70	-0.41624784
4	0x3e3958d0	0.18100286
5	0x3ba680b6	0.0050812615
6	0xbe826eae	-0.25475067
7	0x3d8faa5d	0.07014916
8	0xbeb18dcf	-0.34678504
9	0xbec68f8d	-0.38781396
10	0x3eb209e8	0.34773183
11	0x3ee179a2	0.4403811
12	0xbf281296	-0.6565336
13	0x3eb9c8f3	0.36286125
14	0x3ea520c7	0.3225157
15	0x3ea18a8d	0.31551018
16	0xbf5f84a2	-0.87311757
17	0xbf3dc825	-0.7413352
18	0xbdb7648a	-0.08954723
19	0x3e52d066	0.2058731
20	0xbe9e08d0	-0.30866098
21	0xbf39f6d0	-0.7264223
22	0xbe1c9e5f	-0.15294789
23	0x3ef576ce	0.47942203
24	0x3dddf28d	0.108372785
25	0xbe648f99	-0.22320403
26	0xbe755180	-0.23956871
27	0x3e558030	0.20849681
28	0x3f51ce00	0.81954956
29	0x3f0aa854	0.541631
30	0xbe4856f7	-0.19564424
31	0xbe29bb56	-0.16575369
32	0xbe2f5fd5	-0.17126401
33	0xbe74ae99	-0.23894729
34	0x3e80893c	0.25104702
35	0x3d3ede20	0.046598554
36	0x3f03f1a2	0.5154058
37	0x3e901380	0.28139877
38	0x3dd1e469	0.10248644
39	0x3e14891e	0.14505431
40	0xbf0bb5c6	-0.5457424
41	0x3d97b85b	0.0740821
42	0xbf3dc42f	-0.7412748
43	0x3f7710fb	0.96510285
44	0x3e4c5556	0.19954428
45	0x3f80b31a	1.0054657
46	0x3e38ef94	0.18060142
47	0x3f13dda5	0.5776008
48	0x3ec8d317	0.3922355
49	0x3e9d7f48	0.3076117
50	0xbf36efcf	-0.7145967
51	0xbe6240f7	-0.22095095
52	0x3e04434e	0.129163
53	0x3ef35109	0.47522762
54	0xbe21deb6	-0.15807614
55	0xbe0d71c7	-0.13812934
56	0x3e55d256	0.20881018
57	0xbe54a002	-0.20764163
58	0xbe2dea2b	-0.16983859
59	0xbeefb34f	-0.4681649
60	0xbcc36ee7	-0.023856593
61	0x3f26eb7b	0.65203065
62	0xbd70d6bd	-0.05879854
63	0x3dbdab6b	0.09261211
64	0xbea3d3b8	-0.31997466
65	0x3df34762	0.118788496
66	0xbf8ca1d1	-1.0986882
67	0xbda5c5dc	-0.08094379
68	0xbdaeb324	-0.08530262
69	0xbfcc2daf	-1.5951442
70	0x3f84bad5	1.0369517
71	0xbef54988	-0.47907662
72	0xbf359909	-0.7093664
73	0x3f02bbb4	0.5106766
74	0x3e8041c5	0.25050178
75	0xbc5d6024	-0.013511691
76	0xbecd6537	-0.40116283
77	0x3f9bbd58	1.2167158
78	0xbe6922c0	-0.22767162
79	0xbdc94478	-0.098275125
80	0xbed1aaa3	-0.40950498
81	0x3d74e65d	0.059790004
82	0xbde27d56	-0.11059062
83	0xbe8337ec	-0.25628603
84	0x3d8c6999	0.06856079
85	0x3f593920	0.8485279
86	0xbe931f29	-0.2873471
87	0xbeb51fea	-0.3537591
88	0xbe46ced8	-0.19414842
89	0x3dd10e41	0.10207797
90	0xbdfc6369	-0.123236485
91	0xbdaa4e00	-0.083156586
92	0xbef09d55	-0.46995035
93	0xbfcf1195	-1.6177241
94	0x3e805433	0.2506424
95	0x3e796a8c	0.2435705
96	0xbeae36fd	-0.34026328
97	0x3f4ee6a7	0.808207
98	0xbea33673	-0.3187748
99	0x3f1eb027	0.6198754
100	0xbf397a07	-0.72451824
101	0xbf2d39f9	-0.67666584
102	0xbe086aef	-0.13322042
103	0x3ee2537a	0.44204313
104	0x3e4d854a	0.20070377
105	0x3f5e751b	0.8689744
106	0xbea6970a	-0.3253711
107	0xbf5d6d9a	-0.86495364
108	0x3ef2eee1	0.47447875
109	0xbf028ecc	-0.5099914
110	0x3dd2cdeb	0.10293182
111	0xbe49fb6f	-0.1972482
112	0x3eee1df8	0.4650724
113	0xbe4befe4	-0.1991573
114	0xbea90d12	-0.33017784
115	0xbefa68f4	-0.48908198
116	0xbe16f5b4	-0.14742166
117	0xbe1cca42	-0.1531153
118	0xbe7291f7	-0.23688494
119	0x3c9d4831	0.019199463
120	0x3e5c0a4d	0.21488304
121	0xbf3f02e7	-0.74613804
122	0x3e3ffbe7	0.18748437
123	0x3d927350	0.071509
124	0xbcfe2c1f	-0.031026898
125	0x3fc3bf13	1.5292686
126	0xbe7e5588	-0.24837315
127	0xbf3ea0aa	-0.74463904
128	0xbec0f0bb	-0.37683663
129	0xbf02b06f	-0.51050466
130	0x3cbc4e1c	0.022986464
131	0x3d39b47b	0.045338135
132	0xbe48a168	-0.19592822
133	0xbea6a98c	-0.3255123
134	0x3ee1b7df	0.44085595
135	0xbe9b0af2	-0.30281788
136	0x3ed6975b	0.4191235
137	0x3f229a2e	0.6351651
138	0x3e304131	0.17212369
139	0x3dfb538c	0.12271795
140	0x3ed1c6f4	0.40972102
141	0x3da719db	0.081592284
142	0xbe8582f7	-0.2607648
143	0x3ead883d	0.33893004
144	0xbe20601b	-0.15661661
145	0xbf8fb0d9	-1.1225845
146	0x3cc1b02e	0.02364358
147	0xbec11ed0	-0.3771882
148	0xbe31107d	-0.17291446
149	0x3e6523c5	0.22376926
150	0xbd829378	-0.06375784
151	0xbb3d9c43	-0.002893225
152	0x3e32674f	0.17422222
153	0x3bef739c	0.007307483
154	0x3eb4bdc1	0.3530102
155	0x3db0325a	0.08603354
156	0x3f39b6ed	0.7254475
157	0x3e9df1f0	0.30848646
158	0xbf0c6b09	-0.5485082
159	0xbea883de	-0.32913107
160	0xbf9d4149	-1.2285548
161	0xbe97aa30	-0.2962203
162	0xbe9838a0	-0.297307
163	0xbd3784ef	-0.04480451
164	0xbcc02a63	-0.023457712
165	0xbe9d56e9	-0.3073037
166	0x3e8d0ec7	0.27550337
167	0xbe8b1c86	-0.271702
168	0xbf33b796	-0.70202005
169	0xbdb52280	-0.08844471
170	0xbe047a87	-0.12937365
171	0xbf27f8de	-0.65614116
172	0xbf4a032b	-0.78911084
173	0xbf38cd99	-0.7218872
174	0x3ed0ced6	0.40782803
175	0x3f1a79c2	0.6034204
176	0xbef97071	-0.48718598
177	0x3e6caf1d	0.23113675
178	0x3e19a1a8	0.15003073
179	0xbe4ff0a0	-0.20306635
180	0xbebdcd53	-0.37070712
181	0x3eb0bbb0	0.34518194
182	0x3e4d53d4	0.20051509
183	0xbd88c09e	-0.06677364
184	0xbf81267b	-1.0089868
185	0x3f83b341	1.0289079
186	0xbcf46a31	-0.029835792
187	0xbd7a608b	-0.061127227
188	0x3f28da4e	0.65958107
189	0xbf6dc7ce	-0.92883
190	0x3eb158de	0.34638113
191	0xbf007623	-0.5018026
192	0xbecab00f	-0.39587447
193	0x3d852ecb	0.06503066
194	0xbe8ed8f9	-0.27899912
195	0xbe8c83c9	-0.27444294
196	0xbf097057	-0.5368704
197	0x3e3bb190	0.18329453
198	0xbeaa3162	-0.332408
199	0xbd6ac1f9	-0.057313893
200	0xbd7d5f17	-0.061858263
201	0xbeb2b4f4	-0.3490368
202	0xbec13325	-0.37734333
203	0xbd9e3bcf	-0.07726251
204	0xbe66dedc	-0.22545952
205	0x3eb73169	0.35779884
206	0xbf23ace0	-0.6393566
207	0x3dec9f0f	0.115537755
208	0x3e856e42	0.26060683
209	0xbea8b6fa	-0.329521
210	0xbe571767	-0.21005021
211	0x3d4d1b06	0.0500746
212	0x3e99602f	0.29956195
213	0xbeda6d65	-0.42661586
214	0xbf152c4b	-0.5827071
215	0xbe87a386	-0.26491946
216	0x3d11638f	0.035495337
217	0x3f168a26	0.5880455
218	0xbe94fd31	-0.2909942
219	0x3e99422a	0.29933292
220	0xbeaad500	-0.3336563
221	0x3dce9867	0.10087662
222	0x3d324a6a	0.043527998
223	0x3e3c66b6	0.18398556
224	0xbd67c135	-0.05658074
225	0xbf014995	-0.505029
226	0x3f32585d	0.6966608
227	0xbe9db1c8	-0.307997
228	0xbe9b724e	-0.30360645
229	0x3f2163ad	0.6304272
230	0xbda692a8	-0.08133441
231	0x3f36a3c5	0.7134364
232	0x3e614d91	0.22002245
233	0xbe702010	-0.23449731
234	0xbd11a707	-0.03555968
235	0x3caa2019	0.020767258
236	0xbdc22dc0	-0.09481382
237	0x3f3782f5	0.716842
238	0xbed5fdf3	-0.4179531
239	0x3f8118d1	1.0085698
240	0xbef1723e	-0.47157472
241	0x3eb3a75b	0.3508862
242	0x3ea14b9d	0.31503
243	0xbeebced1	-0.46056226
244	0x3d842421	0.064522035
245	0x3f31b6dd	0.6941965
246	0xbf440edd	-0.7658518
247	0xbf0dd5ae	-0.55404174
248	0x3ec7e05e	0.39038366
249	0xbe6cf5df	-0.23140667
250	0x3a92307d	0.0011153367
251	0x3f3bbe5b	0.73337334
252	0x3e6b5c35	0.22984393
253	0x3f680065	0.906256
254	0xbe9430cb	-0.28943476
255	0x3ea832c6	0.32851237

features.conv3.bias f4 [64]
0	0xbdc6ebf9	-0.09712977
1	0xbaf956ce	-0.0019023062
2	0x3e94fc2a	0.29098636
3	0x3f3bb0d5	0.733167
4	0x3fbd7e51	1.4804174
5	0xbf9c4b8a	-1.2210553
6	0xbec3675f	-0.38164803
7	0x3f5f6ed6	0.872785
8	0x3f1efa4c	0.6210067
9	0xbf6ba6b3	-0.9205124
10	0x3f49d7d3	0.78844947
11	0xbf1debea	-0.616881
12	0x3f0b12e8	0.54325724
13	0xbe797344	-0.24360377
14	0xbe921b8c	-0.28536642
15	0x3dbc39d2	0.09190716
16	0x3f8e89db	1.113582
17	0xbf0875c0	-0.5330467
18	0xbe88563a	-0.26628286
19	0xbf111573	-0.56673354
20	0x3e34324d	0.17597313
21	0xbeca7122	-0.39539438
22	0x3d04ecb4	0.0324523
23	0x3decab8f	0.1155616
24	0xbf37b99b	-0.71767586
25	0xc034bcb5	-2.8240178
26	0xbf4994b0	-0.78742504
27	0xbf158b3e	-0.5841559
28	0xbe8ea8ef	-0.2786326
29	0x3ebf9d2b	0.37424597
30	0x3e176725	0.1478544
31	0xbf31219b	-0.691919
32	0x3fd9cac1	1.7015
33	0xc0154803	-2.3325202
34	0x3e606da8	0.2191683
35	0x3fcc8228	1.597722
36	0x3b8778d2	0.004134276
37	0xbedf9406	-0.4366762
38	0xbf06b656	-0.5262197
39	0xc03e841f	-2.976814
40	0xbf581b23	-0.8441641
41	0xbf0b7256	-0.5447134
42	0xbf9b30d1	-1.2124273
43	0xbf584c29	-0.8449121
44	0x3f8d2b51	1.1028844
45	0x3f003a49	0.50088936
46	0xbfc359f6	-1.5261829
47	0x3e1bb999	0.15207519
48	0x3ea692b4	0.325338
49	0x3f316d62	0.6930753
50	0x3dfca21b	0.12335607
51	0x3f271c1f	0.65277284
52	0x3e49f5f9	0.19722737
53	0x3d52308e	0.051315837
54	0x3ef3c79b	0.47613224
55	0xbf3fddd2	-0.74947846
56	0xbec047ea	-0.37554866
57	0xbfeb8352	-1.8399451
58	0x3f971c5f	1.1805533
59	0x3fde0062	1.7343867
60	0xbf84fabd	-1.0389019
61	0xbdaab19a	-0.08334656
62	0xbe8dece5	-0.277198
63	0x3e810e67	0.252063

features.prelu3.weight f4 [64]
0	0x3c7ea049	0.015541145
1	0xbbac10dd	-0.0052510337
2	0x3d042357	0.032260265
3	0x3c550ed3	0.013004023
4	0x3e51ae9c	0.20476764
5	0xbd766ec5	-0.06016423
6	0x3d020880	0.031746387
7	0x3e2c2d94	0.16814262
8	0xbccecb78	-0.025243506
9	0x3c6f889c	0.014619973
10	0x3e87add9	0.26499823
11	0x3d1bccf5	0.03803726
12	0x3df3628e	0.11884032
13	0xbd931046	-0.07180838
14	0xbc294ff3	-0.010334003
15	0xbcdf9fd4	-0.027297892
16	0xbd3a874a	-0.045539178
17	0xbc0d8112	-0.00863673
18	0x3bf06905	0.007336738
19	0x3cc562e6	0.02409501
20	0x3d2c76fc	0.04210566
21	0xbc915011	-0.017738374
22	0xbd6788ae	-0.056526832
23	0x3e85648f	0.26053283
24	0x3d23c941	0.039986853
25	0x3e87b7fb	0.26507553
26	0x3c917696	0.017756741
27	0x3c791ccb	0.015204619
28	0x3c15006d	0.00909434
29	0xbde637ad	-0.11241088
30	0x3c6b3ebb	0.014358218
31	0xbd635208	-0.055498153
32	0xbca3df0f	-0.020003824
33	0x3d96d9e5	0.07365779
34	0xbd8a8fb8	-0.067656934
35	0x3d83c0f4	0.06433287
36	0xbd707cae	-0.058712654
37	0x3bbad6b7	0.0057018655
38	0xbcc472e3	-0.023980564
39	0x3e0cda1f	0.13755082
40	0x3c9786c0	0.018496871
41	0xbcd5e41d	-0.02610975
42	0xbd8c8497	-0.06861227
43	0xbd6885f3	-0.05676837
44	0xbd20b42b	-0.03923432
45	0x3e350075	0.17675956
46	0x3dc2b385	0.09506897
47	0xbbd589c4	-0.006516667
48	0x3d50f91c	0.05101882
49	0xbcaa969a	-0.020823766
50	0xbd731f47	-0.059356
51	0x3d35d4dc	0.04439245
52	0x3d1ceeca	0.038313664
53	0x3d1ac9c9	0.037790094
54	0x3e12a8ef	0.14322256
55	0x3d1b9fc1	0.03799415
56	0xbc1001de	-0.008789508
57	0x3c832146	0.016007077
58	0xbcf00baa	-0.029302437
59	0x3eb81b76	0.3595845
60	0x3d401988	0.04689935
61	0x3bbb8173	0.0057222187
62	0xbc9aa5ab	-0.018877825
63	0x3d1e265c	0.0386108

features.conv4.weight f4 [128, 256]
0	0xbd1e4645	-0.038641233
1	0xbd72a0d2	-0.0592354
2	0x3b927c89	0.004470412
3	0x3e164305	0.14674003
4	0xbec3d274	-0.382465
5	0xbd362c6f	-0.04447597
6	0x3e1fbcd7	0.1559938
7	0x3e4f78f4	0.20260984
8	0x3e8d87a3	0.27642545
9	0x3db225a1	0.086985834
10	0x3d4d4f7a	0.050124623
11	0x3d5add88	0.053433925
12	0x3d243cb4	0.040096954
13	0x3d60f16f	0.05491775
14	0x3d8fbe3a	0.07018705
15	0xbd31673c	-0.043311343
16	0xbe475434	-0.19465715
17	0x3de3f63c	0.1113095
18	0xbc8ff582	-0.017573122
19	0x3e87c7e5	0.26519695
20	0xbe4e010c	-0.20117587
21	0xbe3fb19b	-0.18720095
22	0xbe5f19c6	-0.21787176
23	0xbe48d281	-0.19611551
24	0xbd955409	-0.07291419
25	0xbcc217b1	-0.023692938
26	0xbd39012c	-0.045167133
27	0x3c96cf7a	0.01840948
28	0xbcc04ea0	-0.023474991
29	0xbb4d3c07	-0.0031316297
30	0x3e3e3bcb	0.18577497
31	0xbd0f2ec8	-0.034956723
32	0x3dbde680	0.0927248
33	0xbe9573a9	-0.29189804
34	0xbe3c397b	-0.18381302
35	0xbea44295	-0.32082048
36	0xbf67cc21	-0.9054585
37	0xbf79b89f	-0.97547334
38	0xbe857c14	-0.26071227
39	0xbeb64f7d	-0.3560752
40	0xbd085849	-0.03328732
41	0x3e888d62	0.26670367
42	0xbd3a77dd	-0.045524467
43	0xbcd1134a	-0.025521893
44	0xbde3fe0e	-0.111324415
45	0x3d073388	0.03300813
46	0xbe23e5a7	-0.16005574
47	0x3d94b1b0	0.07260454
48	0x3e29058d	0.16506024
49	0xbe80fc67	-0.25192568
50	0xbd913457	-0.07090061
51	0x3d0f5152	0.034989662
52	0xbe284f7b	-0.1643657
53	0x3d3e1069	0.04640237
54	0xbd4a0196	-0.04931792
55	0xba8b33be	-0.0010620279
56	0x3cef6ce9	0.029226737
57	0x3d2459ed	0.040124822
58	0x3b6048d9	0.0034223108
59	0xbd3f10ca	-0.04664687
60	0x3e09194c	0.13388556
61	0xb884f4db	-6.3398584e-05
62	0x3dc83725	0.09776143
63	0xbd646b5c	-0.05576645
64	0xbd81b2c0	-0.06332922
65	0x3e818b90	0.2530179
66	0xbd083a37	-0.033258643
67	0xbd324bb1	-0.043529216
68	0x3dcb8398	0.09937209
69	0x3e420856	0.18948492
70	0x3db8e3e3	0.09027841
71	0x3e51829b	0.20459978
72	0xbcfa526d	-0.030556882
73	0x3d205169	0.03914014
74	0xbe091c0b	-0.13389604
75	0xbba68abe	-0.0050824573
76	0xbe96304b	-0.2933372
77	0x3e3cf254	0.18451816
78	0xbc456704	-0.012048487
79	0x3e29a9d7	0.16568695
80	0x3e43f442	0.19136146
81	0x3d8d85b9	0.06910271
82	0xbe3bcb40	-0.18339252
83	0x3e76dbf2	0.2410734
84	0xbd89e695	-0.06733433
85	0xbd2b6e02	-0.04185296
86	0xbd55f555	-0.05223592
87	0xbde00263	-0.10937955
88	0x3c203bd9	0.009779894
89	0xbe76664d	-0.24062462
90	0xbe03cce2	-0.12871125
91	0xbe1a5f42	-0.150754
92	0xbdb29f05	-0.08721737
93	0xbd0c76f7	-0.03429314
94	0xbd9a5465	-0.07535628
95	0x3e5bcdb3	0.21465187
96	0xbce44d3a	-0.027868856
97	0x3d474043	0.04864527
98	0xbc1bbfc1	-0.009506167
99	0xbd800370	-0.06250656
100	0x3c2dcf0e	0.010608448
101	0xbd7a5663	-0.06111754
102	0xbe4d7999	-0.20065917
103	0xbe8f2aae	-0.2796225
104	0xbe8254b9	-0.25455263
105	0xbdc694c8	-0.096963465
106	0xbd9ef5af	-0.07761704
107	0xbd6a97bf	-0.057273623
108	0x3b585f90	0.0033015944
109	0x3c8615c0	0.016367793
110	0xbe77b482	-0.24189952
111	0xbce838ec	-0.028347455
112	0xbdf97f6a	-0.121825054
113	0xbdbae275	-0.091252245
114	0xbb84f41e	-0.0040574213
115	0x3d820def	0.06350314
116	0x3d8061f2	0.062686816
117	0x3d44a19a	0.048005678
118	0x3d685b0e	0.05672746
119	0x3e07099b	0.13187258
120	0xbf0a1c1f	-0.5394916
121	0xbf5515fb	-0.83236665
122	0xbeb4f26f	-0.35341212
123	0xbedd9caf	-0.43283603
124	0xbd4e599a	-0.05037842
125	0xbd52b2b8	-0.05143997
126	0x3dcc1d8d	0.09966574
127	0xbe8261ba	-0.25465184
128	0xbe7c635e	-0.2464728
129	0xbea6f0bd	-0.32605544
130	0xba5495cb	-0.0008109479
131	0xbd2b9477	-0.041889634
132	0x3d9f0aab	0.07765707
133	0xbdc3df09	-0.09564025
134	0xbd163ccd	-0.036679078
135	0xbe1adb69	-0.15122761
136	0x3e113cb0	0.14183307
137	0x3decc690	0.1156131
138	0x3d472135	0.048615653
139	0xbcc32c80	-0.02382493
140	0xbdbf702a	-0.093475655
141	0xbe5286eb	-0.2055928
142	0x3d97c8df	0.0741136
143	0xbde5ccb3	-0.11220684
144	0xbe74dee7	-0.23913155
145	0xbdd32c7d	-0.1031122
146	0xbe09db71	-0.13462617
147	0xbd646492	-0.055759974
148	0x3c909204	0.01764775
149	0x3d4435f9	0.047903035
150	0x3dc449d1	0.09584392
151	0x3d8e4aae	0.06947838
152	0xbd22c44b	-0.03973798
153	0xbc37d734	-0.011220742
154	0x3ceac1d7	0.028656883
155	0x3e782495	0.24232705
156	0xbca10ddf	-0.019659935
157	0x3d3534e1	0.044239882
158	0x3dc26158	0.09491223
159	0x3d23c079	0.039978478
160	0xbcba2abd	-0.022725457
161	0xbd897985	-0.06712631
162	0x3c8f1b72	0.017469142
163	0x3c95e400	0.018297195
164	0xbe854cc7	-0.2603514
165	0xbdc42902	-0.09578134
166	0xbe8597b5	-0.26092306
167	0xbaf0647e	-0.0018340496
168	0xbd98bbe6	-0.07457714
169	0xbdd12fcd	-0.102141954
170	0xbc14d699	-0.009084367
171	0xbc84f222	-0.01622874
172	0xbea7a85c	-0.32745636
173	0xbede8c73	-0.4346653
174	0xbdd1a5ec	-0.10236725
175	0xbe92c90d	-0.28669015
176	0x3e59eb4b	0.21281163
177	0x3e31ede0	0.17375898
178	0xbc35edf5	-0.011104097
179	0x3df5aa62	0.119953886
180	0xbe1e144f	-0.15437435
181	0xbe537368	-0.20649493
182	0xbe56b46c	-0.20967263
183	0xbda89400	-0.08231354
184	0x3d7b8ca0	0.061413407
185	0x3e774c94	0.24150306
186	0x3d273a7c	0.04082726
187	0xbc8b2947	-0.016987456
188	0xbe83e8f9	-0.25763682
189	0x3d51a49c	0.051182374
190	0xbda6fc34	-0.08153573
191	0xbcb4b07d	-0.022056812
192	0xbd32b81b	-0.043632608
193	0xbdc6fefb	-0.097166024
194	0x3b8fb6ca	0.004385804
195	0x3d0b6472	0.03403134
196	0x3d808197	0.06274717
197	0xbe3b7725	-0.18307169
198	0xbebe7b60	-0.37203503
199	0xbefb4c6b	-0.4908174
200	0x3c705ccf	0.014670565
201	0x3aefcd3b	0.0018295416
202	0xbc80a6dc	-0.015704565
203	0xbd11fc8b	-0.035641234
204	0x3de21e4c	0.11040935
205	0x3e4c88e3	0.19974093
206	0x3d37c1ee	0.04486268
207	0x3e2a25fa	0.1661605
208	0xbc19958c	-0.009374034
209	0xbd47dd44	-0.048795
210	0xbd36e5ba	-0.044652678
211	0x3d377f4f	0.044799145
212	0x3daadbb1	0.08342684
213	0xbdebdf11	-0.11517156
214	0xbe16e17b	-0.14734451
215	0xbe7d564a	-0.24739948
216	0x3e88cba0	0.26717854
217	0x3e31d8ae	0.17367813
218	0xbd6d3a7f	-0.057917114
219	0x3e27deba	0.16393557
220	0xbd1ab1f5	-0.03776737
221	0xbe3a7a7f	-0.18210791
222	0xbe9e2d3a	-0.3089388
223	0xbe8f4147	-0.2797949
224	0xbe581292	-0.21100834
225	0xbe82313b	-0.25428185
226	0xbf00584d	-0.50134736
227	0xbd9b07e7	-0.075698666
228	0xbe1a76ba	-0.15084353
229	0xbde340db	-0.110963546
230	0xbd313e8e	-0.043272547
231	0xbdc0c0d1	-0.09411777
232	0x3e234d8f	0.15947555
233	0x3e74c111	0.23901774
234	0x3d86347d	0.0655298
235	0x3e8e4676	0.27788132
236	0x3e0757d1	0.13217093
237	0xbdc041b7	-0.09387534
238	0xbcb14e2d	-0.021643722
239	0x3c9704d5	0.018434921
240	0xbd8a867c	-0.06763932
241	0x3cc25f7d	0.023727173
242	0x3accfe7a	0.0015639805
243	0x3d555a85	0.05208828
244	0x3d6cb2a5	0.057787556
245	0x3c8207ce	0.015872862
246	0x3dda449b	0.10657617
247	0xbd206f42	-0.039168604
248	0x3ccea275	0.02522395
249	0xbd8b6511	-0.06806386
250	0x3d931b81	0.0718298
251	0x3d1377c0	0.036002874
252	0xbe4d5bbc	-0.20054525
253	0xbd8a35d4	-0.06748548
254	0xbd6201d3	-0.05517752
255	0xbe04bf59	-0.12963618

features.conv4.bias f4 [128]
0	0xbf46c1c6	-0.77639425
1	0xbe7d4f93	-0.24737386
2	0x3e5bb839	0.21456994
3	0x3e997e56	0.299792
4	0x4005668f	2.0843847
5	0xbf47ff0a	-0.78123534
6	0x3dc9d386	0.09854798
7	0xbea17bcf	-0.3153977
8	0x3edfa70b	0.4368213
9	0x3e160ae8	0.14652598
10	0x3c7cb915	0.015424986
11	0xbac4bba2	-0.0015009532
12	0xbd0d32b6	-0.03447219
13	0xbeaea541	-0.34110454
14	0x3ebf4962	0.37360674
15	0xbf62d38a	-0.88604033
16	0xbdb5e871	-0.08882225
17	0xbe8c5b35	-0.27413335
18	0xbf35de7a	-0.710426
19	0xbdda23d7	-0.10651367
20	0x3e856c82	0.26059347
21	0xbea9184a	-0.33026344
22	0x3e2831b6	0.16425213
23	0xbd6152d7	-0.055010643
24	0x3e23991e	0.15976378
25	0xbe66706f	-0.22503828
26	0xbe992581	-0.29911426
27	0xbd76c5eb	-0.060247343
28	0x3f4074a2	0.7517797
29	0x3e2342b7	0.15943418
30	0x3eedaca9	0.46420792
31	0xbd89864e	-0.0671507
32	0xbdc2bbb9	-0.095084615
33	0xbde07d32	-0.10961379
34	0x3e87e9af	0.26545474
35	0xbe23bfc6	-0.15991125
36	0x40215c04	2.5212412
37	0xbd9a909a	-0.07547112
38	0x3dcf1a0c	0.1011239
39	0x3ee88113	0.45410976
40	0xbd42c10b	-0.04754738
41	0x3d9747d1	0.07386745
42	0xbe237ae0	-0.15964842
43	0xbee9d56c	-0.4567064
44	0x4015b40f	2.339115
45	0x3edeb02c	0.43493783
46	0x3e906324	0.28200638
47	0xbd54697e	-0.051858418
48	0xbe4990fd	-0.19684215
49	0x4035af7b	2.8388355
50	0xbd1f8a08	-0.038949996
51	0x3ba8a251	0.0051463027
52	0xbedd933c	-0.43276393
53	0xbd0db4d1	-0.034596268
54	0x3f2bcd2d	0.6710995
55	0xbd1da545	-0.03848769
56	0x3d19bc38	0.037533015
57	0x3dac4fcd	0.08413658
58	0xbe9d7162	-0.30750567
59	0xbc3109ad	-0.01080553
60	0x3e9660b7	0.29370663
61	0x3e9a7417	0.30166695
62	0x3e54adc2	0.20769408
63	0x3fbc21bb	1.4697794
64	0xbd7a2ec1	-0.061079744
65	0xbd00bbb6	-0.031429015
66	0x3d2ce0eb	0.042206686
67	0x3f67413e	0.90333927
68	0x3cd630a7	0.026146246
69	0xbf729150	-0.9475298
70	0xbe2e46b6	-0.17019162
71	0x3df62889	0.1201945
72	0xbd71caa4	-0.059031144
73	0xbfe1e464	-1.7647824
74	0x3f1ce403	0.6128542
75	0xbf2a8475	-0.66608363
76	0xbe402b9a	-0.18766633
77	0xbe81b41d	-0.25332728
78	0xbf136157	-0.57570404
79	0x3d0bca47	0.034128454
80	0x3e0fdb3a	0.14048472
81	0xbea1a34f	-0.31569907
82	0x3e14b158	0.14520776
83	0xbe91280c	-0.28350866
84	0x3b66b7e4	0.0035204822
85	0xbe810149	-0.25196293
86	0xbc76e63b	-0.01506954
87	0x3f9bcb87	1.2171487
88	0xbe3f6682	-0.18691447
89	0xbef25eff	-0.473381
90	0x3d236fb3	0.039901447
91	0x3ff58cac	1.9183555
92	0x3e6e4ddb	0.23271887
93	0xbd9dad4d	-0.0769907
94	0xbd0d16da	-0.03444562
95	0xbe911b05	-0.28340927
96	0x3f1a6ac5	0.6031917
97	0x3d8ce731	0.06880034
98	0xbf9bda63	-1.2176021
99	0xbe8ee57c	-0.27909458
100	0x3ea2e6da	0.3181675
101	0xbe82aec2	-0.25523955
102	0xbe14adc8	-0.14519417
103	0x3f193448	0.598454
104	0x3e609c7b	0.21934693
105	0xbf1ed680	-0.6204605
106	0xbbd89881	-0.0066099768
107	0x3eae6e6d	0.34068623
108	0xbcfc5a8c	-0.030804895
109	0x3f1c9160	0.61159325
110	0x3c48c494	0.012253899
111	0xbdca2988	-0.09871203
112	0x3ea8ff26	0.33007163
113	0xbe16ad7a	-0.14714614
114	0x3ed25f41	0.41088298
115	0x3df5b668	0.11997682
116	0xbe381f7e	-0.17980763
117	0x3e139534	0.14412385
118	0x3f1f2253	0.6216175
119	0x3fc5ceee	1.5453775
120	0x3ffbff35	1.9687258
121	0x3e0985ba	0.13429919
122	0x3eae15a4	0.34000885
123	0x3eb35dd9	0.35032538
124	0x3a5254b5	0.00080234866
125	0xbfe44957	-1.7834882
126	0x3dd05432	0.10172309
127	0x400f7366	2.2414184

features.prelu4.weight f4 [128]
0	0xbd6ed974	-0.05831285
1	0x3c0eb0a5	0.0087091075
2	0x3c3eb88f	0.011640682
3	0xbb84a277	-0.0040476876
4	0x3c85e4ab	0.016344389
5	0x3c6c0bbc	0.014407095
6	0x3e239837	0.15976034
7	0x391f7ed3	0.00015210667
8	0x3cb057fb	0.021526327
9	0x3ca63fba	0.020294059
10	0x3e92c0be	0.28662676
11	0x3dffa86b	0.12483295
12	0x3d9cfc60	0.07665324
13	0x3d0a5775	0.03377481
14	0xbb4d8b4a	-0.003136354
15	0xbe0d47b7	-0.13796888
16	0x3cd6d4dc	0.026224546
17	0x3d4c7958	0.04992041
18	0x3c85df88	0.01634194
19	0x3be80e25	0.0070817643
20	0x3d2cc724	0.042182103
21	0xbdcb6942	-0.09932186
22	0xbc3dadee	-0.011577113
23	0xbc685e9b	-0.014182712
24	0x3e0927d3	0.13394098
25	0x3e04cac0	0.12967968
26	0x3d923cb7	0.07140487
27	0x3d241fab	0.040069263
28	0x3ccd36fc	0.025050633
29	0x3be5e448	0.0070157386
30	0xbd34ff29	-0.044188652
31	0xbd540b04	-0.051768318
32	0xbc182478	-0.009286039
33	0x3a72005d	0.00092316215
34	0xb9aa6650	-0.00032501156
35	0x3db4596d	0.08806119
36	0x3c629bb0	0.013831064
37	0x3c23dc30	0.010001227
38	0x3d42f169	0.047593508
39	0x3c1a0f95	0.009403129
40	0xbb4e4382	-0.0031473343
41	0x3da6c8f8	0.081438005
42	0x3c924355	0.017854372
43	0xbd90c092	-0.0706798
44	0x3d9f2c3b	0.07772108
45	0x3c8e1ebc	0.01734864
46	0x3d89a017	0.06719988
47	0x3d6c93af	0.05775803
48	0x3c67ec08	0.014155395
49	0x3da6613a	0.08124013
50	0xbcb139a2	-0.021633927
51	0x3d88360e	0.06650935
52	0xbd1edb14	-0.038783148
53	0x3daa9cd4	0.08330694
54	0x3bcdf721	0.0062855636
55	0xbc6bbeec	-0.014388781
56	0x3d37a607	0.04483607
57	0x3d12c2e5	0.035830397
58	0xbc121a66	-0.008917427
59	0x3e23c461	0.15992881
60	0x3eb34ff5	0.3502194
61	0x3d36e93f	0.044656035
62	0xbb9e35fa	-0.004828212
63	0x3c84d613	0.01621536
64	0x3b8cce22	0.004297034
65	0x3cafbf34	0.021453477
66	0x3b12bc42	0.0022390042
67	0x3c10fa21	0.008848698
68	0xbc42df9f	-0.011894136
69	0xbcc3059e	-0.02380639
70	0x3cd1e50c	0.025621913
71	0x3e39504d	0.18097039
72	0x3cb6efd4	0.022331156
73	0xbd409818	-0.047020048
74	0x3d093858	0.033501
75	0xbd0788be	-0.033089392
76	0xbcd8db15	-0.026471654
77	0x3e8b3a18	0.2719276
78	0x3caa873b	0.020816436
79	0x3e411a34	0.18857652
80	0x3ea60972	0.3242908
81	0x3e043c3f	0.12913607
82	0x3c53624c	0.012901854
83	0xbcde180e	-0.02711108
84	0x3db0154a	0.085978106
85	0xbd2ad33c	-0.041705355
86	0x3d438707	0.047736194
87	0x3c30abd3	0.010783154
88	0x3d6e81a2	0.058229096
89	0x3cb38d6a	0.021918017
90	0x3d9c186b	0.07621845
91	0x3c16fbc4	0.009215299
92	0x3e1e6806	0.1546937
93	0x3bbb896e	0.00572317
94	0x3cc48756	0.023990314
95	0xbd1bf7b1	-0.038078014
96	0x3ca447eb	0.020053824
97	0x3ce8acc2	0.02840269
98	0xbc96558f	-0.018351344
99	0xbc6098f7	-0.013708345
100	0x3c96ebc0	0.018422961
101	0xbd0f47f4	-0.03498073
102	0xbdc56467	-0.09638291
103	0x3c845f03	0.016158586
104	0x3d0effb0	0.03491181
105	0xbde96743	-0.11396649
106	0x3c4d3b68	0.012526371
107	0xbbc4bc65	-0.0060039037
108	0x3d414e1f	0.047193643
109	0x3c0dc12a	0.008652011
110	0x3e488903	0.19583516
111	0x3d2aa825	0.04166426
112	0xbcb4fba4	-0.022092648
113	0xbd17de2b	-0.03707711
114	0x3c35754d	0.01107533
115	0x3df27ca2	0.11840178
116	0xbd72a7be	-0.059242003
117	0x3dd1a310	0.1023618
118	0xbc4f1e23	-0.0126414625
119	0x3da8dd9f	0.08245396
120	0x3c8de600	0.017321587
121	0x3d4a68db	0.049416404
122	0x3e907483	0.2821389
123	0x3c5b1d69	0.013373711
124	0x3c850e1a	0.016242076
125	0xbc702d63	-0.014659259
126	0x3d9f90ec	0.077913135
127	0x3dbb59d7	0.09147995

conv5_1.weight f4 [2, 128]
0	0x393f192f	0.00018224561
1	0x3de11cc1	0.109918125
2	0x3d6bfa59	0.057611797
3	0xbdba17e0	-0.09086585
4	0x3d0e6ddc	0.03477274
5	0x3d36cb5e	0.04462754
6	0x3c72ae16	0.014812013
7	0xbbbe23d6	-0.005802612
8	0x3d6d69a9	0.057962094
9	0x3e076551	0.13222243
10	0x3d114f4d	0.035476018
11	0x3d521e71	0.051298562
12	0x3cff6c3d	0.031179542
13	0x3d9fc5a6	0.0780137
14	0xbdc6f279	-0.09714217
15	0x3d088491	0.03332955
16	0x3d913945	0.070910014
17	0x3b82c380	0.0039905906
18	0xbdc5f35c	-0.09665558
19	0x3cb7bbfe	0.022428509
20	0x3c70c2b6	0.01469486
21	0xbc786381	-0.015160442
22	0xbe0b461d	-0.13600965
23	0xbdbf1762	-0.09330632
24	0x3cf02ed3	0.029319203
25	0xbcf4fcf5	-0.029905776
26	0xbd15ae06	-0.036542915
27	0xbccb271c	-0.024798922
28	0xbd5d4b7b	-0.054027062
29	0xbd9db09b	-0.076997004
30	0x3d00a03b	0.031402808
31	0xbd78d2bc	-0.060747847
32	0xbda25aad	-0.07927451
33	0xbd2773b6	-0.040881835
34	0xbda5a62a	-0.08088334
35	0x3d5f4073	0.054504823
36	0xbd3d3779	-0.04619548
37	0x3d20d5f1	0.03926653
38	0x3d7ec564	0.062199965
39	0x3d994089	0.07483012
40	0x3e2defe3	0.16986041
41	0xbcfe059f	-0.03100854
42	0x3d350b3e	0.044200175
43	0x3ae65cf8	0.0017575314
44	0x3a0cdaf6	0.0005373204
45	0xbbce2310	-0.006290801
46	0x3d77557f	0.06038427
47	0xbcedde90	-0.02903679
48	0xbd2049cb	-0.039132874
49	0xbd68fe58	-0.056883186
50	0xbe0b93e9	-0.13630642
51	0x3d2e04fc	0.042485222
52	0xbd811ef0	-0.06304729
53	0xbc942720	-0.018085063
54	0xb7caf17d	-2.4192728e-05
55	0xbd711591	-0.058858458
56	0x3e07e897	0.1327232
57	0xbc390c42	-0.011294426
58	0xbe6b3fe7	-0.22973596
59	0xbcd55f00	-0.026046276
60	0xbcb2d00f	-0.021827726
61	0x3bbf5667	0.0058391574
62	0xbe29cb1a	-0.16581383
63	0x3e11e6bf	0.14248179
64	0x3d10a694	0.03531511
65	0xbccac50f	-0.024752168
66	0x3d85724c	0.06515941
67	0xbc85be75	-0.016326169
68	0xbe259e51	-0.16173674
69	0x3c5547d3	0.0130176125
70	0x3cfbbefa	0.030730713
71	0xbdd9612a	-0.10614236
72	0x3d9828c9	0.07429654
73	0x3d56faae	0.05248516
74	0xbd1aa5b4	-0.037755683
75	0xbd8be691	-0.068310864
76	0x3d3ae822	0.045631535
77	0x3da81b7d	0.08208368
78	0x3dfca450	0.123360276
79	0x3c1de6ca	0.009637544
80	0x3c52657e	0.01284158
81	0x3c21f12d	0.009884161
82	0x3da481da	0.0803258
83	0xbd0b5508	-0.03401664
84	0x3d468c7c	0.04847382
85	0x3da4e349	0.08051164
86	0xbd9bdfc1	-0.07611037
87	0xbd076b42	-0.033061273
88	0x3d399207	0.04530528
89	0x3dd16afd	0.102254845
90	0xbe093890	-0.13400483
91	0xbba82a67	-0.005132008
92	0xbc2784f8	-0.010224573
93	0xbe0d7aed	-0.13816424
94	0x3d80b623	0.0628474
95	0xbe0b4180	-0.13599205
96	0x3d00eff2	0.03147883
97	0x3d9272ea	0.07150824
98	0xbc2e624d	-0.010643554
99	0xbdd06df8	-0.10177225
100	0x3dcb90ea	0.099397495
101	0xbe18333c	-0.14863294
102	0xbddde8a4	-0.10835388
103	0x3de4b901	0.11168099
104	0x3cb51cc6	0.022108447
105	0xbd4bd2f7	-0.04976174
106	0xbdaa4516	-0.08313958
107	0xbcfdae6e	-0.030966964
108	0xbca54fd6	-0.02017967
109	0x3d94dc24	0.07268551
110	0x3cde67f7	0.027149184
111	0x3cd6446a	0.02615567
112	0xbcfecc3c	-0.031103246
113	0xbe48e9dc	-0.1962046
114	0x3c80835a	0.015687633
115	0xbdb6f9c5	-0.089343585
116	0xbd3cda07	-0.046106365
117	0xbbd9c627	-0.006645936
118	0xbdb8e50a	-0.09028061
119	0xbc02b6f8	-0.007978193
120	0xbc1578c8	-0.009123035
121	0xbd5e7df7	-0.05431935
122	0x3c1e484f	0.009660794
123	0x3da6c37b	0.08142754
124	0xbde5bb7b	-0.112174
125	0xbd8ab161	-0.067721136
126	0xbe07681a	-0.13223305
127	0xbcb910e9	-0.022591071
128	0xbb8553d6	-0.004068832
129	0xbc18abb3	-0.00931828
130	0xbc9e8471	-0.019350262
131	0x3de31647	0.110882334
132	0xb9b45dfe	-0.00034402305
133	0xbc3713e9	-0.011174181
134	0x3c41fe62	0.011840435
135	0x3e22f84d	0.15915032
136	0xbdb3faab	-0.087880455
137	0xbd677680	-0.056509495
138	0x3e009cfa	0.12559882
139	0x3de00e8f	0.10940277
140	0xbcdc67e6	-0.026905011
141	0xbdc77cbe	-0.097405896
142	0x3dd9e341	0.10639048
143	0x3afb14b6	0.0019155953
144	0xbd68bd66	-0.05682125
145	0xbe0f5518	-0.13997304
146	0xbd61e8f2	-0.055153795
147	0xbe1813ad	-0.14851256
148	0x3dc3c9c9	0.09559972
149	0xbdb2c427	-0.08728819
150	0x3e118793	0.14211874
151	0x3e1b4457	0.15162788
152	0x3d5f92a7	0.054583218
153	0xbd8c1bf9	-0.06841273
154	0xbdb43c16	-0.08800523
155	0x3d5afff5	0.053466756
156	0xbd9ae182	-0.075625435
157	0x3c7270b4	0.014797378
158	0x3b559d44	0.0032594958
159	0x3e2ef6e6	0.17086372
160	0x3e0d8968	0.13821948
161	0x3d8787e2	0.066177145
162	0x3dc62cad	0.0967649
163	0x3bee6878	0.0072756372
164	0x3ca09f0b	0.019607088
165	0xbdfaa73b	-0.12238928
166	0x3c4ca92b	0.012491505
167	0xbd6290c4	-0.05531384
168	0xbcf76855	-0.030201117
169	0xbda007db	-0.07813998
170	0xbd9460c6	-0.072450206
171	0xbcc049d0	-0.023472697
172	0xbca67704	-0.020320423
173	0xbd7f5202	-0.062334068
174	0x3c951835	0.01820002
175	0x3cc65e1a	0.024214793
176	0x3e234ae6	0.1594654
177	0xbcf125d4	-0.029436983
178	0x3e1803a4	0.14845139
179	0x3b522e14	0.0032070922
180	0x3e085b3f	0.13316058
181	0x3d080750	0.0332101
182	0xbdc749cc	-0.097308725
183	0x3db4dc2c	0.08831057
184	0xbd3dda68	-0.046350867
185	0xbe14ba65	-0.14524229
186	0x3e14c0a4	0.14526612
187	0xbda3f669	-0.080059834
188	0x3daa6188	0.08319384
189	0x3ce92baa	0.028463203
190	0x3d2d2f85	0.042281646
191	0xbd8bc72c	-0.068250984
192	0xbd59dae3	-0.053187262
193	0x3de6f0d3	0.11276402
194	0xbd00e82b	-0.031471413
195	0x3d1e9dac	0.038724586
196	0x3d604e8b	0.054762404
197	0x3dbd9950	0.09257758
198	0x3dad5bd3	0.0846478
199	0x3c925df2	0.017867062
200	0xbdbee5a7	-0.093211465
201	0x3cb462f0	0.022019833
202	0x3d8b3042	0.06796314
203	0xbda63bc7	-0.081168704
204	0xba9b1c22	-0.0011833946
205	0x3badb153	0.0053006797
206	0xbd14dbf9	-0.036342595
207	0xbd1ce379	-0.038302872
208	0x3d033ec1	0.03204227
209	0xbdec4962	-0.11537434
210	0xbddf97be	-0.109176144
211	0x3dedda4d	0.11613903
212	0xbced9d7a	-0.029005755
213	0x3d317044	0.043319955
214	0x3d876c8d	0.06612501
215	0xbdc5d432	-0.09659614
216	0x3cc52d6a	0.024069507
217	0xbdb377dd	-0.087630965
218	0xbc391826	-0.011297261
219	0xbd3ea233	-0.046541404
220	0xbd19066c	-0.03735964
221	0x3e3dd277	0.18537317
222	0xbde0c809	-0.10975654
223	0x3dd8cb44	0.10585645
224	0xbd595f7b	-0.053069573
225	0xbd5e7d8b	-0.054318946
226	0xbc635593	-0.013875383
227	0x3e0520f3	0.1300085
228	0xbe0de27e	-0.13855931
229	0x3dc3c0c8	0.095582545
230	0x3d7c5902	0.061608322
231	0xbd5cc314	-0.05389698
232	0xbde2acd8	-0.110681236
233	0xbd484293	-0.048891615
234	0x3de0f813	0.109848164
235	0x3dab6b53	0.0837008
236	0xbd89be0d	-0.067257024
237	0xbc1d0974	-0.009584773
238	0x3d053758	0.032523483
239	0xbe1a19e6	-0.15048942
240	0x3d889c47	0.066704325
241	0x3d31e2bc	0.04342912
242	0xbd37935d	-0.04481827
243	0x3d2fbd84	0.042905346
244	0xbd8adfaf	-0.067809455
245	0x3d9466c0	0.072461605
246	0x3c878d9e	0.01654702
247	0xbd0a1831	-0.033714477
248	0xbd945400	-0.07242584
249	0x3dfd4c21	0.12368036
250	0x3e1b9ebc	0.15197271
251	0xbda94b16	-0.08266275
252	0x3d1ec0fe	0.03875827
253	0x3e15638c	0.14588755
254	0xbc14a0b0	-0.009071514
255	0xbd18073a	-0.037116267

conv5_1.bias f4 [2]
0	0x3f5a02fd	0.8516081
1	0xbf500663	-0.81259745
