pretrained_weights/mtcnn/best_onet.pth (torch_old, 904431 bytes, 21 tensors)

features.conv1.weight f4 [32, 3, 3, 3]
00000000: 5d57 2e3e f4ab ce3d 6281 07be f00b b03d
00000010: 57d5 4ebe 6fab 96bd 856a 79be 39d9 74be
00000020: 6977 38be 2fb4 c53d 2e7b 1a3d 2ba6 423d
00000030: c6b0 f43c c325 a93d 1c04 72be 7eea f1bc
00000040: a5fd cf3d 1034 89bd 4125 023e 652f 43bd
00000050: 2604 273c a1b5 21be 4d6b f9bb cc5b 003d
00000060: d131 a73d f0fe c43d 66ee cf3a ef14 c7bd
00000070: a0ce 203e d036 5ebd 073f 32be d6e7 1abe
00000080: cb68 e43c 60c6 993d 00cc 7ebe f110 80be
00000090: ac2d 293e 218a 963d 6771 df3d 2d9b 2cbe
000000a0: 3a83 cd3d 7ff3 e3bd 0f09 b23d da66 ae3d
000000b0: 2037 703e 4df0 20be 74de 163e f393 40bd
000000c0: dade 05be 5743 25be 3572 b13d 83b8 7b3e
000000d0: 004b f53d dd90 673d bf2e 34be 7c4f 42bb
000000e0: 0cd2 b73c 93be 80bc a5ed 26bc 5960 fa3d
000000f0: beae 1c3e 232e 1bbe 7c88 1e3c 4c8a 38be
00000100: 65cc 2a3d 1865 013e 8e9e a83d 4927 213e
00000110: e710 183e 7672 9ebd 8d67 f43c ab01 babd
00000120: ebe3 74bd c5f8 7d3d acfd a33d 5141 0a3d
00000130: 538c dfbd 268f 55be 03ca 0b3e ead7 e93b
00000140: 9457 5fbc 27e4 03be 6906 b33c 1984 03bd
00000150: 0c7d 753e f6ce 823d d4fe d9bd afcc 943d
00000160: f999 1c3d 01e0 7ebc a24d bbbc bad4 dcbd
00000170: 240c 67be 935a c6bd 9a3e e5bd ff71 c4bd
00000180: e3c2 9c3e 0f02 303e 5da5 73bd a350 dd3b
00000190: ea24 1ebe e5d2 d8bd 002f 06be cd32 02be
000001a0: b805 043e f81c 7b3e 89d0 113e 79ed 0e3e
000001b0: a74e 3abd 9907 cbbd 6f8c 01bd 3daa ba3c
000001c0: 0326 87be b70c 3cbe b1bd 313c 721b 3dbe
000001d0: 643e a9bc 8ba7 0fbc f2d1 8fbd 7c8e e1bd
000001e0: 1788 52bd dab2 5a3e 3128 563d 4a1a 0e3e
000001f0: 318d 073e aa46 15be 9ee0 623c c2bf 283e
00000200: fc44 2d3e d8dc cf3a 6212 083e 44a3 2e3d
00000210: ddbd 68be 8998 d23d 4aeb 9b3d be74 4d3e
00000220: d82c 3cbd db3b c63d 7224 a6bd f234 6c3e
00000230: ae22 3bbd 8ab5 063d 3f6b 673e d1e1 8e3a
00000240: f0e9 bdbd 2818 993d f949 4ebd 3123 5dbd
00000250: 4d43 c2bd f76d 6d3d 5e3d 0cbc 37bd ccbd
00000260: 2edb 78bd 5523 03be 7cbd f2bd 6597 6c3e
00000270: ca43 95bd 394b 8a3d a4a6 983d 759d a5bc
00000280: 9912 193e d534 30bd 7b84 3ebe 1dca 74bd
00000290: a65d e7bc 72a9 853d 13d2 2ebe b324 38bd
000002a0: eaa2 1cbe dac0 833d dfd1 c5bb d085 d03d
000002b0: 3541 093d d60c 193e 7757 63bd c841 03bd
000002c0: 3acd 8f3d 5e38 5cbe 5c4f 9cbc 3fa3 8f3d
000002d0: 2346 213e cb45 9f3d a0b3 ba3c 710e 393e
000002e0: 43c4 cbbc 9fc2 69bd df10 093e 0c38 8c3d
000002f0: 0fac c4bd f5d0 2abe 7669 b9bc 17b2 433b
00000300: b70d ccbd a34c 9dbd 9561 2ebd 890c 2f3e
00000310: d604 34bd c812 483e fc65 eb3d ed9f 0cbe
00000320: fde8 293e fcfa c8bd 8af2 f4bd 1730 873e
00000330: 8e4e 60be 36a8 3c3e be0a 6c3d 863a 56be
00000340: ecbf 01bd c42b 373e baff 13be 0896 22be
00000350: 2ab1 c83c 3f6b ebbd eb0f 2b3e 99bd 513e
00000360: d0ce 18be e9e2 7e3c 18dc b33d 0919 babc
00000370: 0598 7cbe 5686 443b eeb8 02be c0ac 19be
00000380: ca03 c63d b85d 513d 37fb bd3d 7b56 3b3e
00000390: 9be1 83bc a74e ff3c 3e71 c1bc b1e8 363d
000003a0: 6e99 803e 4ee1 f8bd c978 3abd 5bfa 5c3d
000003b0: 3c2a efbd f9ea 80bc fbec 35bc 56cb fcbd
000003c0: 8246 e9bc 1c0e 7c3e c4ce de3d 66aa f7bd
000003d0: 9499 283d 4606 19be 6343 113e 1c85 62bd
000003e0: 1352 4e3c f7c0 6dbd ac80 5a3e 1715 c8bd
000003f0: 37f2 2dbe 96b6 9d3d 137d 30bc 94fc a6bc
0.17025514 0.10091391 -0.1323295 0.08596027 -0.2019857 -0.07356917 -0.2435704 -0.23910989
-0.18014301 0.09653508 0.03771513 0.04752175 0.029869448 0.082591556 -0.2363438 -0.02953076
0.10155801 -0.06699383 0.12709524 -0.04765262 0.01019386 -0.15791942 -0.007611668 0.031337544
0.081637986 0.09618938 0.0015863895 -0.0972079 0.15703821 -0.054251492 -0.17406856 -0.15127501
0.027882 0.0750854 -0.24882507 -0.25012925 0.16521329 0.07350565 0.10910302 -0.1685607
0.10034795 -0.111304276 0.08693134 0.08515711 0.23458529 -0.15716667 0.14733297 -0.047016095
-0.13073292 -0.1613897 0.086643614 0.24582104 0.11977196 0.056534637 -0.17595957 -0.0029649427
0.022439025 -0.015715873 -0.010188495 0.12225408 0.15301034 -0.15154319 0.009676095 -0.18021506
0.041698832 0.1263622 0.08233367 0.15737642 0.14850198 -0.077366754 0.029834533 -0.090823494
-0.059787672 0.062004823 0.080073684 0.033753697 -0.109154366 -0.20855388 0.1365128 0.0071363347
-0.01363172 -0.12880002 0.021853643 -0.0321084 0.23973483 0.06387131 -0.10644308 0.07265603
0.038232777 -0.015556336 -0.022864167 -0.10782762 -0.22563225 -0.096852444 -0.11193581 -0.095920555
0.30617437 0.17188285 -0.059483875 0.0067539974 -0.15443769 -0.105871 -0.13103867 -0.12714691
0.12892807 0.2452277 0.14239706 0.13957776 -0.045485165 -0.099135585 -0.03162807 0.022786254
-0.26396188 -0.18364225 0.010848449 -0.18467501 -0.020659633 -0.008767973 -0.07022466 -0.11013505
-0.051399317 0.21357289 0.052284423 0.13877216 0.13237454 -0.14577737 0.013847498 0.164794
0.16920847 0.0015858663 0.13288262 0.04263617 -0.22728677 0.10283 0.07613237 0.20064065
-0.045941204 0.09679385 -0.0811242 0.23067072 -0.04568737 0.032887973 0.22599505 0.0010901039
-0.09273136 0.074753106 -0.050363515 -0.05398864 -0.09485493 0.0579662 -0.008559553 -0.09997027
-0.0607559 -0.12806447 -0.118525475 0.23104627 -0.0728832 0.06752629 0.07453659 -0.020216683
0.149485 -0.043019135 -0.18605225 -0.059763063 -0.028242897 0.0652646 -0.17072324 -0.044956874
-0.15296522 0.06433268 -0.0060369815 0.10181773 0.033509452 0.14946303 -0.055503335 -0.032045156
0.07021566 -0.21505877 -0.01908081 0.070135586 0.15749411 0.07776984 0.02279073 0.18071915
-0.024873858 -0.05707037 0.13385342 0.068466276 -0.0960313 -0.16681273 -0.022633296 0.0029860788
-0.099635534 -0.07680633 -0.04257353 0.17094626 -0.043949924 0.19538414 0.11494061 -0.13732882
0.16592784 -0.098134965 -0.11960323 0.26403877 -0.21904966 0.18423542 0.057627432 -0.20920762
-0.03167717 0.17887789 -0.1445302 -0.15877545 0.02449854 -0.11495065 0.16705291 0.20482482
-0.14922643 0.015557029 0.08782214 -0.022717016 -0.24667366 0.0029987297 -0.12765858 -0.15007305
0.096686915 0.051114768 0.09276431 0.18294708 -0.016098788 0.031165434 -0.023613568 0.044655506
0.25117058 -0.121523485 -0.045525346 0.053949695 -0.116779774 -0.015737044 -0.011103864 -0.12343471
-0.028476004 0.24614757 0.10879281 -0.12093048 0.04116209 -0.149438 0.14185862 -0.055302724
0.01259281 -0.058045354 0.21338147 -0.097696476 -0.16986929 0.07700841 -0.0107720075 -0.02038411

features.conv1.bias f4 [32]
00000000: 4925 fa3c 8d66 db3d ebfa d5bd d91b 04be
00000010: 2e11 3abd 7e2f 41be 77d7 273d 6aaf 4837
00000020: 9abd 193d f72a 42be 0b06 813e f262 843d
00000030: ceae 3ebe 5a49 b7bd bc90 96bd 3fb7 9ebe
00000040: bc33 30bd fb42 8abd 6471 433d af35 903d
00000050: 0363 ee3d 7a08 00be 6b5c ae3c 77e7 09bd
00000060: 88bd 1abc b190 f9bc 72b3 84be 34bd 103d
00000070: d5d0 04bd 2808 b2bd 57db 6bbc ed20 edbd
0.030535357 0.107129194 -0.104482494 -0.12901248 -0.04542654 -0.18865773 0.040976968 1.1961771e-05
0.037534334 -0.18961702 0.25199923 0.06464185 -0.1862137 -0.089495376 -0.07351825 -0.3099918
-0.043018088 -0.06751057 0.04771556 0.07041489 0.11639979 -0.12503234 0.021284303 -0.033668008
-0.009444602 -0.030464502 -0.25918156 0.03533669 -0.03242572 -0.08692962 -0.014395556 -0.11578546

features.prelu1.weight f4 [32]
00000000: 11ad 453f 7d2b d83e 70fb 6a3e f6ac 7c3e
00000010: fe73 863e 739c e93e 9f6a 72be 2377 e63e
00000020: ad61 153e 81cd 033d f79e 253e 3425 ba3e
00000030: b353 3e3e 4772 453e 24f7 ba3e 1fe6 ea3d
00000040: 60fe 173d d1bd ce3e 2c51 eb3e ab29 05bb
00000050: 93a7 923e 4c4c ec3e bf81 db3e 317d 243d
00000060: be0d c83d 77d4 b93d 3033 073f 73fd 243e
00000070: 765c 4c3f c307 023e 6d64 d33e 27f8 063f
0.77217203 0.4222068 0.22947478 0.24675354 0.2626037 0.45627174 -0.23673485 0.4501277
0.14588042 0.032178406 0.16173922 0.3635651 0.18586616 0.19281875 0.36516678 0.11469673
0.037107825 0.40379193 0.45960367 -0.0020319025 0.28643474 0.4615196 0.42872426 0.040158454
0.09768246 0.090737276 0.5281248 0.16112308 0.79828584 0.12698273 0.41287556 0.527224

features.conv2.weight f4 [64, 32, 3, 3]
00000000: ff28 b5bd cbd3 5ebd 3dfc eebb f38c cdbd
00000010: 55c2 1cbd 919b b7bd 1aa6 06bd 5c25 95bd
00000020: 598e 20bd 645b 053d 21f9 2c3d f59f 233c
00000030: dd89 a0bb b7bd 803a fb5e 7abb 450d 093b
00000040: c33e 53bc a3c0 8c3b 68c5 203c 4a0a ad3d
00000050: db49 6c3c 1b16 4fbd afa3 e83d ec2e a6bd
00000060: 7f87 84bd 5435 8fbd f3f7 e9bc 830f c63d
00000070: b00f 9a3d caf2 913d 9e1f c63b 89b6 4d3c
00000080: 6cd3 3d3d 2c71 1f3d 133a 1e3d 6dbe 16bc
00000090: 017b cf3d cc8f ac3d 84e8 ca3c cd15 5c3e
000000a0: f206 913d 3c2a 0f3e e9c8 c13d 1079 ca3d
000000b0: 8c3d 1e3e 12e1 c5bd 6337 a8bd d643 e7bd
000000c0: b193 b4bc 52c5 84bd 0eeb 99bd 7723 41bd
000000d0: 6be8 a0bd 016d c8bd 3237 c3bc 8187 04bd
000000e0: b85b 543c 77f3 6bbd d831 4fbc 2f88 71bd
000000f0: b28b 31bd e540 6b3c e82c dbbc aa64 87bd
00000100: 6e78 fabd 45ef 85bd 2b5e 46bd bb35 1abe
00000110: e655 0dbe f4b1 d3bd 3b65 27be e071 4ebd
00000120: 3a4a 34bb cc08 0b3c fe89 ddbc 9450 acbd
00000130: bcf6 bcbd ee26 acbc dbb6 abbd be83 84bd
00000140: 6a2f 99bd cf12 7b3d 7768 7e3d b3e2 3d3d
00000150: d486 1abd 21c7 cd3c 4aa1 9f3b f314 8abd
00000160: a336 c03a ef0f 3abd 6811 203e 0436 c03d
00000170: 5ebc e33d 639c fe3d 7af6 febb b971 74bd
00000180: c363 7ebd 85c2 c1bc e5ab 95bd aac7 6fbd
00000190: 8260 af3c 7665 57bd bfa9 9dbd c0b6 0fbd
000001a0: de43 0ebc afe2 6ebd 8d75 c6bd 4b12 bc3c
000001b0: f7d0 ae3d 71ab d73d 86a4 633d 5cec 613d
000001c0: 4521 bd3d 71bc 673d dc17 023e 58e5 653d
000001d0: 124d d23d b638 823d 61ce c23d 39b1 de3b
000001e0: 170d 1c3e bd5b be3d 5031 4bbd 63fc adbd
000001f0: 12cc 0ebe ac7e 05be dd34 0f3e 6b14 213d
00000200: c61a 2bbd 4069 b6bd 912c d9bd 9dae d7bd
00000210: 2e07 a4bb f14b 833c 9993 133d a3fd 31bd
00000220: edde 8cbd b150 c7bd 0672 5e3b dfd8 99bd
00000230: a7b0 89bd cda8 383c 170a 223c 067f 42bd
00000240: 6afa 1b3c 4ed3 38bd 0075 373d 97d3 0abe
00000250: 05fb 99bd fbc7 a83c 83ef fdbc af15 04bc
00000260: 9c89 b63c 40a3 15bd 846d 12bd 1bd2 3ebd
00000270: 0bda 253d 8d77 0c3e 552b 3cbd 249c 923c
00000280: 1136 debd f8c8 34be a162 953d 5412 40bd
00000290: c860 06bd b7b9 573c 00cd 613b 1663 353b
000002a0: f434 2bbc 0d86 a6bc ad0d 4fbd 3f9e 0cba
000002b0: d527 a0bd 24e3 46bd 7f0d 58bd 4d47 b0bd
000002c0: d4eb 5dbd 9431 343c 64d0 36bd ac64 57bd
000002d0: e950 743c 2a3d 753d b4f4 15bd b5ac febc
000002e0: 3048 f6bd 599c 40bb eebf e3bb 6d39 febd
000002f0: 4814 083b ecef fb3d d167 8b3c 4b82 7f3b
00000300: 462f d73c 9739 8b3d b287 12bd 89a9 853d
00000310: 9e5f 04bd 9862 3dbd d39a 2bbd 0db4 efbc
00000320: b228 d3bc fbe2 dcbb c826 afbd afff f13a
00000330: 83a6 3e3c 3e90 083d d0be 973d 26bf a53d
00000340: 81df 29bc 7a2f 2bbd 7511 843d 1809 2e3d
00000350: 7366 573d b5a2 2ebd 25d7 3cbd e4ab 3f3c
00000360: fb9e 55bd 7b13 9abc f7e5 b2bd 3a83 98bd
00000370: b47c 38bd 374c 96bd 830d 82bd 3eae 963c
00000380: 470f 1fbd 491c 073c 7efc 96bd ac74 85bd
00000390: 5606 8d3c 6923 a7bb 1976 8dbd 38e0 9e3c
000003a0: 63af b93b a4e6 e23c 2194 c4bc f27a 3ebd
000003b0: 6dfd 96bd b09c 44bd b91e 033d c35a df3c
000003c0: a492 a9bd db7a 89bc 9f3a ac3c bc45 91bd
000003d0: 1c39 9dbd d147 24be 869a 3bbd 6db7 85bc
000003e0: eba5 adbc c56c 82bd fa86 79bd a71f 26bd
000003f0: 991f 7c3d 74bd 80bd a714 e2bd b636 5cbd
-0.0884571 -0.0544012 -0.0072932527 -0.100366496 -0.038271267 -0.08965219 -0.03287325 -0.07282516
-0.039198253 0.03255786 0.042229775 0.009986867 -0.004899247 0.0009822164 -0.0038203585 0.002091245
-0.0128933815 0.004295425 0.00981269 0.08449228 0.014421905 -0.05055819 0.11359345 -0.081144184
-0.06471156 -0.069925934 -0.028560614 0.096709274 0.075225234 0.071263865 0.0060462495 0.012555727
0.046344206 0.03892629 0.038629603 -0.0092006745 0.10130883 0.084258646 0.024769075 0.21492691
0.07081403 0.13980955 0.09462149 0.09886372 0.15453166 -0.096620694 -0.08213689 -0.112922356
-0.022043081 -0.06482948 -0.07515536 -0.047152963 -0.0785683 -0.09786416 -0.02383003 -0.03235579
0.012961321 -0.057605233 -0.012646161 -0.058967765 -0.043346114 0.014358734 -0.026754811 -0.06610997
-0.122300014 -0.06539778 -0.04842965 -0.15059559 -0.13802299 -0.10336676 -0.1634721 -0.05040157
-0.0027510063 0.008485984 -0.027043339 -0.084138066 -0.09226748 -0.021014657 -0.08384486 -0.0647044
-0.07479747 0.061297234 0.062111344 0.046358775 -0.03772624 0.025119366 0.004871522 -0.06742277
0.001466472 -0.04542535 0.1563164 0.09385303 0.111199126 0.12432172 -0.007780847 -0.059678767
-0.06210686 -0.023652324 -0.07308177 -0.058540024 0.021408323 -0.052586995 -0.07698392 -0.035086393
-0.008683173 -0.05832165 -0.0969039 0.022957942 0.08535951 0.10530747 0.055576824 0.05515705
0.09234861 0.056576196 0.12704414 0.056126922 0.10268606 0.06358473 0.0951202 0.006796029
0.15239368 0.092948414 -0.049607575 -0.084954046 -0.13945034 -0.13036603 0.1398501 0.039326113
-0.04177358 -0.089067936 -0.106042035 -0.10531352 -0.0050057387 0.016027423 0.036029432 -0.043454777
-0.06878457 -0.097321875 0.0033942475 -0.07512068 -0.06723147 0.011270714 0.009890101 -0.04748442
0.009520153 -0.04512339 0.044789314 -0.13557278 -0.07518581 0.02060317 -0.030997997 -0.00806181
0.022282414 -0.03653264 -0.035748973 -0.04658709 0.040491145 0.1371748 -0.045939762 0.01789672
-0.10850156 -0.17654788 0.072942026 -0.04689248 -0.03280714 0.013166836 0.0034454465 0.0027677468
-0.010449637 -0.020327592 -0.05055015 -0.00053641567 -0.07820097 -0.048556462 -0.052747246 -0.086073495
-0.05417998 0.0109981485 -0.04463233 -0.052586243 0.014911869 0.059872784 -0.03661032 -0.031088213
-0.120254874 -0.0029390065 -0.00695037 -0.12413297 0.0020764042 0.12301621 0.017017277 0.0038987573
0.026267659 0.06798094 -0.03577394 0.06526477 -0.03231775 -0.046236604 -0.0418957 -0.02926066
-0.025776241 -0.0067409254 -0.08552319 0.001846304 0.011636379 0.033340685 0.074094415 0.08093099
-0.010368229 -0.041793324 0.06448642 0.04248914 0.052587938 -0.04263564 -0.046103615 0.011698697
-0.05215357 -0.018808117 -0.087352686 -0.074469045 -0.0450408 -0.073387556 -0.063502334 0.018393632
-0.03883293 0.00824649 -0.07372378 -0.06516394 0.017214935 -0.0051006568 -0.06907291 0.019394025
0.0056666597 0.027697869 -0.023996415 -0.04650397 -0.07372556 -0.04800099 0.03201172 0.027264958
-0.082799226 -0.016782215 0.021024046 -0.07093379 -0.076769084 -0.16043021 -0.045801662 -0.016322816
-0.02119728 -0.063684024 -0.06091974 -0.04055753 0.06155357 -0.06286135 -0.11039095 -0.053763114

features.conv2.bias f4 [64]
00000000: ff3b 5dbd e7e4 05bd 0132 85bd 3969 873a
00000010: 6c14 38bd 9325 b8bc ab73 ccbd 2629 26bd
00000020: 51b7 01bd 8376 57bb d4db 6c3c b8bc 963c
00000030: 5433 58bb 8a25 12bd 9f26 483d 0f59 da3c
00000040: 4813 9fbd 8d77 0e3d df50 c6bd 6dae 99bd
00000050: fc5d 89bd b09a a4bd a501 81bd e233 63bd
00000060: e3f5 95bd ea52 fcbc 8ed2 203d 552b 8bbd
00000070: 3a7a d73c 7bfa eebb ad8b 013d 64d6 17bd
00000080: 1486 9ebc 06ba 72bd 9efc 05bd c724 c1bd
00000090: 7428 b23b 5a4d f53b 8cb2 9bbd 15b8 66bd
000000a0: 71d5 133d d149 01be ba2a c7bd dc1d 0e3d
000000b0: 5364 8ebd d898 b8bc b279 6fbd 72fb b0bd
000000c0: 0d26 013c 8467 06bd 14d2 ca3b 3573 88bd
000000d0: d794 16bd 646e 9ebd 5cae a2bd f517 ddbc
000000e0: 5b3e 1ebd 7e0b a5bc 23c2 76bd d2f1 b7bd
000000f0: 313d b3bd e120 a8bc 09e9 39bd f3e2 a7bd
-0.054012295 -0.032689 -0.06503678 0.0010331041 -0.04494135 -0.022478854 -0.099829994 -0.040566586
-0.031668965 -0.0032877035 0.014456708 0.018400535 -0.0032989578 -0.03568033 0.048864957 0.026653795
-0.077673495 0.03478198 -0.09683394 -0.07503972 -0.06707379 -0.08037317 -0.06299142 -0.0554694
-0.0732229 -0.030801255 0.0392633 -0.06795374 0.0263034 -0.007293043 0.031627346 -0.037069693
-0.019351043 -0.059259437 -0.032711618 -0.09430843 0.0054369513 0.0074860277 -0.076024145 -0.056327898
0.036092225 -0.12625815 -0.09724946 0.034696445 -0.06952729 -0.02253382 -0.058465667 -0.086417094
0.007882607 -0.032813564 0.006189594 -0.06662599 -0.03676304 -0.07735899 -0.07943413 -0.026988963
-0.038633686 -0.020147081 -0.060243737 -0.089816704 -0.08751906 -0.02052349 -0.045388255 -0.08197584

features.prelu2.weight f4 [64]
00000000: 9f6b e53d 291b a03d b069 eb3e 6721 0a3e
00000010: ba1a b23b 182b f83d fece d23d 8508 363e
00000020: 8f51 083e 3255 183f 1a5e a53e d4ea 7f3d
00000030: d8c4 ca3d 8119 1c3e d1a5 013e 0119 163e
00000040: dda0 2a3e 78f4 f53e 7d64 913e 6b47 e33d
00000050: 7481 953d f3c1 003e 9b87 d13d 1d2b 433e
00000060: 8b45 0d3e b031 9b3e 0987 4e3e f2b8 503e
00000070: e084 b33e 6848 053e f9ad bc3e 597d 873d
00000080: a0f6 be3d 87d8 813e 248d 883e 80c2 0c3b
00000090: d62a 2f3e 9f60 103f 7a9f c53e 30cc fe3e
000000a0: eb9d 343e 538f d73e 5ec1 993d 8ac9 ce3c
000000b0: aa10 4a3c 3cfe 1d3e 439f 183e f61f 973e
000000c0: 07a8 a23e 96e0 893d e17e 103f 8116 973e
000000d0: 025c 9dbe 3c5b 713e 85fa ac3e fa86 663e
000000e0: 4607 683d bb45 083e a41c ec3d 0f14 a43d
000000f0: 4da2 933e 06ee 273d 5586 373e d8ba 8d3e
0.11202168 0.078176804 0.4597907 0.13489304 0.005435315 0.121175945 0.10293387 0.17776687
0.13312362 0.59505 0.32298356 0.06247981 0.09900826 0.15244104 0.1266091 0.14657976
0.16662927 0.48038077 0.2839698 0.11097606 0.07300082 0.12573986 0.10230943 0.19059415
0.1379606 0.30311346 0.201687 0.20383051 0.35062313 0.13015902 0.3685148 0.06615705
0.09324384 0.2536051 0.26670182 0.0021478236 0.17106184 0.5639743 0.38598233 0.49765158
0.17638366 0.42101535 0.07507585 0.025242586 0.012333075 0.15429014 0.14904504 0.29516572
0.3176882 0.067322895 0.564436 0.29509357 -0.3073426 0.2356996 0.3378488 0.22512427
0.05664756 0.1330785 0.115289 0.080116384 0.28834763 0.04099848 0.17922337 0.27681613

features.conv3.weight f4 [64, 64, 3, 3]
00000000: 1681 403d 9de8 423d abc8 60bc 13b8 e13c
00000010: 71b2 403c 114e aebd 23b5 6a3c 33f6 e2bc
00000020: 64b3 1dbc 6ee0 ae3d 3caf b63d 9b7f 33bc
00000030: 0180 8ebd d301 9bbc f474 cabd 27d5 e2bd
00000040: 64cb e9bd 5a21 c9bd 50f9 383c a8fe d33c
00000050: ce53 9abd f240 283d 5626 b1ba 421a b7bd
00000060: 1aad 7b3d c6b4 953d e9d5 cbbd 84b3 093d
00000070: df94 303d 9252 5c3d 0e63 a33d 78ce b9bb
00000080: 7017 273d 09ac 903d 0a85 cd3c f66f 523d
00000090: 5716 353d 9b61 453d ba79 4f3a 091d 9bbd
000000a0: 4789 493d c60f 3d3d 9ef2 dfbd 6dc3 a4bd
000000b0: dbf2 26bd 1859 063e c47d 333e 42b7 843d
000000c0: 4fc0 433d 9659 7d3d 2947 50bd 54c4 53bc
000000d0: 194b af3a 20d8 f63c 5d15 e1bb 2aae 783d
000000e0: 6da8 413d 3e30 c23c 8463 993c 6375 edbc
000000f0: ac03 433b 9289 343d 9fb7 b0ba 0d26 f63d
00000100: 7181 bc3d b772 0dbc 6ddc 993d fb1f 0e3d
00000110: f83a 1fbe 9776 ad3d 3dd1 3bbd dbea 8abd
00000120: 2baa f5bd 1f8c db3c 3d7b fbbb 6fb4 8fbd
00000130: 1aad 393d 54d3 683d db84 d2bd 8317 9e3c
00000140: 9d3b bc3d 0172 5e3c 897f 18bb 64cb 5c3d
00000150: 2162 d73c 1557 5dbd e12f c9bc 0f4e 84bc
00000160: b2f7 153d 2328 a8bb 2c02 f1bd 900c 15bd
00000170: e3ac 9abe 3989 c3bd ef0b 083e 1dd4 92bd
00000180: 91d8 7e3e 8290 333e 07f4 043d 6dc9 063d
00000190: 3b8a 8a3d 5aa7 553c 7024 4bbc 9b9f 9ebd
000001a0: 874b 78bd 9014 df3b 975f bd3c 6dbb 0ebd
000001b0: 237f 213d 0ac3 1f3d b70d f7bc 7895 8abd
000001c0: 9a14 5abd dcda 74bd aa0e 64bd f657 b1bd
000001d0: 3024 24bd faaf 433c cc70 813c c616 083e
000001e0: ea25 453d ac5f 213d d95c b7bc ef58 ecbc
000001f0: 72f6 b93d f944 09bd 98bb ef3c b2c1 413d
00000200: 1d7d c8bd e12e 07bd a88b 86bd 662f f3bd
00000210: 8453 35bd bfcf f1bd c8fe 0ebe 5e41 d6bc
00000220: c8af 53bd c411 f53b 78fd 87bd 934f f6bd
00000230: a252 b4bd 38bf dabc 3e32 673d 493a b0bd
00000240: 8303 093e f204 8a3d 1874 e93c 6cbd b73c
00000250: 5289 24bd 500b 2cbc 409b 58bc 98b8 853d
00000260: 5830 7c3d 0ea1 3d3c f7e9 41ba 218f 60bd
00000270: 4dee 2abe 54e1 5fbd 9023 c5bd c73b e73d
00000280: df77 2f3e c199 1c3d bd9c 703d 835d b8bc
00000290: 6995 003e a8b2 0fbd 5527 13be 1495 343d
000002a0: 975e 7ebd 3c1e 9abd eee2 463c 5c83 2f3d
000002b0: a148 733d 2aa9 203e ea16 ad3d 04b6 11bb
000002c0: ff5c 74bb 85f4 fcbc 847e dabd 6656 29be
000002d0: 2d3f 853d 5326 573d de8a 8d3d 669c 363d
000002e0: 25ed 2bbd a7b4 b43d af8e 633d ff16 56bd
000002f0: f10f c8bd 9ceb 1bbd 7540 473d b2b5 75bd
00000300: 0146 d33c f931 08bc 70db 933d ee5d 843d
00000310: b61f 1cbd a16f 283d 8f9d e83d 412c c63d
00000320: 74d4 88bc a987 8d3d 6a1f ab3d ff90 16be
00000330: ee8a 063e d2f6 933d 62c2 9bbc 0b95 93bc
00000340: c714 c1bc 4265 393d 5d44 24bd 1725 9bbd
00000350: 0c5a 64bd e134 8c3d be2a 1cbb 2b23 babc
00000360: 0336 38bc 4e50 edbc 9a54 b2bd c674 14bc
00000370: 72c3 80bd a919 9dbc 983a c83b 7ec7 d33c
00000380: 3fdd 9fbd 7ad5 273e db5d 6cbc 85fa 713c
00000390: d6f5 e0bd 9f24 3bbd 6f36 58bd 701a 063e
000003a0: 7285 963d 0dfe 31bd a66a a9bd 8cd1 edbb
000003b0: 7ba3 b93d 3c47 c0bd 1b19 edbc 6ead 093c
000003c0: b453 2fbd 7ed4 e03c 65f6 753d 4e1d 683d
000003d0: 84e8 adbc 59e9 47bd d97d 9c3d b515 243d
000003e0: d00e 7bbb b469 be3d 1afe ea3d ea9b d73d
000003f0: 8c3d 12be 963c 2bbd 3804 03bb 3e47 7ebe
0.046998106 0.04758512 -0.013719718 0.027553594 0.011761294 -0.08510984 0.014325413 -0.027705288
-0.00962529 0.085389 0.08920142 -0.0109557165 -0.069580086 -0.018921768 -0.09885588 -0.11075812
-0.11415747 -0.098208144 0.0112899095 0.025878266 -0.07535516 0.04107756 -0.0013515453 -0.08940555
0.06144438 0.073098704 -0.099529095 0.033618465 0.043110725 0.053789683 0.079778776 -0.005670365
0.040793836 0.07064063 0.025087852 0.051376306 0.044210758 0.048188787 0.0007914562 -0.075738974
0.049203184 0.04615762 -0.109349474 -0.08045087 -0.04075895 0.13119924 0.17528445 0.06480266
0.04779082 0.061853014 -0.050849114 -0.012925226 0.0013373821 0.030132353 -0.006869002 0.06071297
0.047279764 0.023704644 0.01872421 -0.028986638 0.0029756827 0.04407651 -0.0013482458 0.12018976
0.092043765 -0.008633307 0.07512746 0.034698468 -0.15549839 0.08469885 -0.045853842 -0.067830764
-0.119953476 0.026800213 -0.0076746033 -0.07016837 0.0453311 0.056842163 -0.102792464 0.01929832
0.09191058 0.013576985 -0.0023269376 0.053904906 0.026291909 -0.054038126 -0.024558963 -0.016150502
0.036613174 -0.005131738 -0.117679924 -0.036388934 -0.30210027 -0.095476575 0.13285802 -0.07169364
0.24887301 0.17535594 0.032459285 0.03290694 0.067646466 0.013040388 -0.012398824 -0.07745286
-0.060618903 0.006807871 0.02311687 -0.034846712 0.039427888 0.039004363 -0.030157907 -0.0676679
-0.053242303 -0.059779033 -0.055678047 -0.08659355 -0.040073574 0.011943812 0.015800856 0.13289937
0.04813186 0.03939788 -0.02238314 -0.028851 0.09080209 -0.033513043 0.029264256 0.047303863
-0.097894885 -0.03300369 -0.06569606 -0.11874275 -0.0442691 -0.118072025 -0.13964379 -0.026154216
-0.05168131 0.0074789245 -0.06640142 -0.12026896 -0.088048235 -0.026702508 0.0564444 -0.08604867
0.13380246 0.067392245 0.02849774 0.02242919 -0.04017002 -0.010500744 -0.013220608 0.06529349
0.06156954 0.011574043 -0.0007397229 -0.054824 -0.16692467 -0.05465825 -0.09625924 0.112906985
0.17135571 0.03823257 0.058743227 -0.022505527 0.12556995 -0.03508249 -0.14370473 0.044087484
-0.062101927 -0.07525298 0.012139065 0.042849883 0.059395436 0.15689531 0.08451636 -0.0022233734
-0.0037286875 -0.030878315 -0.10668662 -0.16536865 0.065061904 0.052526783 0.069112524 0.044582747
-0.041974206 0.08823519 0.055555996 -0.052268025 -0.097686656 -0.03806649 0.048645455 -0.05998773
0.025790216 -0.008312696 0.07219589 0.06463228 -0.03811618 0.041122083 0.11358177 0.096764095
-0.016702868 0.06910641 0.08355601 -0.14703749 0.13138935 0.072248116 -0.019013587 -0.018015405
-0.023569478 0.045262583 -0.04010426 -0.07575434 -0.055749938 0.06846023 -0.0023829187 -0.022721848
-0.011243346 -0.028968956 -0.08707543 -0.009061044 -0.06287278 -0.019177275 0.0061105005 0.025851961
-0.07805871 0.16390029 -0.014426674 0.014769201 -0.109843895 -0.04568922 -0.052786287 0.13096023
0.073496714 -0.043455172 -0.08272295 -0.007257646 0.090643845 -0.09388587 -0.028942635 0.008403165
-0.042804435 0.027445074 0.060049433 0.056668572 -0.021229036 -0.048806522 0.07641191 0.040059764
-0.003830839 0.09297505 0.11474247 0.10527785 -0.14281291 -0.041805826 -0.0019991528 -0.24831864

features.conv3.bias f4 [64]
00000000: d0e8 6ebd 7c60 16be 7e0d 313d dddd 2fbd
00000010: c515 babc 632e b1bd de7c 8c3c 8db8 a03a
00000020: 9b4e 823a 3211 3cbd d05f a7bd b458 b5bb
00000030: b1b9 38be b9eb babd 3107 d0bd 10dd aebd
00000040: 2db4 0cbe 7505 ac3d bd65 93bd 867c e6bb
00000050: 0da3 0cbe a7c5 e2bd d186 fe3c 0b33 883d
00000060: afc3 a8bd 45f3 c4bc 2809 adbc 97ee e9bc
00000070: 7eb2 6bbd a7a5 4e3d 199c 65bd 9618 743d
00000080: e87b a83c aeca 4bbe 002c 063d e01b f0bd
00000090: d233 ad3d f750 81bd c3e9 a5bc 64ef 273d
000000a0: 35f9 9abd 88f8 2bbe 8fe6 24bd fab3 87bb
000000b0: 81e4 47bd 5b86 3abd feab 9c3b 0dbf 1cbd
000000c0: ffe4 7ebc e639 9f3b 8f89 cabc f89c 91ba
000000d0: a2f9 e3bd 30e0 37bd 66ae 84bd 335a 43be
000000e0: 08bc ff3c f736 b6bd 6e58 03be a59b a6bd
000000f0: a89a c2bc e84a d0bc 4f57 3cbc 9620 81bc
-0.058327496 -0.14685243 0.043225758 -0.042936195 -0.022715459 -0.08651426 0.017149385 0.0012262032
0.0009941639 -0.045914836 -0.08172572 -0.005534256 -0.18039586 -0.09126992 -0.10157622 -0.08538258
-0.13740607 0.08399478 -0.071971394 -0.0070338873 -0.13734074 -0.110728554 0.031070145 0.06650361
-0.08240449 -0.024041781 -0.02112253 -0.028556151 -0.05754327 0.050450947 -0.05605707 0.05959376
0.020566896 -0.19901535 0.032756805 -0.11724067 0.084571496 -0.06314271 -0.020253068 0.040999785
-0.07567064 -0.16794026 -0.04025894 -0.004141328 -0.048801903 -0.045538288 0.0047812453 -0.038268138
-0.015557527 0.004859197 -0.024723796 -0.0011109402 -0.11131598 -0.044891536 -0.06478576 -0.19077377
0.03121759 -0.088972025 -0.12826702 -0.081351556 -0.023755386 -0.025426343 -0.011495425 -0.015762608

features.prelu3.weight f4 [64]
00000000: 9bfa 293e bbb6 ad3d a31a e03e 4202 833e
00000010: e8b5 553e 1166 bb3d 842f 953e 63d0 133e
00000020: 1bae 773e f246 213e 44a6 043e 1187 473e
00000030: a146 ce3e e7d6 383e 059e 423e 759a 6a3e
00000040: 5e46 663e d419 053f 4695 7c3e 51dc 603e
00000050: d4cd 293e 2266 6f3e fcfa 043e 4eb9 bf3e
00000060: c8ab 483e 1f75 e73d 93d2 013e fccb 893e
00000070: 9b4a 223e 0db7 883e 46df db3d 1cc4 3f3e
00000080: 51d4 1d3e 10a6 a93e 790f 583e f96a 883e
00000090: 41bf 863e 310f 583e 4409 593e 5fb5 063e
000000a0: f96b 6e3e cf68 643e b2f1 263e c5d8 0e3e
000000b0: bff4 6d3e 0546 6a3e 0590 ba3e 7290 943e
000000c0: a307 8d3e 721a 933e 4c8f f93d 9fcd dd3e
000000d0: e3fa 853e 6ed8 c73d 4ccb 6c3e 4ce8 cd3e
000000e0: f7e5 693e d29a 223e 607e 383e d60d d13d
000000f0: 6a2e 713e 28f2 143e d4a6 153e b4c3 7f3e
0.16599505 0.08482119 0.43770322 0.2558766 0.20870173 0.09150327 0.29137814 0.14434962
0.2418751 0.1574972 0.1295405 0.19485117 0.4028826 0.18050729 0.19005592 0.22910483
0.2248778 0.51992536 0.24666318 0.21959044 0.16582423 0.23378804 0.12986368 0.37446064
0.1959678 0.11301636 0.12677984 0.2691344 0.15848772 0.26702157 0.107359454 0.18727154
0.15413024 0.33134508 0.21099652 0.26644114 0.2631779 0.21099545 0.21194941 0.13155125
0.23283376 0.22305606 0.16303137 0.13949879 0.23237894 0.22878273 0.36438003 0.29016453
0.2754489 0.28731114 0.12185535 0.4332094 0.26167974 0.097580776 0.23124427 0.4021629
0.22841631 0.15879372 0.18016958 0.10207717 0.23552862 0.145455 0.14614421 0.24976999

features.conv4.weight f4 [128, 64, 2, 2]
00000000: f1e7 c63c 6371 3cbd 6b08 a3bd f73c 7dbe
00000010: 2fb1 b93d c6d0 af3d 0144 263d 7221 023c
00000020: cce1 07bd 3700 2dbe 74db 5d3d 4fea fabc
00000030: a156 ce3c 226f 9a3c 40e5 74bd ebb9 0bbd
00000040: a6b9 0cbd b485 02be 2aed f6bd ee0a 10be
00000050: 0a8a d03d dbd5 d63c 6d91 db3d 5c93 e13d
00000060: 0e5b 313c f1dc 42bd 9a49 ccbd 52ec 363c
00000070: c73f 4ebd 3c4e ccbd dea5 b73c 4795 49bd
00000080: 5033 c63d f45d f03b 6c93 9abc 218a d8bd
00000090: 07be 223d 9845 1b3e 35e2 853d fe60 153e
000000a0: b6ba e1bc c9d6 15bd ab58 d0bc 13ff 3fbe
000000b0: 3b34 4bbd 9fe4 53bb 4f26 15bd b9e7 66ba
000000c0: 618b 7a3e 30bf 833e dcf9 c73d fcf9 04bc
000000d0: 43eb 213e 4894 723e 0c25 3f3e 1f04 99b9
000000e0: b7a5 083e 8910 293e e955 d03c 60b1 583e
000000f0: d8eb c4bb eed9 903a 5501 e0bd b95b c93d
00000100: c857 b73d 9b78 1fbd ad95 213e 32aa 4abd
00000110: 82f2 1bbe a661 1cbe 1ca9 41bd adf8 76bd
00000120: 94cc 393d 56df bb3c d476 173e 1eed 973d
00000130: 00cc 373d f385 8e3d 5015 1a3e 1df7 163d
00000140: bcd2 1dbc 7fb0 163e 9f2c 823d 310a 463d
00000150: 03d4 0c3e a0f7 b83d 0e3f 853d 10c6 243d
00000160: da90 23bd 3162 39bd 53ac d0bd f1ac 58bd
00000170: b1b9 53bd 70b7 203c d386 19bd 0ff5 2d3d
00000180: e149 a93d 98ef a9bd fd8e 643e 77db 873a
00000190: 4ddf 43bd 8ad6 9ebd 4fb6 39bd 71ef d53c
000001a0: aa21 8b3c d84b 54bd fd56 8ebd 6c2b 90bb
000001b0: 074e 793d dc1e b0bc 7f8b 79bb d17c 08bd
000001c0: 6b17 ee3d 8897 66bd 83df 063d 79a7 a2bd
000001d0: a37e bb3d 3775 f7bd f0cb bfbb 2951 22be
000001e0: c41c 7eba 918b cc3c b9d8 a63b 7eb5 53bc
000001f0: 75ef 033d 0657 3d3d f697 21be 5224 9f3d
00000200: 9682 1f3e 4bee b93d 7fa4 563d 9d88 22bd
00000210: 288d 843d 5233 723c 0c26 e1ba ded9 683d
00000220: 2944 efbd b575 2ebe 119f e4bd 5eef 42be
00000230: ba9f c83c 722c ac3d 6936 b8bd 05bc 5c3d
00000240: e6e4 c4bd 15da c13d cf04 0cbe ed9b 523d
00000250: 1372 8fbd fe0e 08be 4d9f e13d dba5 48ba
00000260: 9b8f f33c 1fc6 23be 2a9a 85bd 2f95 51bd
00000270: a658 d33c 2375 123e 75d9 fabd 54aa 103d
00000280: 1a57 363d 2dcb 31bd 34c2 2f3e d575 a63d
00000290: 59e7 c33c fb15 ce3b 8320 9f3c a244 773d
000002a0: 5ac2 92bb 02bb 973d cc49 3b3d 8f49 253e
000002b0: 0e82 24bd bf47 4dbd 2cda ae3c 3367 f4bd
000002c0: 7dd6 ac3d 1e8a 9f3d 6d9b 3cbd a629 e73c
000002d0: 54fb d93c 0c69 5f3b 69a1 f33d c9a8 d63d
000002e0: eee4 2b3e f9bc a93d 9f1d 8e3d 996b 1b3d
000002f0: 92bc 153e c97d e3bd f690 553d 6106 023d
00000300: 3c2d 9e3d b665 a93d 4240 403d 393e 19bc
00000310: 8912 8ebc c1d7 be3b 86bc 53bd 74ab d7bc
00000320: 0efd 823d 4858 793d 8794 c8bd 7089 52bd
00000330: 6995 843b 0019 003d 8ee0 cebc c5ab b6bd
00000340: 7f96 053d e83f 413e 0e91 ce3c 5836 ec3d
00000350: 4cfd 273d 9d41 ad3d a904 2c3c 5442 753d
00000360: 6865 8c3d ee73 8abc 4b21 d93d d144 22bd
00000370: d6c3 b23d 676a ba3c 784e e6ba d8db c03c
00000380: 73ef 2cbd 9032 edbc 2f78 c93d 51f3 e3bd
00000390: 8721 7d3d 4870 cb3d 34c6 aa3d 8b3b 1dbc
000003a0: 85cb 3d3e 628d ea3c a126 9b3d 36d1 b73d
000003b0: 5afd 513d 43ab 83bd 9f71 e3bc 6644 5cbd
000003c0: fbea 88bc 1841 aabd d647 f1bc b601 55bd
000003d0: 1c44 69bd 922e 7abd 2f97 643d 8183 0a3c
000003e0: a22c 46bd dfe1 0c3e 890f 5ebd bf07 68bd
000003f0: 502a a63c 3abd a2bd 57cf b5bd fc7e f5bd
0.02428052 -0.04600657 -0.0796059 -0.24730287 0.09066998 0.08584742 0.040592197 0.007942544
-0.03317432 -0.16894613 0.054164365 -0.030629305 0.025187792 0.01885182 -0.059788942 -0.034112852
-0.034356736 -0.12746316 -0.12056954 -0.1406667 0.10182579 0.026225021 0.10721097 0.11014435
0.010824932 -0.047573987 -0.09974976 0.011164742 -0.05035379 -0.099758595 0.022417959 -0.049214628
0.09677756 0.007335419 -0.018869124 -0.10573221 0.039732005 0.15163267 0.06537286 0.14587781
-0.027554851 -0.03658179 -0.025432905 -0.18749647 -0.049610358 -0.0032332314 -0.036413487 -0.0008808333
0.24467231 0.25731802 0.09764454 -0.008116242 0.15812401 0.23689377 0.18666476 -0.00029185505
0.13344465 0.16510214 0.02543159 0.21161413 -0.00600956 0.0011051276 -0.10937754 0.09831948
0.0895229 -0.038933378 0.15779753 -0.049478717 -0.15229228 -0.15271625 -0.047280416 -0.06029575
0.045361117 0.022933643 0.14791423 0.074182734 0.044872284 0.069591425 0.15047193 0.03685676
-0.0096327625 0.14715765 0.06356167 0.048349563 0.13752751 0.09031606 0.06506167 0.04022795
-0.039933063 -0.04525966 -0.10189118 -0.052899305 -0.05169076 0.00980936 -0.037482094 0.042470034
0.082660444 -0.08297652 0.2232017 0.0010365088 -0.047820378 -0.07755764 -0.04533988 0.026115151
0.016983826 -0.051830143 -0.069501854 -0.0043997075 0.06086543 -0.02149909 -0.003807753 -0.03332216
0.116255604 -0.056296855 0.032928 -0.07942099 0.091550134 -0.12082904 -0.0058531687 -0.15851273
-0.00096936175 0.024968894 0.0050917533 -0.012921689 0.032210786 0.04622557 -0.15780625 0.077705994
0.15577158 0.09078654 0.05240297 -0.039681066 0.06472236 0.0147827435 -0.0017177477 0.0568484
-0.116829224 -0.17037089 -0.11163152 -0.19036624 0.024490226 0.08406915 -0.08994753 0.053890247
-0.096139714 0.09465424 -0.1367371 0.051418234 -0.0700418 -0.13286969 0.11016712 -0.0007654109
0.029731562 -0.15993546 -0.06523545 -0.051167663 0.025799107 0.14302497 -0.12248508 0.035318688
0.04451666 -0.043406654 0.17163926 0.081279434 0.023914026 0.0062892414 0.019424682 0.060368188
-0.004478735 0.07408716 0.045724675 0.16141342 -0.040163092 -0.05011725 0.021344267 -0.11933746
0.08439348 0.07790016 -0.046046663 0.028218102 0.0266091 0.0034089712 0.11896021 0.10481412
0.16786548 0.08287997 0.069392435 0.03794441 0.14622715 -0.11107976 0.0521402 0.031744365
0.077234715 0.08271353 0.04693628 -0.009353214 -0.017342823 0.0058240597 -0.05169346 -0.026326872
0.063959226 0.060875207 -0.09793954 -0.051400602 0.0040461314 0.03127384 -0.02525356 -0.08919481
0.032614227 0.18872035 0.025215652 0.11533803 0.041013047 0.0845978 0.010499158 0.05987771
0.06855279 -0.016900983 0.10602053 -0.03961641 0.08728759 0.022755815 -0.0017570993 0.02354233
-0.042220544 -0.028954774 0.09837376 -0.11130393 0.061799552 0.09933525 0.083385855 -0.009596716
0.18534668 0.02863187 0.07575727 0.08975451 0.051267006 -0.0642915 -0.02776414 -0.053776167
-0.01671361 -0.08313197 -0.0294532 -0.052003585 -0.05694972 -0.06107957 0.055808242 0.008454205
-0.04838241 0.13758038 -0.054214034 -0.056648012 0.020283848 -0.07946248 -0.088774376 -0.11987111

features.conv4.bias f4 [128]
00000000: 6ef5 3fbd 8eb8 bfbd 262f 90bd 9410 92bd
00000010: ab43 b23c bb56 9bbd 753b c8bd 2f10 f7bc
00000020: ce0a e5bd 70c6 58bd 023f 70bc 0ce5 c2bc
00000030: b07b 78bd 9cdf bbbd 42c7 783d 4813 93bd
00000040: 215d 5bbd 02d2 57bd c3c6 eabd 60fc 06be
00000050: 6738 dbbd 2cde 69bc 4b11 6c3d 5c16 d2bd
00000060: 062b 3d3d 4d20 f2bd 1f02 abbd 3269 02be
00000070: 50fb 04be 8a90 a6bd 846b c2bd c3df bdbd
00000080: 2cfd 2ebd 6973 b5bd 1932 b9bd 1c90 f0bd
00000090: a662 32be 398b 3abe 7afe 5dbd 2951 3bbd
000000a0: 636c 42bd dfcf 37bd fc63 18be eb4c 9fbd
000000b0: 2f1b d0bd b653 cebd 0774 b5bd 3f3a 12bd
000000c0: 0058 61bd 5015 4fbe 7923 a0bd bc68 4fbd
000000d0: 5fe9 553d db36 a93a b554 d1bd 8b2f adbd
000000e0: 2788 cabd a15a c9bd 358f 0b3d 63e6 323d
000000f0: 89db 8cbd d29d 4abd 1399 25bd b0d3 36be
00000100: a461 83bd 3c4e 9fbd 78de 8dbd 3428 cebd
00000110: e989 873c e04f 373d fd56 6fbd bd85 9dbc
00000120: 20c3 d5bd c71e 01bd 1f94 0cbd c2fb ebbd
00000130: fc06 b1bd 0ba7 8dbd 22d5 32bd 1c83 dfbb
00000140: e524 bbbd d9f7 103b 0b1f 3d3e f1d0 663c
00000150: 15ad e1bd e29a 393e 0af9 12bd e5f3 0ebe
00000160: f64d cd3d 6c56 cdbd 9120 60bd a41d 783e
00000170: a998 43bd 43e4 c6bd cf88 09be 6a04 7d3b
00000180: 9f0c 3dbd 6209 0bbe 0757 1fbd b97a a2bd
00000190: baad d7bd 1ec1 e2bd 872d a0bd 1c3e d0bd
000001a0: f65d d6bd fa0d 9dbd 76cc 26be 00c0 cfbc
000001b0: 26dc 18be 90ec aabc 3667 2bbe 85e9 b7bc
000001c0: bbde 21bc 0a67 d4bd 74cb c9bd 20a6 4abd
000001d0: 2176 e5bc b0d6 df3c c7a2 c53b bb9b d8bd
000001e0: 3996 38bb 164a a1bd 82c7 75bc 3338 f8bb
000001f0: ebb7 e1bc 50f4 c1bd 2d4e 07bd cb83 1cbe
-0.04686492 -0.09361373 -0.07040243 -0.07132068 0.021760782 -0.07584902 -0.097769655 -0.030159084
-0.111837015 -0.05292362 -0.01466346 -0.023790859 -0.060664833 -0.091735095 0.060736902 -0.07181412
-0.05355561 -0.052690513 -0.11463692 -0.13182211 -0.10704117 -0.014274161 0.05763368 -0.10258171
0.04618361 -0.11822567 -0.08350014 -0.12735441 -0.12986493 -0.081330374 -0.09493163 -0.09271195
-0.042721912 -0.08859903 -0.090427585 -0.11746237 -0.17420444 -0.18217172 -0.054197766 -0.045731697
-0.047466647 -0.044875976 -0.14881891 -0.07778343 -0.10161435 -0.1007456 -0.08860021 -0.03570008
-0.055015564 -0.20222974 -0.07819266 -0.05063699 0.052224513 0.0012910025 -0.10221235 -0.08456334
-0.0988925 -0.09831739 0.03407212 0.043676745 -0.068778105 -0.049466915 -0.040429186 -0.1785419
-0.06415108 -0.07778594 -0.06927198 -0.10066262 0.016545253 0.04475391 -0.058432568 -0.01922881
-0.10437608 -0.031523492 -0.034320947 -0.11522628 -0.0864391 -0.069166265 -0.04366029 -0.0068210494
-0.091378964 0.0022120385 0.18468873 0.014087901 -0.11019341 0.1812549 -0.035882033 -0.13960226
0.100246355 -0.10026249 -0.054718558 0.24230057 -0.04775301 -0.09711506 -0.13431095 0.0038607367
-0.046154615 -0.13577798 -0.038901355 -0.07933564 -0.105311826 -0.110719904 -0.07821184 -0.101680964
-0.104671404 -0.076686814 -0.16288933 -0.025360107 -0.1492773 -0.020864755 -0.1673859 -0.022450218
-0.009879763 -0.10371216 -0.09853259 -0.049474835 -0.02801043 0.02732405 0.0060313675 -0.10576578
-0.0028165712 -0.07875459 -0.01500118 -0.007575059 -0.02755352 -0.09470427 -0.03303354 -0.1528465

features.prelu4.weight f4 [128]
00000000: 2cbd 113b 75af 3d3c 7bc3 7b3d 62c2 4c3e
00000010: c144 553d d975 3b3e 5c47 073d b6ea 703e
00000020: 5e81 ba3d 8e5f 043c 0b05 903d 73f7 f33d
00000030: 5a97 abbd cb11 373d b43e 9e3d 0795 0f3d
00000040: ec24 473d 9d1b dbbd 3613 463c 72c4 6e3e
00000050: 1338 15bb 46f4 8fbd 15ca d03d 3501 163e
00000060: 46a0 7d3c ba55 c53d 0c5a 4abd 53b8 833d
00000070: 630c 083e 2731 b93d e84e 0f3d f673 653d
00000080: 0f94 993d 495f 153d 493d 2d3b 8494 343d
00000090: 9998 ab3c b221 043e d93d 463d cba7 1f3c
000000a0: 464c 3dbb 236b 0cbb fc88 853d 28fb f93c
000000b0: 9419 2a3e 36e2 343e 3419 1c3d 4565 a93d
000000c0: 74ae cb3d bed1 e83d a50a b63c e1de 9a3d
000000d0: 1102 5b3e 0ff6 a6bc 06d0 3e3c 02fe 143e
000000e0: bbd2 153e a271 603d be22 c83d d3f9 c0bc
000000f0: 1104 55bc 2bec 213d 8bb6 1c3e fd05 5b3e
00000100: 150e de3d d9c7 693e c911 a73b 63b0 fa3d
00000110: c134 333e 2967 e73d 74ea 573c c388 0ebd
00000120: 42f4 d63d 90b9 74bc e165 473d 3046 263d
00000130: 75eb 9e3d 1500 4f3d 6771 023c 4ce4 da3d
00000140: 7ad6 b53d 862f 033e 3ebf b43d 2531 573d
00000150: b2b3 153e 6e2e 88be a9ee 263d b441 e83d
00000160: 6b0a 43bc a65e bbb9 70c0 a73b 6e10 6e3d
00000170: c7b8 ac3d 69c8 043e a9b4 103e 7863 d43d
00000180: 13c4 6439 1ec6 43bb 13ee feb9 5642 0039
00000190: 7b92 633d 4886 b73d ff6f adbd c0f8 0bbe
000001a0: f41b 2a3b 11f0 783d f9b9 0e3e 96b1 47be
000001b0: 1cae a43d d394 fe3d 72d0 253e 0b5a 86ba
000001c0: 1443 f43d 75dc 1a3b 62c1 e43d 46c5 7c3d
000001d0: dd8b 903d 1e75 133e 8f72 563e 1a0f 183d
000001e0: 4e2a 723d edb4 f6bc c05c 65bb 310d 233e
000001f0: d7a8 a63e 8b7c ed3d c4a0 7f3d 7b50 953e
0.0022238 0.011577477 0.06146572 0.19996026 0.052067522 0.18306674 0.033027038 0.23527035
0.09106706 0.008079423 0.07032212 0.119124316 -0.083784774 0.044694703 0.077268034 0.035054233
0.048619196 -0.10698626 0.012089541 0.23317125 -0.0022769019 -0.07029013 0.10194794 0.14648898
0.015480107 0.09635492 -0.04940228 0.064316414 0.13285975 0.09042578 0.03498736 0.056018792
0.07498943 0.036467824 0.0026434234 0.044086948 0.020946788 0.12903479 0.048398826 0.009744595
-0.0028884574 -0.0021426163 0.06520268 0.030515268 0.1661132 0.17664418 0.038109973 0.08271269
0.09945384 0.1136813 0.022221873 0.07562042 0.21387507 -0.020381002 0.011646276 0.14550021
0.14631169 0.05479587 0.097722515 -0.023556625 -0.013001458 0.039531868 0.1530401 0.21389003
0.1084253 0.22830142 0.0050985557 0.12240674 0.17500593 0.11298973 0.013178457 -0.034798395
0.10495807 -0.01493682 0.048681144 0.04059428 0.077597536 0.050537188 0.007961608 0.106880754
0.08878799 0.12811098 0.08825539 0.052537102 0.1461933 -0.26597923 0.040754948 0.11340657
-0.011904339 -0.00035737938 0.005119376 0.058121137 0.08433681 0.12967075 0.14131416 0.10370535
0.00021816818 -0.0029872726 -0.00048624034 0.00012231743 0.055559617 0.08961159 -0.08468627 -0.1366911
0.0025956603 0.06077582 0.1393813 -0.19501337 0.08041021 0.1243073 0.16192797 -0.0010250224
0.11926857 0.0023629938 0.11169697 0.061711572 0.07057927 0.14400145 0.20942138 0.037123777
0.059122376 -0.030115569 -0.003499791 0.15923001 0.3255069 0.1159602 0.062409177 0.29162964

features.conv5.weight f4 [256, 512]
00000000: 69e5 873d 8816 f03d 610b 013e 5fae af3d
00000010: ba6c 463d b21e f2bd 4669 223d 931b adbd
00000020: 8f4a cdbd fec1 9abd 998c 9ebd e5ac 983d
00000030: 3b6c 6f3d 29c3 c0bc 97a0 65bd 85a0 26be
00000040: a7f0 e23d 8d52 e53a 9cf7 a33c 65d6 083d
00000050: adf6 e7bc a7bb 073b fff1 cbbd 4ad0 2f3b
00000060: 25e8 51bc fe72 fdbc f3a2 a23c 17d1 f239
00000070: 8cbf 05bd 799e b23c 87d0 c0bd 5372 243d
00000080: f5c2 8abc c01f e9bc a2db 7dbc f006 51bd
00000090: e259 c53d 8f6f 81bc 0880 813d ac74 8d3c
000000a0: 2700 cfbd 8d21 2d3d c32b 9c3d e560 0c3c
000000b0: c296 6b3c 3d1b 8e3d 9292 b1bc 6a31 763d
000000c0: 4a67 65bb 6ca9 c83d 5aad 95bc 1945 b93c
000000d0: 7fc5 ee3c 42c1 663d 5546 08bd d65d a8bc
000000e0: 8b14 9ebd af5e 803d 2c8a d1bc 0530 113e
000000f0: 91c9 1a3d e658 36bd 7f5a ff3d 00e3 95bd
00000100: 07ec 9e3b bfcc c8bd 6406 9ebd c41a 9fbd
00000110: bcc8 ea3d f79d 763e b70b d33d fe2c 8e3d
00000120: 4173 90bd d0e8 aebd a1f8 133d f9ac e6ba
00000130: 131d c6bd dfb1 bbbb 8bc9 7abc f62e 373d
00000140: d57a 17bd 498f 663d 4bde 053e 12e8 2d3e
00000150: daba b9bd 0a52 7fbd 8cdf 01bd 9a1f c4bd
00000160: 0e36 303c af56 423d c858 063e 49df 253e
00000170: c296 a93d f1fc a43d c275 903d 4d8c 293d
00000180: 979b 8dba 2017 94bd 0568 bdbd 3ffe e7bd
00000190: b331 06bc 370c 79bb 41c5 053d 402b 433d
000001a0: 11dc 78bd 4024 7ebd 0b6c 52bd d3ad ffbc
000001b0: 66b9 363d 5196 203b 3f43 a43c 1303 843d
000001c0: 2ce1 e23c b126 7fbd e6fc ed3c a9c1 1a3c
000001d0: b41a 583d e93c bf3c 1ce4 71bb f7d2 97bc
000001e0: 582d 063d bd6a 74bd 0503 64bc 1c38 203d
000001f0: b2bd f53c e306 4d3d 2f07 34bd f3f6 e73c
00000200: 7367 afbd 7d76 b53d f13c 183e 89c0 083e
00000210: 5559 043d 3191 013c 12aa 383d e339 c0bd
00000220: cd64 bbbc 3eb0 e13d 51e7 bb3d bbc3 833d
00000230: 0ab5 453d 43cf 8a3d 412e cd3d 782c ab3d
00000240: 2a2e 57bd 361c 253d 66e4 54bd 7501 4cbd
00000250: 05c9 83bd e81b 69bc f418 4abe 4acb 4fbe
00000260: 3626 59bb 5e9d 7fbd 1f69 a2bd f3f3 6cbd
00000270: 9339 963d e186 d53a e340 4a3c f080 7ebd
00000280: 67f0 39bc c453 1d3d 3edf db3d a4f0 133d
00000290: 4007 c53d 503d b33a db38 193e 2d05 bb3d
000002a0: d443 cfbd ab03 4ebc 182f 423d c0af 2ebd
000002b0: 9f0a 26bb 293c 33bd 8734 e2bc 0021 dc3b
000002c0: ae41 36bc da5f eabc 5b7d 88bc 2fe9 39bd
000002d0: 429c 0f3d 73b0 873d 2858 0c3d 8ff0 103e
000002e0: e8e4 1e3b a6d3 ed3c 81e2 2a3c bd45 0a3e
000002f0: add6 973b 1ae5 1ebc 3afc d23d ac07 7f3d
00000300: e6e1 ba3c c438 3dbc f29f c53c 8600 4ebd
00000310: 93f2 13be a935 09be 9049 e7bd 0925 9fbd
00000320: 9292 77bd 818a 5f3d a9ee 4a3d 4d93 d6bc
00000330: 2ef8 9c3b 94a6 54be 9aaf e0bc 7646 d8bc
00000340: 2acf f93d 91e7 c13b 059a 9fbc c8ca 07bd
00000350: 852c d03c 6508 213e 0a3e cf3d eddb de3d
00000360: 5750 90bc 6d52 f2bd 76c4 6fbd 224b 3b3d
00000370: 1700 6fbd fb1a 6e3b edc8 a63d f01c bd3d
00000380: a046 f83d 2743 d4bc f501 d13c 9da6 85bd
00000390: cb18 133d f977 cc3d af8e db3c 6435 9d3c
000003a0: 5b01 d9bd 064c b73c d30e 02bc 92a5 dfbc
000003b0: fcb3 4ebb 6447 84bb 0c81 3e3a b4b7 ba3b
000003c0: af5e 203d 8987 93bd 7014 e4bc c0d9 933c
000003d0: 2c9d 023b 5bf9 ddbc 56ca 2fbc c9bc 66bd
000003e0: b722 7a3c a371 1bbd aa39 21bc cb2c dfbd
000003f0: b043 7fbd dd2c b1bd 8cdf 9bbd 92be 95bd
0.066355534 0.117230475 0.12601997 0.085781805 0.048443533 -0.11822261 0.039651178 -0.08452525
-0.100239865 -0.07556532 -0.077416606 0.07454852 0.058452826 -0.02353056 -0.056061354 -0.16272171
0.11081057 0.0017495916 0.02001553 0.033407588 -0.028315866 0.0020711215 -0.099582665 0.002682703
-0.012811695 -0.030938622 0.01985309 0.0004631362 -0.032653376 0.021804081 -0.094147734 0.04014809
-0.016938666 -0.028457522 -0.015494259 -0.051032007 0.096362844 -0.015800266 0.06323248 0.017267548
-0.10107451 0.042268325 0.076255344 0.008568023 0.014379205 0.06938789 -0.021676335 0.06010572
-0.0035004192 0.0979794 -0.018271137 0.022615956 0.029146908 0.05633665 -0.0332702 -0.020552557
-0.07718762 0.062680595 -0.02557858 0.14178474 0.037789885 -0.044518374 0.12468433 -0.073186874
0.004849914 -0.09804677 -0.07716063 -0.07768777 0.11464068 0.24083696 0.10304969 0.06942175
-0.07053233 -0.08540499 0.036125783 -0.0017599157 -0.09673514 -0.005727991 -0.015306841 0.04472252
-0.036982376 0.05628899 0.1307308 0.16983059 -0.09068842 -0.062334098 -0.03170733 -0.0957634
0.010755075 0.04744595 0.13119805 0.16198458 0.08280708 0.08056057 0.070537105 0.041393567
-0.0010803816 -0.07230973 -0.09248356 -0.113277905 -0.00819056 -0.0038001665 0.03265882 0.04764867
-0.060756747 -0.06204629 -0.05137257 -0.031210816 0.044610403 0.0024503658 0.020051597 0.06445899
0.027695261 -0.06229276 0.029051255 0.009445586 0.05275984 0.023344474 -0.0036909645 -0.018533213
0.032758087 -0.059672106 -0.013916736 0.03911601 0.02999768 0.050055396 -0.043952163 0.028315997
-0.08564653 0.088604905 0.14866997 0.13354696 0.032311756 0.0079081515 0.045084067 -0.09386041
-0.022875214 0.11019944 0.091749795 0.06433817 0.048268355 0.06777813 0.10018588 0.08358091
-0.05253426 0.040310107 -0.05197563 -0.049806077 -0.06434826 -0.014227845 -0.19736081 -0.20292392
-0.0033134348 -0.062405936 -0.079302065 -0.057849836 0.073352 0.0016290807 0.012344572 -0.062134683
-0.01134882 0.038409963 0.107359394 0.036118165 0.096205235 0.0013674889 0.14963095 0.091318466
-0.10120359 -0.012574117 0.047408193 -0.042648077 -0.002533592 -0.043758545 -0.027612938 0.006717801
-0.011124058 -0.028610159 -0.016661337 -0.045388397 0.03506113 0.06625452 0.03426376 0.14154266
0.0024245325 0.029031586 0.010429979 0.13503166 0.0046337456 -0.009698177 0.10302015 0.062263176
0.022812795 -0.0115491785 0.02412412 -0.050293468 -0.14448003 -0.13399376 -0.11293328 -0.07770736
-0.060442515 0.054575447 0.04954401 -0.026193285 0.0047903275 -0.2076667 -0.027427483 -0.026400786
0.121977165 0.0059174974 -0.019482622 -0.03315237 0.025411854 0.15725859 0.10119255 0.10881791
-0.017616434 -0.11832128 -0.05853697 0.04572595 -0.058349695 0.0036332 0.08143792 0.09234035
0.12122846 -0.025910927 0.025513628 -0.065259196 0.035912316 0.099838205 0.026801435 0.019190498
-0.10595962 0.022375118 -0.007938105 -0.02730063 -0.0031540385 -0.0040368307 0.0007267154 0.0056981687
0.039152797 -0.07203586 -0.027841777 0.018048167 0.0019930108 -0.027096441 -0.010729393 -0.056332383
0.015267066 -0.03795017 -0.009840408 -0.108972155 -0.06232041 -0.08651135 -0.076109976 -0.07311739
