pretrained_weights/quant_mtcnn/best_pnet.pth (torch_old, 7459 bytes, 14 tensors)

conv1.0.weight f4 [12, 3, 3, 3]
000000 38 f0 f0 bd e8 0f dd be 18 d4 80 bf dc 15 44 3e
       -0.11764568 -0.43176198 -1.0064726 0.19148964
000010 94 bb 08 bf 41 db 5d bf 47 8f b6 be 9e 55 9b bf
       -0.5341122 -0.8666268 -0.35656187 -1.2135503
000020 eb 5b 04 bf 0c 75 04 3f ea 09 6a 3f cf 9d 06 3f
       -0.51702756 0.517411 0.9142138 0.52584547
000030 a1 f4 16 3f 09 67 24 3f 02 0c 17 3f 0f 04 2b 3f
       0.58967024 0.6421972 0.590027 0.6680307
000040 93 a3 e5 3e 1b f0 8e 3f bc 3e 03 3c 75 c8 e5 3d
       0.4485136 1.1167024 0.0080105625 0.11219875
000050 e6 9b 0d bf c0 63 6b be f7 cb 05 be 37 d3 ea be
       -0.5531601 -0.2298727 -0.13066088 -0.4586427
000060 7d 52 09 be e6 5c 00 bf fa d0 f9 3e e7 06 f3 bf
       -0.13410373 -0.5014175 0.4879225 -1.8986481
000070 32 2c 85 bd fb 11 a1 3f b8 1c 65 bf 81 c3 45 be
       -0.0650257 1.2583612 -0.89496946 -0.1931286
000080 1a e8 b6 3e 39 71 a3 3d f5 df a9 be f7 e9 41 be
       0.35723954 0.0798058 -0.33178678 -0.18936907
000090 1a 00 80 ba 4e a4 52 3f 0d da d3 bd 22 40 55 be
       -0.0009765655 0.8228196 -0.10344324 -0.20825246
0000a0 7b 11 5d 3f c9 36 f1 bd 90 1f 26 3e 27 64 85 3e
       0.863548 -0.117780276 0.16222978 0.26052973
0000b0 8b ff 84 bd 0a 39 be be 24 5b 2f 3e ea be de be
       -0.064940535 -0.37152892 0.17124611 -0.4350503
0000c0 d5 87 06 bf 13 1a 8e 3e d4 16 16 bd c3 6d 22 ba
       -0.52551013 0.27754268 -0.036642864 -0.00061961653
0000d0 54 9e 1a be 5a 00 5f bd 8d 0f 49 3f d1 9c d4 bf
       -0.1509946 -0.054443695 0.78539354 -1.6610357
0000e0 92 58 8b 3f c6 70 98 3e e0 ad 3e bf 50 bf 0e 3f
       1.0886405 0.2977354 -0.7448406 0.5576067
0000f0 4e a5 c1 be c3 e8 60 be 0f 6b 14 3e f5 07 4a 3f
       -0.3782143 -0.21963792 0.14493965 0.7891839
000100 89 3f a9 bf 82 06 2b 3f bb 8f 8b 3e 58 36 e9 be
       -1.3222514 0.66806805 0.27258095 -0.45549273
000110 5c 46 8a 3e 9d e9 cd 3a da 7a 40 3e 4a a7 2f be
       0.27006805 0.0015709881 0.18796864 -0.1715366
000120 64 95 2a 3f 66 96 a0 bf ff b2 aa 3e 27 c7 12 3e
       0.666342 -1.2545898 0.33339688 0.14333783
000130 76 54 96 be 75 14 f1 bc 95 c4 3c 3d f8 f1 13 3e
       -0.29361314 -0.0294287 0.046085913 0.14447773
000140 a5 f0 4f bd ec 17 9e 3f 2e 32 08 be c1 60 ba 3e
       -0.050766606 1.235105 -0.13300392 0.36401942
000150 ec ae 59 3e 92 6e 91 bf 28 45 ef be 91 56 12 3f
       0.21258134 -1.1361868 -0.4673245 0.5716334
000160 7e 5a cf be 19 2c 70 bd 4a 63 19 bf 38 e2 4c bf
       -0.40498728 -0.058635805 -0.5991713 -0.8003268
000170 50 e5 ab 3a 5d 34 24 3d b0 6e 0c bf fa 7b 84 3e
       0.0013114605 0.040089 -0.54856396 0.25875837
000180 c1 09 15 be be ff f0 be 2f d4 d6 bb f8 e1 ba 3c
       -0.14554502 -0.47070116 -0.006556056 0.022812828
000190 82 20 48 be 15 01 49 3e cd 96 4a 3e db 26 fb bb
       -0.19543651 0.19629319 0.19784088 -0.007664544
0001a0 a5 e5 4f 3f 32 f2 dc bd 1b 74 99 be 9a 1a d4 3e
       0.81209785 -0.107883826 -0.29971394 0.41426545
0001b0 48 a8 48 be f8 55 49 bf 57 b6 46 be 54 be 65 be
       -0.19595444 -0.786468 -0.19405495 -0.22435886
0001c0 d5 67 5e bf cd 2f 0d bf 39 c7 61 bd b8 e5 2c 3e
       -0.86877185 -0.55151063 -0.055121634 0.16884506
0001d0 14 37 cc be ad 6d 3e 3f 8c 60 eb 3e 0e b8 1b 3f
       -0.3988577 0.743861 0.45972097 0.6082772
0001e0 be 59 34 3f da 20 2d 3f 0f 12 8e 3d 8b 2a ba 3e
       0.70449436 0.6762825 0.06937038 0.36360583
0001f0 3f f0 28 3f 2c a1 c4 bc d7 22 9d be 19 43 3c bd
       0.65991586 -0.024002634 -0.30690643 -0.045962427
000200 f2 7c 53 3c f3 31 5f be 6d 3e 4b 3d 06 65 a1 3d
       0.012908207 -0.21796398 0.04962008 0.07880597
000210 1d c9 d8 be 32 3a 48 be 29 ab e8 bd 3b c8 0d 3f
       -0.42340937 -0.1955345 -0.11360771 0.5538365
000220 d9 3a 86 3e 7c 54 b7 be 75 ba 74 3f 2d 19 fc 3e
       0.26216772 -0.35806644 0.9559701 0.49237958
000230 9a a3 57 bf 1a 6f 37 3f c8 10 aa 3d 1d 80 38 bf
       -0.8423401 0.716539 0.08303982 -0.72070485
000240 49 39 85 bf fa 8b 17 bf 53 b3 33 be 73 53 6d be
       -1.0408107 -0.5919796 -0.17548876 -0.23176365
000250 95 f4 64 3e 39 61 af be d7 9d 67 bf a4 d1 26 bf
       0.22358926 -0.34253863 -0.9047522 -0.65163636
000260 93 b5 d0 3d b2 b3 d9 be 7c 18 ba be 76 0e 0e 3f
       0.101908825 -0.4251991 -0.36346805 0.55490816
000270 a4 cd 61 3e fe e0 da 3e ca 33 34 3f 3e b3 53 be
       0.22051102 0.4274978 0.70391524 -0.20673844
000280 61 6e 23 3e 49 38 4a 3f c6 93 1a bf a9 35 ad bf
       0.15960075 0.78992134 -0.60381734 -1.3532001
000290 b9 60 88 bf b7 08 b6 3e 33 fa 50 bc 40 4c 71 3e
       -1.0654517 0.35553524 -0.012754965 0.23564243
0002a0 f3 66 8d 3e e6 83 10 3f 26 6c 8f 3f ce 48 16 3f
       0.27617607 0.5645126 1.1204879 0.5870484
0002b0 e1 65 d8 be 22 0f 36 3d 81 03 4d 3f 49 d9 bd 3e
       -0.42265227 0.044448026 0.8008347 0.37079838
0002c0 40 37 b3 be 86 10 53 3e b8 52 c3 be 63 ce b9 be
       -0.3500309 0.20611772 -0.38149047 -0.36290273
0002d0 62 2a 7d be 6a 92 06 bf 33 58 d5 3e e4 92 92 3e
       -0.24723199 -0.5256716 0.41668853 0.28627694
0002e0 01 1d 82 3e 76 ab 58 3e d7 3f f2 3d d1 cb 55 3d
       0.25412753 0.21159157 0.11828583 0.052196328
0002f0 99 a4 b0 be 1d 62 13 3e 6f eb cf bd 31 1a 6f bf
       -0.34500578 0.14392896 -0.10152327 -0.9339934
000300 cd a0 46 3d d4 2a a9 3e fe bb 09 bd 67 28 01 bf
       0.048493195 0.33040488 -0.03362655 -0.50452274
000310 e5 04 ed bc 83 af 22 3e 1d f1 ec be 2d 55 96 3e
       -0.028932998 0.15887265 -0.46277705 0.2936186
000320 12 6e ba 3e 18 fc 1f bf 8b 1d 00 be 4d f8 83 3e
       0.36412102 -0.6249404 -0.1251127 0.25775376
000330 59 5e d0 be ef 4a 70 be ae 7d ef 3d ca bb 56 be
       -0.40696982 -0.23466085 0.116938934 -0.20970073
000340 bc b7 6f 3e c3 e6 13 3f 1d 9a bb be 3a 1a 3e be
       0.23409933 0.5777399 -0.36641017 -0.18564692
000350 60 e4 b6 bd 83 7e 9f 3e 2d 21 71 be 7c e3 af be
       -0.08930278 0.31151208 -0.23547812 -0.34353244
000360 46 77 cf 3e f2 20 20 bc 17 a7 17 be 09 54 5e 3e
       0.40520686 -0.00977348 -0.14809833 0.21711744
000370 a7 f9 42 be 48 62 3c bf 48 c7 85 3c 08 c9 d6 3e
       -0.19040547 -0.73587465 0.016330376 0.4195025
000380 f7 70 8d 3c 9e af 29 bd fc c5 0f be a5 9a d7 3c
       0.01726578 -0.041427247 -0.14040369 0.026318857
000390 0a 77 7b 3e 32 5d 3a be 60 f6 0e bf f0 fb 8b 3e
       0.24557129 -0.18199614 -0.5584469 0.2734065
0003a0 20 fb 78 3e 63 c1 12 bd 0d 70 12 3e fe 61 e8 bd
       0.24314547 -0.03582896 0.14300556 -0.113468155
0003b0 ea df 25 be 0b b4 ce 3d 76 46 6b bd e6 38 fc be
       -0.16198698 0.10092934 -0.057440244 -0.4926216
0003c0 f0 7f b4 3e 6c cb 5c 3e 41 ba b6 3d 23 b5 16 be
       0.3525386 0.21561974 0.08922244 -0.14717536
0003d0 24 02 af bd ab 19 71 bf 22 26 1f 3e 9f 8f 78 3e
       -0.0854533 -0.9417979 0.1554189 0.24273537
0003e0 78 d9 01 bf 14 2a 21 3e a9 28 c7 3e 3a fc 8a be
       -0.50722456 0.15738708 0.3889821 -0.2714556
0003f0 1a 5e fa 3e 34 1c 74 3f 6e e9 90 3f 95 82 29 3e
       0.4889992 0.95355535 1.1321237 0.1655372

conv1.0.bias f4 [12]
000000 3d 62 47 3e 44 29 35 3f 1a b8 a0 bd 1f 0e 1c 3e
       0.19471069 0.7076609 -0.078476146 0.15239762
000010 ac f7 b2 3e e2 94 16 bf b8 f9 b3 3e 5b 6e 85 3f
       0.34954584 -0.5882093 0.35151458 1.0424303
000020 7f 8e 38 3e ae ea 19 40 a6 72 08 be 97 34 97 bd
       0.18023108 2.4049487 -0.13324985 -0.073830776

conv2.shuffle_conv.0.weight f4 [6, 1, 3, 3]
000000 f9 45 1f 3f 2e f4 95 3e 9b 37 6c be ca b1 3d 3e
       0.62216145 0.29287857 -0.23068087 0.18524852
000010 be 8b 1b bb af 66 02 bf 5f bb a3 3e a6 c2 13 be
       -0.0023734416 -0.5093793 0.3197889 -0.14429721
000020 4a a0 5c bf ca 35 ca 3e 23 5a 90 be 3f 86 27 bf
       -0.8618208 0.39494163 -0.2819377 -0.6543922
000030 94 fd ec 3e ce d0 32 bd bf b1 b7 be 58 c4 ea 3e
       0.46287215 -0.043656163 -0.35877797 0.45852923
000040 34 ea 8d 3e e9 63 0e be 6b a9 2e 3e 22 79 aa 3e
       0.27717745 -0.139053 0.17056815 0.33295542
000050 7a d8 97 3e ea d7 79 3e c1 ea 22 3e fc 1a e9 3d
       0.29657346 0.24398771 0.15909864 0.113821
000060 cc c2 63 3e 63 d3 fb 3d 3d 32 21 3e 01 60 b4 be
       0.22242278 0.12296178 0.1574182 -0.35229495
000070 a2 7c bc be 7f e9 05 bf 3e d9 4d be 2d eb 0a 3d
       -0.36813837 -0.5230941 -0.20102403 0.033915687
000080 6d f0 e5 bd 95 ad de 3e 9b 33 86 3f 5b 07 93 3d
       -0.11227498 0.43491808 1.0484499 0.07179137
000090 2a 10 e8 3e be 37 a3 3e 64 2f 92 3e f4 b6 ed 3e
       0.45324832 0.31878465 0.2855178 0.46428645
0000a0 78 f7 a8 3e 21 9d 06 3e 70 b9 6f 3e 75 3c 9d 3e
       0.33001304 0.13145877 0.23410583 0.30710188
0000b0 37 dd 12 39 84 94 4a 3e 8d ac 8e 3c ae 5c 7c bd
       0.00014006054 0.19783217 0.017416263 -0.061611824
0000c0 9c 1b bf 3e 9b 4f 18 3e f1 bc 95 3d 33 7d a9 3e
       0.37325752 0.14874117 0.07311428 0.33103332
0000d0 26 aa 46 3e d0 dd 0a 3e
       0.19400844 0.13561177

conv2.shuffle_conv.0.bias f4 [6]
000000 a1 52 a4 3e 66 dd c5 bd fd 89 b3 bd be b9 43 3e
       0.3209429 -0.09661369 -0.087665536 0.19113824
000010 22 9c db 3e 12 24 83 3e
       0.42892557 0.25613457

conv2.shuffle_conv.2.weight f4 [12, 6, 1, 1]
000000 31 24 a9 bc 46 c4 78 bb aa 45 c0 bd 2c f2 6f bd
       -0.02064714 -0.0037958785 -0.09388287 -0.058580562
000010 ab d7 4f bf 23 3e 2a 3c 0d a2 8d 3e ae 52 c3 3e
       -0.8118846 0.010390791 0.27662697 0.38149017
000020 66 34 a0 3e 59 65 7f be 11 d6 b6 bd dc a1 36 3e
       0.31289977 -0.24941005 -0.08927549 0.17835182
000030 b9 b2 9e bf 13 df b8 be c6 05 93 bd 3c 52 f1 bc
       -1.2398292 -0.36107692 -0.071788356 -0.029458158
000040 39 be 15 bf 16 73 62 bd 48 67 21 bf 4b f0 6f be
       -0.5849338 -0.055285536 -0.6304822 -0.23431508
000050 ac 73 d5 3e 74 6a a4 3e d6 da 14 3e ef 2c d0 3e
       0.41689813 0.32112467 0.14536604 0.40659282
000060 2a 03 9d bd b0 db 87 3e 75 8c 30 bf cf 4a 73 3e
       -0.07666619 0.26534796 -0.6896432 0.23759006
000070 24 00 82 3e 9e ac d7 bb 72 11 aa 3e 81 38 ae bc
       0.25390732 -0.006581857 0.33216435 -0.021267178
000080 d4 a8 4a bf 8c 60 95 3f d7 fc 06 3c 78 9f 94 be
       -0.7916386 1.1670089 0.008238993 -0.29027915
000090 39 83 a3 bf 03 8e 90 bf 7d 51 95 3d ea f6 02 bf
       -1.2774421 -1.1293339 0.07290933 -0.5115801
0000a0 f8 ed ad bc 79 ca 9b bf 02 d9 3c 3e e3 fa 0f 3f
       -0.021231636 -1.2171165 0.18442157 0.562422
0000b0 b1 f1 a3 3c 3e e0 b9 3e b3 eb 49 bf c5 40 35 3f
       0.020012708 0.36303896 -0.78875273 0.70801955
0000c0 0b e4 23 3e c0 dd 0b 3e fc 42 81 3c 1b 46 b3 ba
       0.1600496 0.1365881 0.015779011 -0.0013677509
0000d0 f7 bc 0a 3f f9 06 84 bf 3a f4 05 3e cc 35 d1 bf
       0.5419459 -1.0314628 0.13081446 -1.6344543
0000e0 31 6d 1a bf 99 b1 50 bd 47 e6 35 3e 25 bc 42 3d
       -0.6032286 -0.05095062 0.17763625 0.04754271
0000f0 01 9c a9 bd 18 5d d0 3c bd 87 3f 3d 08 9b c9 3c
       -0.082817085 0.025435016 0.04676031 0.024610057
000100 16 10 ec bf f9 9e 65 3f b2 50 0f 3f 53 ff 92 3e
       -1.8442409 0.896957 0.55982506 0.28710422
000110 94 f7 3a 3e 45 82 0c 3e 2d 25 57 3e 80 d2 8d 3e
       0.18258506 0.13721569 0.21010275 0.2769966

conv2.shuffle_conv.2.bias f4 [12]
000000 72 a8 67 3f 16 d0 1e be dd 8b a1 3f ee 0b 3a be
       0.904914 -0.15509066 1.2620808 -0.18168613
000010 1d 6f de 3e e5 94 d8 3e 93 b0 9d bd 94 c4 cb 3e
       0.43444148 0.42301098 -0.076996945 0.39798415
000020 ab ef d2 3e 75 99 70 3e 93 ec 26 3f 2b 92 1c bf
       0.41198477 0.23496039 0.65204734 -0.61160535

conv3.shuffle_conv.0.weight f4 [12, 1, 3, 3]
000000 30 c3 44 bd 60 08 35 bf 39 5f 0f 3f 85 43 4b 3e
       -0.048037708 -0.70715904 0.56004673 0.19849975
000010 7d 49 a7 be 64 cf 0e be 31 40 e6 3e ea 7e 19 3f
       -0.32673255 -0.139463 0.4497085 0.5995928
000020 7d 4a e0 bd 23 86 99 3e 75 7b 27 3e d4 65 cd 3e
       -0.109517075 0.2998515 0.16355689 0.4011675
000030 c0 dd 2b 3e fc f7 0d 3f 7e 50 d2 3e 08 23 fa bd
       0.1678381 0.5545652 0.41077036 -0.12213713
000040 da f6 60 3c 4c 4e 05 bd 6c 61 e3 3e 08 16 32 3f
       0.013730729 -0.032545373 0.44410264 0.69564867
000050 a0 43 fe bd 18 0e 2a be 91 25 4a bc 60 67 8d be
       -0.12415242 -0.16606939 -0.012338058 -0.2761793
000060 c0 c3 78 3e 4d 24 3a be 04 87 67 bd b9 5f 13 3f
       0.24293423 -0.1817791 -0.056525245 0.57567936
000070 aa 25 aa 3e 5e 52 37 3f 06 5a c4 bd 2f b2 c2 3d
       0.3323186 0.7161006 -0.09587483 0.09506642
000080 db c6 10 be 8f 89 44 bf 89 22 88 be d0 1a ce bd
       -0.14138357 -0.767724 -0.26588848 -0.10063708
000090 a4 14 41 bf c4 13 be 3b ab 01 47 be 1a 56 21 3e
       -0.7542212 0.005800696 -0.1943423 0.15755501
0000a0 d8 03 66 3d a7 bd 89 3e 32 96 f4 be 10 f6 54 3e
       0.05615601 0.26902506 -0.4777084 0.2079699
0000b0 96 f4 4a 3f b5 51 03 3f 25 97 98 3e e0 2c 38 bf
       0.7927946 0.5129655 0.29802814 -0.71943474
0000c0 df 84 e2 3e d1 ed 69 be 02 5e 4b be 36 63 10 be
       0.44241998 -0.22844626 -0.1986008 -0.14100346
0000d0 4f aa ae be 66 72 d4 3e 6e a2 c3 3e aa a6 94 3e
       -0.3411431 0.4149353 0.38209862 0.29033405
0000e0 ea 83 06 3f 65 04 e9 3d 6c 9c 5b 3d c8 78 a4 3e
       0.52545035 0.11377791 0.053615972 0.321234
0000f0 97 8c 74 3e e7 81 64 3e b9 1d b6 3e ba 21 3b 3e
       0.23881756 0.22315179 0.35569552 0.18274584
000100 b5 4b cb be 4e b4 48 be d8 8a 83 be 29 a1 a0 be
       -0.39706197 -0.19600031 -0.25691867 -0.31372955
000110 d0 9d 95 3e 11 05 14 be 72 c6 38 3e 9d 16 4a 3f
       0.29221964 -0.14455058 0.18044451 0.78940755
000120 e7 2a b6 3e cc a2 06 3f 3b 68 5c 3f 62 18 b1 be
       0.35579607 0.5259216 0.86096543 -0.34588915
000130 68 99 ad be bc a1 1e be 77 31 b1 3d ba 0e 10 bf
       -0.33906102 -0.15491384 0.08652013 -0.5627247
000140 2e be d6 be 75 73 87 be a5 13 95 3e e9 a0 5b 3f
       -0.4194197 -0.26455274 0.2911655 0.85792404
000150 a0 e1 b7 3e af cd 83 be 38 a8 4e be 7a f2 60 3c
       0.35914326 -0.25742862 -0.20181358 0.013729686
000160 68 f7 e2 bd 0d bd 11 bf f9 07 b5 3e 49 66 91 3e
       -0.11082345 -0.56929094 0.35357645 0.2839835
000170 86 c3 af 3e 17 2a 42 3e 77 1b 70 3e 3b d8 5d 3e
       0.3432886 0.18961369 0.23447977 0.21664517
000180 8d 84 6f 3e c7 c6 8e 3e c3 a7 99 3e 1b 0b 5e 3e
       0.23390408 0.2788603 0.30010805 0.21683924
000190 36 de a0 bd 90 8d 93 3e ca 61 92 3d 88 97 89 3e
       -0.078548834 0.2881894 0.07147558 0.26873422
0001a0 cb 81 ac 3e 20 46 d1 3d 4d 70 98 3e fe d9 a9 3e
       0.33692774 0.102184534 0.2977318 0.33174127

conv3.shuffle_conv.0.bias f4 [12]
000000 60 da 08 3f e8 30 cc 3e 7a 21 a8 bd d0 7a bd 3e
       0.53458214 0.39881063 -0.0820951 0.3700776
000010 1f 8c ac 3e dc df a8 3d d9 d2 2c bf ca 6d 14 3e
       0.33700654 0.08245823 -0.6750923 0.14495006
000020 34 ac 9e 3e db 79 24 bd 2e 8a fd 3d 88 4a a9 3e
       0.30990756 -0.040155273 0.12379871 0.33064675

conv3.shuffle_conv.2.weight f4 [16, 12, 1, 1]
000000 65 fa 45 3e 0b 46 80 3f af dd 26 3e 26 2d c2 3e
       0.19333799 1.0021375 0.16295503 0.3792507
000010 34 19 66 be d2 26 c1 bd d5 ca 99 3b da 06 30 bd
       -0.22470552 -0.094312325 0.004693369 -0.042975284
000020 52 7a 00 bf ff 7f 7d 3e fa d9 6f 3d c8 bf 3c 3e
       -0.50186646 0.24755858 0.058557488 0.18432534
000030 e8 93 b5 bf c8 e4 9e 3e b5 10 b7 be ea c6 99 3e
       -1.4185762 0.3103392 -0.35754934 0.30034572
000040 fc 48 93 3e c2 73 e6 3d ab 8f 86 bd 8f c8 b8 be
       0.2876662 0.11252548 -0.06570371 -0.36090514
000050 8d 40 91 be 16 c6 a9 bd 53 31 7c 3d 33 ee b8 3c
       -0.2836956 -0.08289735 0.061570477 0.02257452
000060 31 86 29 3e fb fe 2c 3e cb 82 da bd d9 0b d2 3e
       0.16555096 0.16894142 -0.10669478 0.41024664
000070 6a d4 93 3e 80 8c 80 3c a8 aa 7f be b3 fc 9e 3e
       0.28872997 0.015691996 -0.24967444 0.3105217
000080 60 24 86 be d0 41 ef be 55 09 e0 be 91 fd 7c be
       -0.26199627 -0.46729898 -0.4375712 -0.24706103
000090 bb 6b 41 be 5a dd f4 bd af 35 03 be b9 4e 3a be
       -0.18888752 -0.11956282 -0.12813447 -0.18194093
0000a0 b8 a6 e8 bd 15 d2 af bf 3c ba b8 be f3 6c 3b 3b
       -0.11359924 -1.3735987 -0.36079586 0.0028598874
0000b0 a1 c9 d5 3e 54 39 02 3f 5c 32 4c 3c e8 53 9d be
       0.41755393 0.50868726 0.0124631785 -0.30728078
0000c0 5f 8a 59 be 57 28 79 3e a1 bc 65 bf 3c 2a 16 bf
       -0.2124419 0.24331795 -0.8974095 -0.58658195
0000d0 03 93 24 3f f7 f3 f0 be 36 cf 44 bf 84 fb 57 bf
       0.6428682 -0.4706113 -0.7687868 -0.8436816
0000e0 29 30 be 3e ca a8 35 3b 2e 91 98 be 54 05 ba be
       0.37146118 0.0027719014 -0.29798263 -0.3633219
0000f0 e4 9b 0a bf 6d d5 6a 3f ff bb ed 3c 83 7e 8a be
       -0.5414412 0.9173191 0.029020308 -0.27049646
000100 14 99 46 be 1f b9 4e bd 38 2d 9e 3e 94 92 b1 3e
       -0.19394332 -0.050469514 0.30893874 0.34682143
000110 f7 9f 1d 3e c6 78 85 3e e3 ca 20 be f6 3c 17 3e
       0.15393053 0.26068705 -0.15702395 0.14769349
000120 d2 b0 c0 3e 97 bb dc be a5 4c 79 be c6 47 2b bf
       0.37634903 -0.4311187 -0.24345644 -0.6690639
000130 4f 2d 87 bf 6a 1b 13 bd b9 68 04 bf 04 a8 66 3d
       -1.0560702 -0.035914816 -0.51722294 0.056312576
000140 ab 79 eb be e2 0b 9d bd 35 89 06 bf 49 9f 97 3e
       -0.45991263 -0.07668282 -0.5255311 0.29613712
000150 8b 23 5a 3e 66 0e 0c 3f b5 51 fe be ac e6 9f bf
       0.21302621 0.5470947 -0.49671713 -1.249227
000160 17 4c 2a 3e 56 51 89 3d d4 b1 ae bd 16 2e a0 be
       0.16630588 0.06704967 -0.08530012 -0.3128516
000170 0b bc 47 be 67 52 82 bf 71 b0 4c be 37 1d 3e be
       -0.19505326 -1.0181397 -0.19989182 -0.18565832
000180 f4 b2 1f 3f de cb 22 bf e5 cb 3b bf 72 fb 07 3f
       0.62382436 -0.63592327 -0.73357993 0.5311805
000190 36 ff 2a 3e 43 4e 33 3f a5 48 97 3d 43 10 d6 be
       0.16698918 0.7004129 0.07386903 -0.41809282
0001a0 1d 12 29 bf 08 87 85 be e1 61 67 3e 18 8b 93 3d
       -0.66043264 -0.26079583 0.22595932 0.072042644
0001b0 00 06 21 be f6 1d 15 3f e0 6e 30 3d bc 7f a3 bd
       -0.15724945 0.5824884 0.04307449 -0.07983348
0001c0 5b 5d da bd ae 65 be 3d fe c8 ac bf 66 01 b9 bb
       -0.106623374 0.092967376 -1.3498838 -0.0056459187
0001d0 4f 9f 9b 3c b1 98 86 3d eb 7f 0b bf 02 0d 1b 3e
       0.018996863 0.06572092 -0.5449206 0.15141681
0001e0 5d f1 a8 3e 87 9b 85 bd a1 a9 1d 3e 78 3b 81 3e
       0.32996646 -0.06523805 0.1539674 0.25240684
0001f0 64 b8 17 be ee 28 6a be c4 9d 7b be f6 97 9c be
       -0.14816433 -0.22867176 -0.24571902 -0.30584687
000200 80 f9 cf be 24 f8 f2 3e 7b f6 f7 be 54 d2 a5 3e
       -0.4062004 0.4745494 -0.48430237 0.3238703
000210 dd 69 59 3e 30 88 ba 3e 91 bf 86 3c de 2f dc be
       0.2123179 0.36432028 0.016448768 -0.4300527
000220 02 58 6a bd 1d 85 81 bf d5 ff 54 be 14 d2 a1 bd
       -0.057212837 -1.0118748 -0.20800717 -0.07901397
000230 f6 03 a8 bf 69 28 9d be b9 c9 f4 3d 07 cb 9a bd
       -1.3126209 -0.30694893 0.11952538 -0.07558256
000240 42 05 ef 3e 31 4f 0b bf 4f e7 95 bd 3c cb 7d bf
       0.466837 -0.5441771 -0.07319509 -0.99138236
000250 a7 5a 33 3e 8e f2 64 be 6f 71 1a be a1 77 6a 3c
       0.1751505 -0.22358152 -0.15082334 0.014310748
000260 59 97 a9 bd 2a 7c 3f 3e 37 84 ff be 00 27 4a be
       -0.082808204 0.18699709 -0.4990556 -0.1974144
000270 1d b8 bc 3e 19 ed d2 bd b1 40 04 be 81 8f b8 3c
       0.36859217 -0.10299129 -0.12915303 0.022529365
000280 8b 72 21 be 9a 39 8c bd ed 56 cd be a8 75 29 3c
       -0.15766351 -0.06846924 -0.40105382 0.010342993
000290 0d 8b 65 3d 13 0e a3 3e 5e 65 2c 3e 64 82 47 bd
       0.056040812 0.31846675 0.16835544 -0.048708335
0002a0 1b 96 69 3e 33 63 18 bf 47 6b 96 3e a5 bc 17 be
       0.22811167 -0.59526366 0.2937872 -0.14818056
0002b0 32 6e b7 3e a4 60 fe bd 19 a9 ad 3e 33 c7 91 3d
       0.3582626 -0.124207765 0.33918074 0.07118072
0002c0 a3 8e 80 be 04 e0 03 3f 6b 0a f1 3e ee 43 2c 3e
       -0.25108823 0.51513696 0.4707826 0.16822788
0002d0 31 c0 1d 3f 09 2d 70 be 7d 23 63 be dd c4 d6 3d
       0.61621386 -0.2345468 -0.22181506 0.104867674
0002e0 85 59 d2 3e 2b a3 b2 3d 2a 40 84 be 23 4b f0 be
       0.41083923 0.08722528 -0.25830203 -0.46932325
0002f0 d9 c8 89 3d 5d 07 6d bf 53 39 28 3d 5e 22 92 bf
       0.06727762 -0.9258936 0.041070294 -1.1416738

conv3.shuffle_conv.2.bias f4 [16]
000000 00 18 d5 3e 21 a9 57 3f 9f 63 e5 3e a3 c3 07 3f
       0.41619873 0.84242445 0.44802567 0.5303289
000010 4c a2 ec 3e 71 77 95 3e 36 67 0a 3f b9 3b 1c 3d
       0.46217573 0.2919269 0.5406374 0.038142893
000020 10 16 2d be 3f 8d 21 3e ba f7 5d 3e c9 fb 28 3c
       -0.16902947 0.15776537 0.21676531 0.0103139365
000030 9a 47 f6 3e d2 e6 c5 3e c3 43 01 bf e9 b6 38 3f
       0.48101503 0.38652664 -0.5049402 0.721541

conv4_1.weight f4 [2, 32, 1, 1]
000000 55 79 30 3f a2 e9 95 3d bf 00 05 bf 17 5c 7e 3e
       0.6893514 0.073199525 -0.51954263 0.24839817
000010 e0 f3 ad be 4f 5e e1 3e 30 23 9a be 9f 8b c6 3e
       -0.33975124 0.44017264 -0.3010497 0.38778397
000020 cb 2f 72 bf 5b 8f 80 3d c4 b1 da 3e 31 5a 04 3f
       -0.94604176 0.06277343 0.4271375 0.5170012
000030 ff fc e1 bd e7 60 a0 bf b7 08 d7 3e 00 81 53 3e
       -0.11034583 -1.2529572 0.41998836 0.20654678
000040 2e 8c e9 3e e5 43 18 3f 8c e8 de 3e af e2 6f bf
       0.4561476 0.594786 0.43536794 -0.93705267
000050 b0 90 c5 bd 80 a8 33 bf 01 6b e5 3e 28 8e 00 3f
       -0.096467376 -0.70178986 0.448082 0.50216913
000060 7f a3 cf be 18 88 7c bf 12 cb ea 3e e6 90 5e 3e
       -0.40554425 -0.9864516 0.45858055 0.21734962
000070 54 28 36 3f 76 d7 48 3c e7 95 51 bf 44 15 9e 3e
       0.71155286 0.012258401 -0.8186936 0.308756
000080 e8 24 37 bf b1 62 95 be 93 c8 1d 3f 94 03 9c be
       -0.7154069 -0.29176858 0.61634177 -0.3047148
000090 67 c5 4e 3e 09 db 1d bf 6c 59 97 3e a4 ff ee be
       0.2019249 -0.61662346 0.2956041 -0.46679413
0000a0 99 ec 84 3f e9 0e de bd d9 a6 90 be 00 b4 bc be
       1.0384704 -0.10842688 -0.28252295 -0.3685608
0000b0 d0 8f 4e 3e 28 d7 88 3f da 2c ff be 11 89 f6 be
       0.20172048 1.069066 -0.49838907 -0.48151448
0000c0 58 e9 01 bf 52 11 bb be 31 3e 08 bf 2b 6b 59 3f
       -0.5074668 -0.36536652 -0.53219897 0.8492915
0000d0 ba 83 30 3e 78 44 13 3f 3a ba 16 bf d9 82 b2 be
       0.1723775 0.5752635 -0.5887791 -0.34865454
0000e0 6e e8 1f 3f 2f ab 7e 3f 67 7b 1d bf 2f c1 6e be
       0.62464035 0.99479955 -0.6151642 -0.23315881
0000f0 9c 99 35 bf 4d 4e 44 3e 2d 99 59 3f f6 62 3b be
       -0.70937514 0.19170494 0.8499935 -0.1829947

conv4_1.bias f4 [2]
000000 de 30 de 3e 90 b8 33 be
       0.43396658 -0.17550874

conv4_2.weight f4 [4, 32, 1, 1]
000000 8b 83 0a bd 9d 99 03 3d 2a 3f 65 3d 83 f0 1b 3c
       -0.033816855 0.03212892 0.05596844 0.009517792
000010 f4 eb 92 3b 57 c4 db bd 99 19 1c bc e9 47 d4 3b
       0.004483694 -0.10730808 -0.009527587 0.006478299
000020 21 f2 8a 3b a9 2e 8f 3c 93 aa 7d bc be 51 f7 39
       0.00424029 0.017478304 -0.015482563 0.00047172414
000030 c4 f1 9c bb 7e 8d 90 3c 7e 8d 31 bd b8 5c f8 3c
       -0.004789563 0.017645594 -0.043347828 0.03031765
000040 bb d1 42 bd c1 0e a9 bc 2b 23 36 3d 47 93 3b bc
       -0.047563296 -0.020636918 0.044467133 -0.011448688
000050 8e 18 42 3c 16 5a cf bd d4 d8 49 3c 74 8e 83 bb
       0.011846675 -0.101246044 0.012319762 -0.0040147845
000060 0e 1d 17 bc ae 0b c4 bd c3 d3 66 3d 40 22 c3 3d
       -0.009223236 -0.0957254 0.056354295 0.09528017
000070 da b0 df 3b 87 e7 be 3a 5c be d6 bb f8 4a 5f 3c
       0.0068265023 0.001456485 -0.0065534543 0.013628714
000080 85 62 68 bd 1d 26 c8 3d 5d 6b 96 bc c0 c7 c7 bc
       -0.05673458 0.097728945 -0.018361742 -0.02438724
000090 01 b9 f9 bc d7 3f 3a 3c 87 8d af 3b 14 7c 2c bd
       -0.030483725 0.01136776 0.0053574475 -0.042110518
0000a0 19 c5 02 3d 58 74 8f 3c 51 a5 a2 bc 3b 2b ac bd
       0.03192625 0.017511532 -0.01985422 -0.08406683
0000b0 4e 2b aa 3b 2d 24 25 bc ac 37 83 3d 5f c2 4f bc
       0.0051931506 -0.010079426 0.06407103 -0.012680619
0000c0 a9 46 b1 bc 91 55 7a bb 56 11 cc 3b a6 ce d3 bc
       -0.021640139 -0.0038197974 0.0062276525 -0.025855374
0000d0 fb 3c c7 bc 2f 0d f0 bc d6 b6 e2 bc 9b a1 4b bb
       -0.02432107 -0.029303161 -0.027675074 -0.0031071666
0000e0 a6 e8 13 3d 9b c2 3d bd af b0 35 bd 13 be ef 3c
       0.036110543 -0.04632817 -0.04435795 0.02926544
0000f0 f7 11 f8 3b de f9 20 bd 01 70 b1 bc f2 cc 33 3c
       0.007570501 -0.039300792 -0.021659853 0.010974156
000100 4b 99 80 3c 39 6a 36 bd 1e 7c e9 3c ae c1 5d 3d
       0.015698096 -0.044534896 0.028501566 0.054139785
000110 3a e9 7b b9 9a 7a 8e bd 6a 5a 33 3d 8c b0 7e 3a
       -0.00024024109 -0.06956978 0.043787397 0.00097156386
000120 e4 9f d3 bb 6c c4 ec ba c1 f0 2a bd 03 54 38 3d
       -0.0064582694 -0.0018063909 -0.041733507 0.045001995
000130 b3 a9 03 bd e2 a9 81 3c 27 75 58 bd 42 28 0b 3d
       -0.03214426 0.015828077 -0.0528461 0.03397394
000140 39 6d 08 bc 94 d9 dc bc 7e fe 7f 3d ca fd 0c bd
       -0.008326822 -0.026959218 0.062498562 -0.03442172
000150 aa 49 e9 3c 24 a3 1b bc fc 44 e9 3c 82 68 b8 bc
       0.028477509 -0.009499345 0.028475277 -0.02251077
000160 e2 4e 8c 3c fc 04 6b bd d8 0e bd 3d bb 12 bf 3d
       0.017127458 -0.0573778 0.09231347 0.093297444
000170 39 b8 1f bd 99 78 37 bc ab 43 d5 3b 76 ca 11 3a
       -0.038994048 -0.011198186 0.006508311 0.000556148
000180 a7 c2 39 bd 65 cb 97 3d 11 c9 23 bd f1 9d 03 3a
       -0.04535165 0.07411841 -0.039986674 0.00050207885
000190 98 6d 18 bd 5a 64 34 3d 97 d1 45 3d fd 17 5f bc
       -0.03721389 0.044041015 0.048295584 -0.013616559
0001a0 ff a8 7b bc e1 bb 50 bc 9a a4 f8 bc 83 d1 60 bc
       -0.015360116 -0.012740106 -0.030351926 -0.0137218265
0001b0 62 c1 86 bc ba 9f dc bc 57 2f 26 3d 82 bf ab 3c
       -0.016449634 -0.026931632 0.04057249 0.020965341
0001c0 e7 c1 58 3c 09 32 a0 3c 43 0e 04 3d ee a8 50 bc
       0.013229824 0.019555109 0.032240164 -0.0127355885
0001d0 44 e5 52 bb ea 5c 0b 3d 56 8f 42 bc 3a 25 ea bb
       -0.003218011 0.034024157 -0.011874994 -0.007145551
0001e0 36 90 a1 3c 0e 4e 57 bd 16 26 af 3d ae ec de bc
       0.019722085 -0.052564673 0.08552186 -0.027212467
0001f0 4e e7 38 bc 8b 33 8d bc f5 90 c6 bc 53 ec e6 3b
       -0.011285616 -0.017236492 -0.024239043 0.007047215

conv4_2.bias f4 [4]
000000 00 70 8e 3c e0 7c 6c 3d e9 fa bf bd aa ed 53 3d
       0.01738739 0.057736278 -0.09374029 0.051740326
