onnx2ncnn/onet.onnx (onnx, 903420 bytes, 21 tensors)

conv6_1.bias f4 [2]
000000 8f f9 63 3d d5 2f f7 bc
       0.05565792 -0.030174175

conv6_1.weight f4 [2, 256]
000000 e6 7d 56 3e 83 72 0a 3f 80 db 78 be 5b 3c 07 bf
       0.20946464 0.5408098 -0.24302483 -0.5282647
000010 4d 67 9d 3e 28 ce 05 be 32 2c eb ba be fe 05 bd
       0.30742875 -0.13066924 -0.0017942248 -0.032713644
000020 2c 83 0a 3d 69 80 12 ba f0 fd b4 bd b9 75 b5 bd
       0.0338165 -0.00055885926 -0.08837497 -0.088603444
000030 4a e4 40 bd dc 63 7a 3d 26 99 de 3d 09 b3 dd 3d
       -0.047092713 0.06113039 0.108690545 0.10825164
000040 00 9b 86 bd 0b c5 97 bd cc 9e d7 3d 79 b8 a1 3d
       -0.06572533 -0.0741063 0.10528335 0.078965135
000050 2a 52 50 be f2 d6 75 3e c6 85 4e 3d 7a 22 61 3c
       -0.20343843 0.24007776 0.050420545 0.01374113
000060 16 3b e2 bd d7 c9 43 3e fb 2f 49 bc f7 0a 9d 3e
       -0.11046426 0.19119965 -0.012279506 0.30672428
000070 d1 7e a6 3c 64 ca 64 bd 11 5a 0c 3e c2 44 4c 3d
       0.020324143 -0.055857077 0.13706233 0.04987026
000080 d6 30 8f 3d 32 10 d4 bc 55 fa d2 be 6c 7a 16 3e
       0.069917366 -0.025886629 -0.41206613 0.14695138
000090 66 11 ee 3d 3d fe e8 3d 22 6e a9 3d bd 35 0b be
       0.11624412 0.11376617 0.08272959 -0.13594718
0000a0 9e 9f 4d be 10 bc ec bd 39 48 d2 bd c1 30 b4 3d
       -0.2008042 -0.115593076 -0.10267682 0.087983616
0000b0 13 cb aa bd fa 6a 97 bd 71 bf b5 3d bd 15 81 3e
       -0.083395146 -0.07393451 0.08874405 0.25211897
0000c0 15 52 b7 be 8f 3c 41 3d 04 6d 57 bc 6d 0c e7 b9
       -0.3580481 0.047176894 -0.01314855 -0.0004406901
0000d0 2c 8e 88 3e 80 12 dd 3e 1e 25 33 bd 42 e5 b9 3b
       0.2667097 0.43178177 -0.04373657 0.0056730816
0000e0 16 56 c0 3d 4b 04 60 be 4f 50 8d bd a6 51 97 bd
       0.093914196 -0.21876638 -0.06900083 -0.0738862
0000f0 d8 2b 90 be fb a8 12 bd c4 ea a5 bd f7 09 84 bd
       -0.2815845 -0.035805684 -0.081014186 -0.06447213
000100 30 68 dd 3b 53 80 6f 3d 80 21 09 3e 57 06 b7 3b
       0.006756805 0.05847199 0.13391685 0.0055854726
000110 23 e3 37 3d 57 ce b8 bd 38 83 45 bc 15 3f 6f be
       0.04489435 -0.09023731 -0.012055211 -0.23363908
000120 f9 7d 4e bd 0b 31 3f 3d 9c e7 e2 bb 04 de 18 bd
       -0.050413106 0.04667763 -0.0069245826 -0.037321106
000130 e1 b6 67 bd ee f4 58 3e 5d 8e 47 3e 22 63 e8 3d
       -0.05657089 0.21187183 0.19487901 0.11347033
000140 5b 5f d2 bd 00 33 29 be d3 35 9e be ce 41 e2 3b
       -0.10272094 -0.16523361 -0.3090044 0.006904817
000150 7e d9 74 3e 67 04 3f 3e 76 d7 25 3e bd 7c 45 3e
       0.23911092 0.18654023 0.16195473 0.19285865
000160 9e 81 da 3c 39 1c 67 3d b2 54 ac bd c3 71 93 3e
       0.026673134 0.0564234 -0.08414592 0.2879773
000170 66 b6 a4 3e 9b 21 36 3c c8 ca 3a bd 98 75 85 bd
       0.3217041 0.011116411 -0.045603544 -0.0651657
000180 55 81 4d 3d 57 7f 83 3a 7d ef 97 3d 76 35 9b bd
       0.05017217 0.0010032457 0.07418726 -0.07578556
000190 c7 90 91 be 35 2b 37 be b1 c6 99 3d 72 63 2a bd
       -0.2843077 -0.17887576 0.075086005 -0.041598745
0001a0 67 f8 0e 3d a2 23 f5 3e 37 ae cd be 03 19 c0 3d
       0.034904864 0.47878748 -0.40171978 0.093797706
0001b0 bd c6 17 3e e7 bd e5 3c f0 7e 84 3b 2d 65 10 be
       0.14821906 0.028044654 0.0040434524 -0.14101095
0001c0 1f 29 95 3d 96 d2 70 bd c3 0d f2 bd 52 3a 90 3d
       0.07283234 -0.05879458 -0.11819031 0.07042374
0001d0 cb e7 c2 bd f4 d6 6d 3d 95 b4 33 3e ae a3 2c bf
       -0.09516867 0.058066323 0.17549355 -0.67437255
0001e0 03 c8 10 bf 24 0a b0 be 5a bc 17 3e 61 1d 81 bd
       -0.56555194 -0.34382737 0.14817944 -0.06304432
0001f0 0f 02 39 bd 2b d4 9b 3d 27 a0 e3 bb 3d 6d 1f be
       -0.04516798 0.07608827 -0.006946582 -0.15569015
000200 76 b0 1d be f8 a3 31 3e ed df a1 3d 89 ee 91 be
       -0.15399346 0.17347705 0.079040386 -0.285023
000210 79 c4 3c be 42 02 10 3e f7 ae c3 3e 1b 5e 92 be
       -0.18434323 0.14063361 0.38219425 -0.28587422
000220 e6 0b 80 3d 0d e3 da 3b 17 19 2c bd 7f 77 68 bd
       0.062522694 0.0066798986 -0.042016115 -0.056754585
000230 5b 5f f1 be c8 56 59 be c5 48 a8 3e e6 f0 c2 bc
       -0.47143063 -0.2122451 0.3286802 -0.02379651
000240 e2 d6 f0 bb e6 1a 09 3d 26 ca 0c 3c 96 9c 07 3c
       -0.007349835 0.033472918 0.008593118 0.008277079
000250 71 0c ba be 7e c6 98 be 56 60 4a 3f a9 1e eb bd
       -0.36337617 -0.29838938 0.79053247 -0.11480457
000260 3d 6c a6 bd bb 2b 9e bd ba a3 79 3d 8d 14 c2 bd
       -0.081261136 -0.07723185 0.060947157 -0.09476576
000270 3a 45 0f bc 98 00 0e bf 3c b0 93 3d 35 ea 39 bb
       -0.008744532 -0.55469656 0.072113484 -0.0028368358
000280 f2 8e fa 3e aa 75 31 3d 66 b0 9c be 0a e6 9a bd
       0.48937184 0.043325104 -0.3060333 -0.07563408
000290 f2 e7 81 bd eb 45 fe bd 35 3e 10 3d 2a 55 04 3e
       -0.06343068 -0.124156795 0.035215575 0.12923113
0002a0 dd d5 3d be 0c 41 3b 3f 5c 0b 10 3d c5 41 75 3d
       -0.18538614 0.7314613 0.035167083 0.059877176
0002b0 96 14 b6 3e 1c 20 fc bd 2d a9 06 3e e3 fd bf be
       0.3556258 -0.12310812 0.13150473 -0.37498388
0002c0 7b e0 1a 3e 30 ee 81 3e 86 09 55 bd 0f 83 89 3e
       0.15124695 0.25377035 -0.052011035 0.26857802
0002d0 69 ef 5f be 78 15 54 bd 68 4b e1 be c7 ad 21 bd
       -0.21868671 -0.051778287 -0.44002843 -0.039472368
0002e0 c0 ad 18 bd 9c be c8 3e 82 f6 1f bd 0d 94 1e 3d
       -0.037275076 0.39207923 -0.039053448 0.03871541
0002f0 3f c4 90 bd dc 03 a2 bd df 20 59 3c ce 0b 22 3d
       -0.07068681 -0.07910892 0.013252466 0.03956204
000300 67 b5 c6 be fb c3 88 3e 88 49 54 be 7a 82 95 3d
       -0.38810274 0.2671202 -0.20731175 0.07300277
000310 ff 3d 0b 3d c0 cb 36 3e 5b d1 6a 3e b0 5e 03 bd
       0.03399467 0.17851162 0.22931425 -0.032072723
000320 fe 6e 93 be 48 8a 25 bd fe 30 20 3e d5 d4 6a 3d
       -0.28795618 -0.04041508 0.15643689 0.05733188
000330 52 b8 c2 bc 9f ae ac be 76 1c d2 3d 15 90 fd 3e
       -0.023769531 -0.33726975 0.10259335 0.49523988
000340 79 fa 97 bc 49 51 81 3e 7c 59 30 bd 91 1d 81 be
       -0.018552052 0.25257328 -0.04305409 -0.2521787
000350 0b 37 25 bd d9 12 b7 3e 2c 20 62 3d 21 a1 96 be
       -0.040335696 0.35756567 0.055206463 -0.29419807
000360 60 32 e5 3d 8f a7 80 bd cd 66 dc 3c 9b 7b 02 3e
       0.11191249 -0.06281959 0.026904488 0.12742464
000370 3c a4 6e be 02 85 99 be 30 11 3c 3f f4 b1 d5 bd
       -0.23304838 -0.2998429 0.73463726 -0.104343325
000380 a7 ce a0 3d 17 db 60 3e 08 41 64 3d d4 9f a8 bd
       0.07851916 0.21958576 0.05572608 -0.0823361
000390 eb e7 92 bb 1d 7e 6a 3d d3 44 54 bd 19 90 b9 bd
       -0.004483213 0.057249177 -0.05182345 -0.090606876
0003a0 89 be 46 3e f9 ff 01 3c c0 a3 0d bd 96 04 0d bd
       0.19408621 0.007934564 -0.034579992 -0.0344282
0003b0 15 75 ae be 92 e4 e2 3c 15 59 c1 bc 0b 7b 39 bd
       -0.34073702 0.027696881 -0.023602048 -0.04528336
0003c0 6a 94 ef 3e 07 1f ae 39 bf cc 12 bd 96 42 1c be
       0.46792918 0.00033210983 -0.035839792 -0.15259776
0003d0 2b 07 81 3e 40 67 ce 3d 7f 99 c6 be 39 4b 0f bb
       0.2520078 0.10078287 -0.38788983 -0.0021864905
0003e0 42 df f1 bd 06 41 22 be 29 53 14 be f7 7d bf 3d
       -0.11810161 -0.15845117 -0.14484848 0.09350198
0003f0 a6 d9 2d bc 20 07 eb 3d 7f 6b 99 3d 40 5b 87 bd
       -0.010610973 0.11475968 0.074912064 -0.066092014

conv6_2.bias f4 [4]
000000 da d5 58 3d 5a a2 08 bb d0 60 85 bd 6b fc e2 bc
       0.05293832 -0.0020848722 -0.06512606 -0.027708253

conv6_2.weight f4 [4, 256]
000000 60 d5 c9 bb 4b 72 fc 38 7a d8 10 bb 17 fe 7f ba
       -0.0061594695 0.00012037585 -0.0022101686 -0.00097653404
000010 cb c2 3f 3c db eb 67 bc 45 45 88 bb 8b e1 59 3d
       0.011704157 -0.014155353 -0.004158648 0.05319361
000020 bd 65 a5 bc 8d a5 3a bc 8c 96 bf 3b a8 b0 99 3c
       -0.020190114 -0.011392009 0.005846804 0.018760994
000030 51 27 98 3c af 0b 69 bb 77 1b 51 bc e5 70 ca bc
       0.018573435 -0.0035559942 -0.012762896 -0.024712035
000040 0b dc 16 3d 65 76 a2 3a 53 f6 2e bd 62 db 33 bc
       0.036830943 0.0012394903 -0.04271538 -0.010977598
000050 0d 60 58 3a 32 bd 02 bc 1a ae 54 bd 3e 90 01 3d
       0.0008254059 -0.007979678 -0.05192385 0.0316317
000060 fb 03 12 3d d8 15 c8 ba 0c 81 12 3c b2 cb e7 ba
       0.035648327 -0.0015265299 0.0089419 -0.0017684607
000070 f2 d6 df bc 3c fe 2a bc 68 6a 8f 3c 2b db e4 3c
       -0.027324174 -0.010436591 0.017506793 0.027936539
000080 2c 1f 22 3d fd 4f 01 bd 16 96 dd bb cc 0c df bc
       0.03958051 -0.031570423 -0.0067622764 -0.027227782
000090 a6 56 50 bc 3f 3d 57 bc aa 1a 84 bc 6b 9d 6b 3c
       -0.012715971 -0.013137161 -0.016125996 0.014380793
0000a0 ad dd 29 3c c3 2e 44 3c e7 30 a9 3b 2b d8 77 3a
       0.010367793 0.0119740395 0.0051633003 0.0009454514
0000b0 af 1b bc 3b 86 33 e3 3c e5 c4 91 3b 1f d2 92 3b
       0.005740605 0.02773453 0.0044485205 0.004480615
0000c0 e9 f4 01 bb 03 f7 2b 3d 59 02 09 3d 0a 89 9a 3d
       -0.0019829816 0.041983616 0.033449505 0.075456694
0000d0 60 fc ec bc 34 91 b5 3b fa 6d 28 3c 74 7b b1 bc
       -0.028928936 0.005540991 0.010280127 -0.021665312
0000e0 b1 f4 73 bc 6d 24 e4 39 0c 4a 20 bc 08 20 72 bc
       -0.014889882 0.00043514688 -0.009783279 -0.014778145
0000f0 76 ef 95 bc 65 0a b8 3c de af 5f bc b5 60 20 bc
       -0.01830266 0.022465894 -0.01365277 -0.009788682
000100 21 f7 41 3c e8 d2 8c bc 77 1c 7a 3c c9 b5 d4 bc
       0.011838705 -0.017190412 0.015265576 -0.025965588
000110 42 ea c5 3b 5c ee cf 3a e5 c2 57 3a 75 10 43 bd
       0.0060398886 0.0015863883 0.00082306407 -0.047623117
000120 ca 3d e9 3b 82 12 f8 3c 48 4b ca ba a3 f9 a4 bc
       0.0071179615 0.030282263 -0.0015433813 -0.020138567
000130 70 52 57 bc c5 45 29 bb ea d0 a2 bb 94 2b fe 3d
       -0.013142213 -0.002582894 -0.004968752 0.124106556
000140 1e 8b 0e bd 0b b9 35 3d 9f 29 2b ba fa cb 1f bc
       -0.03480064 0.044365924 -0.00065293344 -0.009753222
000150 3c fe f9 bc c4 ec 8b 3b 40 80 ee 3b 18 35 d1 bb
       -0.030516736 0.004270168 0.007278472 -0.006384503
000160 66 10 aa 3d f1 f9 0d 3d ae 65 bf bc 7d 6a 1e 3c
       0.08303909 0.03466219 -0.023363914 0.0096689435
000170 bc 54 4d bb 9a ee 36 bc 1d fd 41 bc 6f 49 94 3c
       -0.0031331023 -0.0111652855 -0.011840132 0.018101422
000180 5b 43 12 bd 64 7d 3f bc 75 ee d4 bc 43 a9 09 3d
       -0.035708766 -0.01168761 -0.025992611 0.033608686
000190 39 86 4a bb 6f ed 93 bb 5f 80 bb bb cc 7d a3 bc
       -0.0030902757 -0.0045143883 -0.00572209 -0.019957446
0001a0 88 b3 79 ba 22 2c e5 3b 60 e2 7b ba 54 93 e9 bc
       -0.00095253484 0.0069937864 -0.00096086226 -0.028512634
0001b0 78 c2 e6 bb b5 13 71 bc 79 38 4b bc a7 25 99 3b
       -0.0070422255 -0.014714171 -0.012403601 0.004673678
0001c0 06 53 12 3c f1 2d 81 3d 35 5c ce 3c 72 cc 3d 3c
       0.008930927 0.06307591 0.025190452 0.011584388
0001d0 19 b7 2e bd 41 1c f7 bb b4 50 0a bd 34 24 cf b9
       -0.042655084 -0.00754121 -0.03376837 -0.0003950909
0001e0 99 02 07 39 20 05 bd bb bd d6 b7 bc 69 34 20 3c
       0.00012875571 -0.005768433 -0.022441262 0.009778121
0001f0 44 92 1e bb 1b 4e aa 3b 9b 55 c5 3b 0d 92 65 3c
       -0.0024196068 0.005197299 0.006022168 0.014011872
000200 46 34 c7 3d 66 85 b9 bb c5 e7 f9 bb 42 6f ce b9
       0.09726767 -0.0056616543 -0.007626506 -0.00039374275
000210 01 30 7f 3c cc 20 2a 3d b2 0c 1c 3c f8 4a 88 ba
       0.01557541 0.041535184 0.009524511 -0.0010398319
000220 9e 97 8b bc 6a a6 93 bc a6 e8 6d 3b e7 44 91 3c
       -0.01704007 -0.018023688 0.0036302 0.01773305
000230 b6 ff 1b 3a c4 ca 11 3c 4a 0e a2 3b 0d 73 24 bc
       0.00059508847 0.008898441 0.004945551 -0.010037196
000240 7c 32 b5 38 4e f4 b6 3a a2 9c 3d 3d f1 c3 41 3d
       8.640156e-05 0.0013958307 0.046291955 0.047306005
000250 66 b5 95 3a 20 dd 4b ba ae fa 6c 3b c8 33 33 bd
       0.0011421859 -0.00077767856 0.003616016 -0.043750554
000260 08 36 62 bc e9 ee b0 3c 81 5f 32 bb 6c e3 a8 bc
       -0.013806827 0.021598296 -0.002721757 -0.020616256
000270 a1 ac 1e bc fd bd 26 bb 7d 90 81 3d 58 c0 73 bc
       -0.009684713 -0.0025442832 0.06326387 -0.014877401
000280 1a d6 a2 3b 02 cb 11 3c ce e8 95 3a 73 7e 51 bc
       0.0049693706 0.0088984985 0.0011437179 -0.0127864955
000290 2b 7d d9 ba 43 6a e8 bb 50 ad 06 bd c4 6d df bc
       -0.0016593089 -0.0070927455 -0.032880127 -0.02727402
0002a0 1b a1 f2 3b 4d 64 a6 3a 47 fa 36 3c ff ad e7 bc
       0.007404459 0.0012694687 0.011168069 -0.02828121
0002b0 f6 e2 3d bb 24 6c 9c bb 38 60 bd 3c 20 4d a9 bb
       -0.002897439 -0.0047736336 0.02311717 -0.0051666647
0002c0 88 85 63 bc c9 d7 b5 bc 2c 62 aa bc 78 0d 71 3c
       -0.013886817 -0.022197621 -0.020798765 0.014712684
0002d0 d0 27 54 bb b0 3d 5c 3c 32 68 d2 b9 81 98 13 3b
       -0.0032372363 0.013442442 -0.00040131953 0.002252132
0002e0 90 96 c7 3c 63 dc e9 ba 3a d1 92 3b bd b6 31 bd
       0.024363786 -0.001784217 0.004480508 -0.043387163
0002f0 90 1e 9e 3b d0 b3 1a 3c 0d 8d 39 bc 29 92 11 bd
       0.0048254207 0.009442285 -0.011325133 -0.03553978
000300 4b 74 cd b9 ef ae 29 3a 33 2f 16 bb 2a b4 dd bc
       -0.00039187292 0.00064729055 -0.0022916317 -0.027063448
000310 d6 35 9e bc 6d b0 e7 3c 15 ef c3 3b 68 6c 12 3b
       -0.01931278 0.028282369 0.0059794285 0.0022342447
000320 6c 08 1a 3c ae 27 97 bb 4e 48 54 3c 9e ea 49 3c
       0.009401422 -0.0046128845 0.012956692 0.0123240035
000330 0d 8e 45 bd 0f 87 ac 3b 9a 12 92 bc e2 5a dc 39
       -0.048231173 0.0052651237 -0.017831136 0.00042029383
000340 8d 5b ae 3c 9d 56 3d bb 50 6b 42 bc bf 89 89 bb
       0.02128389 -0.0028890737 -0.011866406 -0.004197329
000350 f4 e0 2e 3c c8 ff a7 bb ba 0b f1 bc 6d d5 22 bb
       0.01067375 -0.005126927 -0.029424537 -0.002484645
000360 e7 ba 03 bd 7b 62 56 3d 8a 7b 59 bd 22 f9 e0 bc
       -0.032160666 0.052340012 -0.05309633 -0.027462546
000370 2b cf f2 ba 20 da 13 3c 19 bf db 39 40 83 d3 3c
       -0.0018524876 0.009024173 0.00041913314 0.02581942
000380 f2 eb de bb 44 40 27 3c 64 e3 9f 3b 2d 14 27 bd
       -0.006803029 0.010208193 0.004879402 -0.040790725
000390 ae e4 4b 3d 7c 34 1a bc ff 02 8f 3b 53 d8 89 bc
       0.049778633 -0.009411927 0.004364371 -0.016826784
0003a0 be 57 75 3c fa 39 a6 bb 18 4f a1 bc 28 eb 28 bc
       0.014974533 -0.0050728293 -0.019691035 -0.010309972
0003b0 69 f5 4a bb 38 c9 53 bc df 6a 81 3d 58 d8 53 3d
       -0.003096903 -0.012926392 0.06319212 0.051719993
0003c0 ed f2 09 3c 14 5b 32 3c ec d2 7a bc ef b6 72 b8
       0.008419734 0.0108859725 -0.015309077 -5.7867666e-05
0003d0 f8 00 1c 3c d6 71 e6 bc b9 20 b5 38 33 e6 80 3c
       0.009521715 -0.028130453 8.6368476e-05 0.015734768
0003e0 bb 4d 32 3c 72 32 e5 3c 37 32 1a ba e5 6e ba bc
       0.01088279 0.027978156 -0.00058821164 -0.022757957
0003f0 22 fa dd 3b 53 d7 3d bb bd 4a 0a bc 3f 27 8b bc
       0.006774203 -0.0028967455 -0.008440671 -0.016986487

conv6_3.bias f4 [10]
000000 3a f0 37 3d f8 1d 31 3d 10 b8 e3 bc 50 fb db 3c
       0.044906832 0.04324147 -0.027797729 0.026853234
000010 98 d8 51 bd 28 ae 26 3d a0 9a 09 bc 94 43 27 bd
       -0.05123195 0.040693432 -0.008398682 -0.040835932
000020 d0 27 26 3d 58 7c 13 bd
       0.040565312 -0.036007255

conv6_3.weight f4 [10, 256]
000000 fc 8f 6c bd 00 b1 4d ba f8 34 51 bc d4 10 6f 3d
       -0.0577545 -0.00078465044 -0.012768976 0.058365658
000010 52 57 3f bd c4 ce a2 bc 6e 6d 6b bd 26 43 62 bd
       -0.046714135 -0.019873984 -0.057477407 -0.05523982
000020 78 09 0b 3c 62 28 7f 3d 74 00 95 3c 9e 95 2a bd
       0.008486144 0.06229437 0.018188693 -0.041646592
000030 58 28 79 3c e8 a3 10 bd 3a 0e 6a 3d 90 59 de 3b
       0.015207373 -0.035312563 0.057142474 0.006785579
000040 58 a1 85 3c 48 3b 7f 3c 2c 8d b8 3c 60 bd fb bb
       0.016312286 0.015578099 0.022528253 -0.0076824874
000050 40 03 09 bb f0 98 1f bc 8c ac ac bc 10 a1 03 3d
       -0.0020906478 -0.009741053 -0.02107837 0.032136023
000060 d0 16 0f 3c 2a b3 64 bd 44 52 3e 3d e0 72 0e 3b
       0.008733466 -0.055834927 0.046465173 0.0021735951
000070 94 ab 06 3d c4 92 6b 3d 96 da 1c 3d 60 2c 2b 3b
       0.032878473 0.057513013 0.038294397 0.002611898
000080 a0 4e c3 bc 5a ee 3d bd 34 c4 1c 3d 50 69 da bb
       -0.023841202 -0.046369888 0.03827305 -0.0066653863
000090 d4 21 a1 3c f8 2e 2f 3d 38 18 4d 3d 24 01 a2 bc
       0.01966945 0.042769402 0.050071925 -0.019775935
0000a0 0c 9a 58 bd 6a b7 7d bd 28 e2 aa bc 56 76 3b 3d
       -0.052881286 -0.061942495 -0.020859793 0.04576715
0000b0 78 91 94 bc 3c 54 80 bc d0 99 1c 3d 6e 38 46 bd
       -0.018135771 -0.015665166 0.038232625 -0.04839366
0000c0 a2 d5 6c 3d 90 f6 39 bd 00 99 64 bb 44 80 85 3c
       0.057820924 -0.045401156 -0.0034881234 0.016296513
0000d0 52 42 6b bd 08 f7 0d 3d 68 15 8a bc e0 6b 88 bc
       -0.057436295 0.034659415 -0.01685591 -0.016653001
0000e0 1c 61 04 3d 80 50 7b bb a0 ee bd bb 10 3b e1 bb
       0.032319173 -0.0038347542 -0.0057962686 -0.006873496
0000f0 f4 2a 41 bd 80 0c c6 3b 00 7e 5a bc c4 d3 6c bd
       -0.047160104 0.0060439706 -0.013335705 -0.057819143
000100 60 bf b5 3c c4 4c 3e bd 34 17 70 3d 46 38 77 3d
       0.022185981 -0.04645993 0.05861588 0.0603564
000110 b0 fe 87 3b fa 6b 19 bd 04 ec ca bc 72 41 72 bd
       0.004150234 -0.03745649 -0.024770744 -0.059144445
000120 5a 1b 11 3d 7c 33 e7 3c 46 15 2a 3d f8 2a 2d 3c
       0.035426475 0.028222792 0.041524194 0.010569327
000130 06 5e 12 bd 14 21 93 3c 5e b3 15 3d c0 b7 19 3d
       -0.0357342 0.017960109 0.03654801 0.037528753
000140 00 41 7e 3b 90 96 29 bc f0 07 43 3d 94 dd 3e 3d
       0.0038796067 -0.010350838 0.04761499 0.046598032
000150 20 34 54 bb 4e 88 3b bd e4 4a 59 bd 1a 90 0c 3d
       -0.0032379702 -0.045784287 -0.053049937 0.034317113
000160 34 e3 98 3c b0 64 3c 3c 74 2f ac 3c 08 4b 27 bd
       0.018663026 0.011498615 0.021018721 -0.04084304
000170 c4 c7 0f bd b8 05 9f 3c 30 00 74 bd f8 d6 5e 3c
       -0.03510262 0.019411907 -0.05957049 0.013601057
000180 30 99 4a 3c 4c 7a 83 3c f4 b6 35 3d be 81 61 bd
       0.012365624 0.016049527 0.04436393 -0.055055372
000190 e8 37 71 3c 98 37 4a bc 90 97 8b bc 00 a0 92 b9
       0.014722802 -0.012342356 -0.017040044 -0.000279665
0001a0 40 af 68 bd 66 a1 20 bd c4 d6 69 3d d6 1d 1e 3d
       -0.056807756 -0.03921642 0.057089582 0.038602673
0001b0 f0 5e 00 bd 96 c6 60 3d 18 7d 91 bc 00 78 d4 38
       -0.03134054 0.054876886 -0.017759845 0.000101312995
0001c0 40 44 24 3d b0 16 f9 3c 74 ae fe 3c 80 79 31 bc
       0.04010415 0.030406326 0.031089045 -0.0108321905
0001d0 00 71 1a 3d 60 eb 14 bb 02 99 29 bd 24 48 e4 bc
       0.03770542 -0.0022723302 -0.041405685 -0.02786643
0001e0 78 3e 3e bd 76 21 22 3d 1c 60 1d bd 3c 25 e5 3c
       -0.046446294 0.039582692 -0.038421735 0.027971856
0001f0 9c 75 90 bc 78 b6 bc bc 9e 7b 22 3d d0 e1 cc bb
       -0.017634206 -0.023036227 0.03966867 -0.006252505
000200 80 05 09 3d 0c c7 42 bd a8 21 8c 3c e8 54 2b bc
       0.03345251 -0.047553107 0.017105892 -0.010457255
000210 ae 2d 7e 3d e8 79 ac 3c c8 00 4d bd 20 ae 40 bb
       0.062055282 0.021054223 -0.050049573 -0.0029400662
000220 d8 6f 33 3c 50 80 fc bb 30 15 5f 3c 64 66 5c 3d
       0.010951959 -0.0077057257 0.013615891 0.053808585
000230 b8 8b a9 bc 1c d1 9a bc f0 20 65 bc c0 1a 79 bc
       -0.020696506 -0.01889854 -0.013984904 -0.015204132
000240 14 3b 82 bc a0 d2 92 bc d0 24 f0 3b 60 36 93 bb
       -0.015897311 -0.0179227 0.007328607 -0.004492566
000250 34 99 b0 3c b8 0d 5b bc a0 5d 38 bd 12 26 30 bd
       0.021557428 -0.01336997 -0.045011163 -0.043005057
000260 2e c4 7d bd 04 0b 4c 3d 26 a3 68 bd 60 b3 c0 3b
       -0.06195467 0.049815193 -0.056796215 0.005880758
000270 ac 27 79 3d 88 cf 86 bc 58 49 b5 bc 7c 38 34 bd
       0.06082885 -0.01645638 -0.0221297 -0.04399918
000280 de f7 12 bd d0 f7 dc 3b 30 ea 2b bc a8 31 a4 3c
       -0.035880916 0.0067434087 -0.010492846 0.02004321
000290 c0 3c 7a 3d d6 e8 72 bd 1a 73 30 3d 18 67 2c 3d
       0.061093092 -0.05930408 0.04307852 0.042090505
0002a0 10 9d 15 3d ba 69 43 bd f4 66 f6 3c ec ab de 3c
       0.03652674 -0.04770825 0.030078389 0.027181588
0002b0 a6 1b 00 bd 88 74 15 bc 42 04 22 3d de d8 72 3d
       -0.031276368 -0.0091220215 0.03955484 0.059288852
0002c0 e4 19 9a bc 88 5f 6a 3d 04 0a 7e 3d 18 ba 02 3c
       -0.018811174 0.057220012 0.06202127 0.0079789385
0002d0 30 2a 9a 3b 30 61 33 3d 8a 52 1f bd 18 3d 00 3c
       0.004704736 0.043793857 -0.038897075 0.007827066
0002e0 ce 1f 55 3d 40 09 70 bc 7c ad 51 bd c0 b4 bc ba
       0.052032284 -0.014650643 -0.05119084 -0.0014397129
0002f0 90 94 48 3c 48 d3 45 3d 8a cd 2d bd bc 5a 46 bd
       0.012242451 0.048297197 -0.042432345 -0.048426375
000300 6e 0e 1a bd 84 28 fd bc aa ed 4d 3d 90 3f e7 bc
       -0.037611417 -0.030903108 0.050275482 -0.028228551
000310 fa ea 02 bd 2a 75 5f bd 10 c6 a9 3b 6c 75 5d 3d
       -0.031962372 -0.054555096 0.0051810816 0.05406706
000320 a0 07 27 3b a0 65 b4 3c a4 10 9a bc 44 a3 17 3d
       0.0025486723 0.022021115 -0.018806763 0.037020937
000330 8c 9f fb bc 78 d4 76 bc 46 21 56 bd 72 41 51 3d
       -0.030715726 -0.015065305 -0.052277826 0.051087804
000340 10 e4 01 3c 64 5f 1b 3d 5c 1d df bc cc e0 a2 3c
       0.0079279095 0.03793277 -0.02723568 0.019882582
000350 5c d6 42 bd 34 b7 19 3d d0 e6 50 bc 5c 3a ef bc
       -0.04756771 0.03752823 -0.0127503425 -0.029202633
000360 80 8e 3a 3b 20 ce 35 bb b8 cc 44 bd 18 59 cf bc
       0.0028466284 -0.0027741268 -0.048046798 -0.025311038
000370 64 59 35 3d d2 1d 6d bd 38 04 b6 3c 44 7d 56 3d
       0.044274703 -0.057889767 0.022218809 0.052365556
000380 a0 8c 37 bb 8a cb 7a 3d 64 b6 77 3d 80 24 19 ba
       -0.0028007403 0.061229266 0.060476676 -0.0005841926
000390 10 b0 cb 3c ea 99 45 bd 8c 7a 1e 3d 88 1a 4e 3d
       0.024864227 -0.048242487 0.03869109 0.05031827
0003a0 30 95 00 3c 38 43 bb 3c 12 bf 65 3d c0 65 4c bb
       0.007848069 0.0228592 0.056090422 -0.0031188577
0003b0 14 a8 85 bc 80 1b db bb 40 79 90 3b f4 cb d9 3c
       -0.016315497 -0.006686628 0.0044089854 0.02658651
0003c0 68 4d dc bc f0 51 12 bd 28 57 1c bc 38 8f d5 3c
       -0.026892379 -0.035722673 -0.009542264 0.026069269
0003d0 70 ee 7f 3d 32 d4 00 bd 00 c0 2b 3b 74 ba 67 bd
       0.06248325 -0.031452365 0.002620697 -0.0565743
0003e0 c0 c8 bb 3a 32 a1 27 bd 62 a1 0d 3d f4 7c ea bc
       0.0014326796 -0.040925212 0.034577735 -0.028624035
0003f0 a0 f8 bf bc 58 ba 0f 3c 94 6f 39 3d 08 0e 18 3c
       -0.023433983 0.008772455 0.045272425 0.009280689

features.conv1.bias f4 [32]
000000 7d e3 01 3d 7d a9 db 3d 90 65 d7 bd 3b da 05 be
       0.03171109 0.10725687 -0.105174184 -0.1307153
000010 59 86 33 bd 6f 78 3f be a4 4a 31 3d 86 2c a8 ba
       -0.043829296 -0.18698286 0.043284073 -0.0012830652
000020 8e 49 3f 3d f8 5f 47 be 01 43 81 3e e1 21 8b 3d
       0.046701007 -0.19470203 0.25246432 0.06793571
000030 ab d7 40 be 9c 5c b0 bd 29 1c a2 bd 23 91 9c be
       -0.18832271 -0.08611414 -0.079155274 -0.3057948
000040 28 e3 2a bd e3 93 9d bd 56 19 23 3d 22 59 91 3d
       -0.04172054 -0.07694223 0.039819084 0.07097079
000050 c0 d8 ed 3d d8 78 05 be 16 26 a6 3c 0c c7 af bc
       0.116136074 -0.1303438 0.020281833 -0.021457218
000060 ee 05 5f 3a 30 9d d9 bc a3 c5 84 be e3 e9 12 3d
       0.00085076585 -0.02656421 -0.25932035 0.035867583
000070 26 02 0b bd bf 9f a5 bd 90 56 69 bc 8c df ea bd
       -0.033937596 -0.0808711 -0.0142418295 -0.114684194

features.conv1.weight f4 [32, 3, 3, 3]
000000 3f 91 27 3e 17 d7 af 3d 64 05 16 be 50 4a 9f 3d
       0.16364 0.08585947 -0.14650494 0.07777846
000010 f6 d2 57 be d0 74 9e bd f4 d4 7c be 66 29 77 be
       -0.21076569 -0.07737124 -0.2469061 -0.24136886
000020 ab 65 32 be 49 41 c6 3d eb 00 fa 3c fa 40 24 3d
       -0.17421596 0.09680421 0.030518016 0.04010103
000030 f6 b0 d9 3c 6d 25 a1 3d 15 99 72 be 5a 2e f9 bc
       0.02657364 0.078684665 -0.23691209 -0.03041761
000040 9e da cf 3d 14 0d 81 bd 57 9b 04 3e 58 69 5a bd
       0.1014912 -0.063013226 0.12949882 -0.05332312
000050 3b 42 39 3b 58 aa 23 be 42 d7 3b bc 89 f5 ee 3c
       0.0028268236 -0.1598295 -0.011464896 0.029169815
000060 cc 7b a6 3d 42 c8 c2 3d 19 42 43 3b 58 51 d4 bd
       0.08129081 0.095108524 0.0029794036 -0.103670776
000070 09 62 1c 3e e1 7a 56 bd 10 4c 36 be 8a 28 1a be
       0.15271772 -0.05236328 -0.17802453 -0.15054527
000080 2a 47 ff 3c 5f 82 8b 3d d0 87 7d be 9a ad 7b be
       0.031161863 0.06811976 -0.2475884 -0.24577942
000090 e6 64 24 3e 51 b9 90 3d 9f 19 e4 3d 11 77 2f be
       0.16054115 0.07066596 0.11137699 -0.17135264
0000a0 90 2b d1 3d c0 e2 dc bd 8b 53 a6 3d 79 cf b2 3d
       0.10213387 -0.10785437 0.08121403 0.087309785
0000b0 7f cd 74 3e df 77 28 be c9 08 11 3e 6a 81 44 bd
       0.23906516 -0.16451977 0.14163508 -0.04797498
0000c0 4e 37 0b be 25 c4 26 be 43 cd b1 3d 48 85 73 3e
       -0.13595316 -0.1628576 0.08681729 0.23781312
0000d0 89 86 f3 3d af bc 6c 3d f6 aa 33 be 36 fe 40 bb
       0.11890895 0.05779713 -0.17545685 -0.0029448397
0000e0 91 69 dd 3c 28 aa 9b bc 69 8d 3b bc 9a fa fe 3d
       0.027027877 -0.019002035 -0.011447289 0.12450142
0000f0 5d 4e 1c 3e e5 b8 19 be 30 50 4a 3c 8b cd 37 be
       0.15264268 -0.15011938 0.01234822 -0.17949502
000100 53 a2 2c 3d 2c e8 06 3e 2f 26 a3 3d 72 6e 20 3e
       0.042146992 0.13174504 0.07966267 0.15667132
000110 df 38 1b 3e 60 be 9d bd 62 ef 04 3d 54 b7 b1 bd
       0.15158413 -0.07702327 0.032454856 -0.08677545
000120 85 e1 6f bd 26 aa 82 3d 0e 76 b2 3d b1 a5 05 3d
       -0.05856468 0.063801095 0.087139234 0.03262872
000130 5d 16 dd bd 8e df 4f be 53 ae 0e 3e c0 24 42 3c
       -0.10795281 -0.20300123 0.13933687 0.011849582
000140 38 4d ee bb 87 39 fe bd e1 8e e6 3c aa 6e e0 bc
       -0.007272389 -0.12413316 0.028144302 -0.027396519
000150 30 e7 79 3e 90 30 87 3d 0a ea cf bd dd 17 9e 3d
       0.24404597 0.066010594 -0.10152061 0.07719395
000160 83 8a 23 3d 2b 1c 5d bc 39 04 aa bc 55 1e d6 bd
       0.039927017 -0.013495485 -0.020753967 -0.10455004
000170 20 e7 63 be 40 2f c4 bd 28 32 e7 bd 15 51 be bd
       -0.22256136 -0.09579325 -0.112888634 -0.09292809
000180 6e 30 9d 3e 3d 83 2d 3e 44 2c 74 bd ea 89 3a 3c
       0.3070101 0.16944595 -0.059612527 0.01138542
000190 ab b4 17 be 41 3b ca bd a8 43 02 be e7 84 fe bd
       -0.14815013 -0.09874583 -0.12721121 -0.12427693
0001a0 1e de 0b 3e 33 bd 7e 3e 9e 51 13 3e a6 31 14 3e
       0.1365895 0.24876861 0.14386603 0.14472064
0001b0 4e 93 40 bd 9b c0 ce bd 7a 4f 04 bd 3c 7f b3 3c
       -0.04701548 -0.1009533 -0.032302357 0.021911256
0001c0 f6 fd 88 be 49 84 3d be 48 51 42 3c d8 7a 3f be
       -0.26756257 -0.18507494 0.011860199 -0.18699205
0001d0 01 31 a7 bc 64 45 32 bc 92 51 94 bd da 1b e6 bd
       -0.02040911 -0.010880802 -0.07242121 -0.11235781
0001e0 6c 05 58 bd 5f fb 55 3e 73 7c 48 3d 47 d4 0d 3e
       -0.052739546 0.20896672 0.04894681 0.13850509
0001f0 d7 cf 02 3e 83 ee 17 be cb e8 49 3c 91 bf 27 3e
       0.12774597 -0.14837079 0.012323569 0.1638167
000200 6e 4a 2c 3e fc b9 19 3a 22 f2 06 3e 73 21 25 3d
       0.16825268 0.00058642006 0.13178304 0.040315103
000210 17 95 68 be 75 25 d1 3d d9 ea 9c 3d cd f3 53 3e
       -0.22713123 0.102122225 0.07661981 0.20698471
000220 17 4f 17 bd d4 fa d2 3d fb 5c 99 bd 1e a2 73 3e
       -0.03694066 0.10301748 -0.07488438 0.23792312
000230 9c ca 21 bd 15 b7 1d 3d 80 45 6e 3e 2a b9 d9 3b
       -0.039499864 0.03850468 0.232687 0.0066443877
000240 2a a0 af bd ef 66 ad 3d 22 b8 35 bd 6b 85 43 bd
       -0.08575471 0.08466899 -0.044365056 -0.04773466
000250 d0 6f b4 bd 55 48 81 3d 6f 46 67 bb 0e 7a c0 bd
       -0.08810389 0.06312624 -0.0035289784 -0.0939828
000260 e2 ad 68 bd c6 e5 fa bd 6b 90 e1 bd ba 67 71 3e
       -0.056806453 -0.12250857 -0.11013874 0.23574725
000270 6d 2a 8c bd e5 b2 94 3d ba 18 9f 3d af c0 90 bc
       -0.068440296 0.07260684 0.07768388 -0.017670004
000280 a2 c3 1c 3e 66 64 2a bd 10 1c 47 be bb 89 85 bd
       0.15309003 -0.041599654 -0.19444299 -0.065204106
000290 55 de 06 bd e0 b2 78 3d d4 20 2f be cf b5 36 bd
       -0.032926876 0.060717463 -0.17102367 -0.04460698
0002a0 89 98 1c be 02 c5 84 3d 42 1b 69 bb 54 c4 bc 3d
       -0.15292563 0.06482889 -0.0035569225 0.09217134
0002b0 7f 4c d9 3c 64 66 13 3e 52 8e 7d bd 14 74 0b bd
       0.026525734 0.14394528 -0.061903305 -0.034046248
0002c0 e7 2f 8f 3d 47 a2 5d be b3 7e a1 bc 62 29 95 3d
       0.069915585 -0.21643935 -0.019713735 0.07283284
0002d0 31 0f 1d 3e bc be 9b 3d a5 80 ba 3c 53 4f 38 3e
       0.15337826 0.07604739 0.02276642 0.1799901
0002e0 c8 66 b2 bc 28 c9 54 bd 6a fc 0d 3e e9 28 97 3d
       -0.021777526 -0.05194965 0.1386582 0.0738085
0002f0 11 46 b2 bd 90 48 30 be f4 f7 d1 bc 9d b4 7a 38
       -0.0870477 -0.1721518 -0.025630929 5.9772854e-05
000300 d7 a5 d5 bd 98 b8 ab bd e7 96 4c bd dc b2 2b 3e
       -0.10432022 -0.08384818 -0.0499486 0.16767448
000310 6b 70 4b bd f5 07 41 3e 4f 72 ee 3d a4 19 0a be
       -0.049667757 0.18850692 0.116428964 -0.13486344
000320 2c b3 2a 3e 7b df c5 bd a2 fc f8 bd f9 56 85 3e
       0.16669911 -0.09661766 -0.12157561 0.26042917
000330 4e 46 5e be 6b e3 3a 3e 72 cd 5a 3d 96 c6 53 be
       -0.21706507 0.18250816 0.053418584 -0.20681223
000340 bf ce e7 bc a0 20 39 3e 09 e5 10 be 5f f4 22 be
       -0.028296826 0.18078852 -0.1414987 -0.15913533
000350 e4 21 b5 3c 09 56 e4 bd a4 ac 2a 3e 1f 36 4e 3e
       0.022110887 -0.111492224 0.1666742 0.20137833
000360 15 69 13 be df 84 96 3c 1b 87 b4 3d 7f d1 81 bc
       -0.14395554 0.018373905 0.08814832 -0.015846966
000370 be cd 75 be ed 3d da 3b 93 bb f8 bd 00 6e 15 be
       -0.24004266 0.006660214 -0.12145152 -0.14592743
000380 76 2a c7 3d ec ca 59 3d 51 80 c0 3d db f8 3a 3e
       0.09724896 0.053172037 0.093994744 0.18258993
000390 ca 71 4f bc a5 6b 14 3d 97 9c aa bc ca 19 43 3d
       -0.012661407 0.03623547 -0.020826621 0.047632016
0003a0 86 e1 81 3e d9 95 f9 bd f8 8c 30 bd 6d b4 66 3d
       0.25367373 -0.12186784 -0.04310319 0.05632441
0003b0 c2 ff ea bd 97 72 46 bc aa 38 a4 bb a9 f4 f1 bd
       -0.11474563 -0.012112281 -0.0050116377 -0.11814243
0003c0 f0 8e cc bc 53 0e 80 3e cc 9e e3 3d c0 4d e7 bd
       -0.024970502 0.2501093 0.111142725 -0.112941265
0003d0 9d 19 2c 3d d1 c6 10 be 95 da 12 3e a9 f8 6e bd
       0.042016614 -0.14138342 0.14341195 -0.05834261
0003e0 7d 40 7f 3c 33 ae 5d bd 16 ce 59 3e 19 ff bd bd
       0.01557934 -0.054121207 0.21270022 -0.09277172
0003f0 d4 70 24 be 34 7c a3 3d d1 9f af ba 6f cb 86 bc
       -0.16058666 0.07982674 -0.001339907 -0.016454427

features.conv2.bias f4 [64]
000000 8f ed 52 bd 9b c2 09 bd 1d 7d 7f bd 22 cc 15 bb
       -0.051496085 -0.033632856 -0.062375177 -0.0022857268
000010 4a fc 1b bd 76 81 a1 bc 67 e1 d6 bd 52 8d 20 bd
       -0.0380824 -0.019715052 -0.10492211 -0.039197274
000020 08 4e 01 bd ec 85 2d 3b 82 1c 4d 3c 73 97 8d 3c
       -0.031568557 0.0026477529 0.012519004 0.01728413
000030 8b c8 2a bb af fe 23 bd 53 a8 67 3d aa 54 f6 3c
       -0.0026059474 -0.040037807 0.05655701 0.030069668
000040 78 68 aa bd 00 9a 0f 3d e8 32 c1 bd 24 70 9a bd
       -0.08320707 0.035058975 -0.09433538 -0.075409204
000050 26 43 8f bd df 37 a4 bd ac ef 85 bd ca 0f 5f bd
       -0.069952294 -0.08018469 -0.065398544 -0.054458417
000060 5a 3f 90 bd 86 ed 16 bd 28 c7 13 3d cd 98 8d bd
       -0.07043333 -0.036847614 0.036078602 -0.0691391
000070 23 d8 c0 3c ea 85 0f bc 6d 19 11 3d 70 4f 0a bd
       0.023540562 -0.008759955 0.03542464 -0.033767164
000080 6d 5c a7 bc 09 69 74 bd 05 62 e3 bc ed 48 c6 bd
       -0.020429814 -0.05967048 -0.0277567 -0.09681878
000090 0d 3b 24 3c b5 4d 2a 3c a4 8e 96 bd 2a 09 64 bd
       0.010023844 0.010394503 -0.07351425 -0.055672802
0000a0 22 22 0a 3d aa 72 06 be 2c 07 c3 bd 8e 5a 22 3d
       0.033723958 -0.13129678 -0.09522852 0.03963714
0000b0 8f 92 89 bd 65 d0 d2 bc 79 c3 67 bd 8c 18 ba bd
       -0.06717407 -0.025734136 -0.0565829 -0.09086713
0000c0 39 37 cd 3b 0d 82 09 bd 13 13 0e 3c 3e 39 84 bd
       0.0062626866 -0.03357129 0.00867154 -0.064562306
0000d0 65 73 11 bd 3a ba 95 bd 6f 49 a9 bd 42 8b 12 bd
       -0.03551044 -0.073109105 -0.082659595 -0.035777338
0000e0 d0 7a 16 bd 17 8e 93 bc 12 7b 3b bd 37 70 b5 bd
       -0.036738217 -0.01801209 -0.045771666 -0.08859294
0000f0 f0 8e ab bd fa 28 bc bc 0a fa 2a bd f8 b7 a2 bd
       -0.083768725 -0.022968758 -0.041742362 -0.079452455

features.conv2.weight f4 [64, 32, 3, 3]
000000 cf 4a bb bd d6 67 6b bd 63 b9 19 bc b6 c3 cb bd
       -0.09145128 -0.057472073 -0.009382579 -0.09949438
000010 a5 23 12 bd 16 80 af bd f9 fa 12 bd 81 97 99 bd
       -0.035678525 -0.08569352 -0.035883877 -0.074996
000020 5d 1c 20 bd cd e4 a4 3c c7 d2 02 3d 1a 68 35 3b
       -0.03908955 0.020128632 0.031939294 0.0027680458
000030 91 d0 15 bb 49 c6 3b 3b e4 53 9f 39 d0 f4 0f 3c
       -0.002285991 0.0028652123 0.00030389347 0.008786395
000040 05 7b 6c bb d5 90 46 3c cd 53 c5 3a 30 00 a4 3d
       -0.0036084068 0.012119492 0.0015054882 0.08007848
000050 3e 90 89 3b 06 7d 74 bd db d3 da 3d 8e 8a b3 bd
       0.004198103 -0.059689544 0.106849395 -0.087666616
000060 33 b8 99 bd d3 0f 97 bd 60 0f 18 bd a1 1c c1 3d
       -0.07505836 -0.07376065 -0.037124038 0.09429289
000070 78 c3 86 3d 11 4a 7e 3d ff a0 06 3c 21 83 2e 3c
       0.065802515 0.062082354 0.008217095 0.010651381
000080 c9 f2 2f 3d d3 09 5c 3d 9c e7 60 3d f7 e3 11 bb
       0.042956147 0.053720307 0.05490838 -0.0022261122
000090 67 e1 cf 3d cb f5 af 3d 97 f4 e2 3c 15 d6 5f 3e
       0.10150414 0.08591803 0.02770452 0.2185901
0000a0 6d 4f 9c 3d 79 0d 15 3e 9f ac c8 3d 5e 45 d3 3d
       0.07632337 0.1455592 0.0979855 0.10315965
0000b0 aa 3a 22 3e c0 54 cb bd a8 ef ae bd 82 d7 ec bd
       0.15842691 -0.09928274 -0.085418046 -0.11564542
0000c0 d6 6a c1 bc 11 46 88 bd 19 3d 9f bd 54 dc 31 bd
       -0.023610514 -0.06653989 -0.07775325 -0.043423012
0000d0 40 85 98 bd 99 8a cb bd 60 d3 b6 bc 26 bb e8 bc
       -0.074472904 -0.09938545 -0.022317588 -0.028409552
0000e0 75 e2 b4 3c 05 b3 55 bd 78 26 f4 bb 15 ea 59 bd
       0.02208064 -0.05217268 -0.007450875 -0.053201754
0000f0 73 2a 15 bd 5b 59 a9 3c b3 01 ad bc 6f da 99 bd
       -0.036417436 0.02067249 -0.021118974 -0.07512366
000100 bd 29 fa bd b0 e1 8f bd b6 ba 4c bd 1d f1 14 be
       -0.12214992 -0.07025468 -0.04998275 -0.14545102
000110 05 1e 11 be 43 f1 bd bd 35 8a 1f be 4e 54 88 bd
       -0.14171608 -0.09274533 -0.15580066 -0.06656705
000120 8c 63 aa bb 78 48 fe 3b 55 f3 cf bc bd 08 a8 bd
       -0.005199855 0.007760104 -0.025384584 -0.08204792
000130 1d 37 b6 bd 6d 8d 8a bc 17 36 98 bd 2a 25 5e bd
       -0.08897231 -0.01691314 -0.07432192 -0.05423466
000140 41 dc 91 bd c8 1d 83 3d 6e 06 83 3d a8 5a 2a 3d
       -0.07122088 0.06402165 0.06397711 0.041590363
000150 92 1c 0f bd 9b 4f cb 3c 79 22 d3 3a 03 02 84 bd
       -0.034939356 0.024818232 0.0016108296 -0.06445696
000160 3f 52 84 3b e5 ec 46 bd 32 9e 1c 3e 1a b1 bf 3d
       0.004038125 -0.048565764 0.15294722 0.09359951
000170 87 4c e7 3d 8b e9 01 3e fc 21 77 ba 95 7d 5b bd
       0.11293893 0.12686746 -0.00094273663 -0.05358656
000180 51 7d 6e bd 0c ef 83 bc 60 d8 8a bd bd 23 95 bd
       -0.05822498 -0.016105197 -0.067795515 -0.07282207
000190 b4 30 73 3b 9f db 87 bd 87 13 a1 bd de 5e 1e bd
       0.0037107887 -0.06633686 -0.07865053 -0.03866469
0001a0 a4 51 f8 bb 34 f1 70 bd eb c6 cb bd aa 6b b9 3c
       -0.0075780917 -0.05882378 -0.0995005 0.022634346
0001b0 b4 7e 90 3d 4c e9 c6 3d 71 bb 42 3d b5 73 56 3d
       0.07055417 0.097124666 0.04754204 0.05235644
0001c0 81 0b b7 3d 2c c8 63 3d af ab f2 3d 54 38 3f 3d
       0.08937741 0.05561082 0.11849152 0.046684578
0001d0 bc 39 c0 3d bd 23 4f 3d d3 5c b5 3d f9 e4 d0 3a
       0.09386012 0.050571192 0.088555954 0.001593738
0001e0 63 89 13 3e 1a 9f c1 3d 7d 64 51 bd 58 f2 a5 bd
       0.14407878 0.09454174 -0.051121224 -0.08102864
0001f0 63 e9 03 be a5 e1 ff bd 1a 7f 01 3e 94 8d a6 3c
       -0.12881999 -0.1249421 0.12646142 0.020331182
000200 f6 07 61 bd 25 43 b4 bd d6 f3 e0 bd a4 3c d4 bd
       -0.054939233 -0.08801869 -0.10984008 -0.10363129
000210 40 ed 85 bc 4d 77 88 3a b3 96 f3 3c e8 1b 5f bd
       -0.016348481 0.0010411531 0.029734945 -0.054469973
000220 bc 4f 98 bd 52 10 cb bd f4 5e 4d bb 48 8a 9f bd
       -0.07437083 -0.09915222 -0.0031337114 -0.07790047
000230 b6 56 86 bd 8a fe 83 3a e3 2c 73 3b 00 11 45 bd
       -0.065595075 0.0010070365 0.0037105612 -0.048111916
000240 23 fd 69 3c f5 4c 16 bd 3b 05 00 3d 26 bf 03 be
       0.014281544 -0.036694486 0.03125499 -0.12865886
000250 77 c9 81 bd cd 06 8f 3c 78 d0 d6 bc 64 62 98 3b
       -0.063372545 0.017459298 -0.026222453 0.004650401
000260 2b c4 7b 3c b5 08 20 bd 55 31 29 bd 1a 10 4d bd
       0.015366594 -0.039070804 -0.041306812 -0.050064184
000270 7a e1 1f 3d eb c6 08 3e c5 d9 4c bd ed a3 d7 3c
       0.03903339 0.13357131 -0.05001237 0.026323283
000280 15 00 cc bd 96 10 30 be f3 51 8c 3d dc a0 46 bd
       -0.09960953 -0.17193827 0.06851568 -0.04849325
000290 3a af 04 bd 8e 11 73 3c 51 61 07 3c c7 7c f3 3b
       -0.03239367 0.014835728 0.008262948 0.007430646
0002a0 26 88 c4 bb 93 d8 6a bc bd 10 3a bd d5 c4 bb bb
       -0.0059976755 -0.014333862 -0.04542612 -0.0057302513
0002b0 c1 04 a5 bd 77 85 45 bd 7e 66 34 bd 6e 47 9c bd
       -0.08057547 -0.048222985 -0.044043057 -0.07630812
0002c0 4c d3 2c bd 3d 3f 88 3c 7a 12 12 bd 9d 3d 28 bd
       -0.042193696 0.016631717 -0.035662152 -0.041074384
0002d0 71 ca be ba d4 be 5a 3d 5c 7f 2e bd 14 66 0b bd
       -0.0014556182 0.053404644 -0.042601928 -0.034032896
0002e0 fd d1 f2 bd b8 72 45 bb 5d 0d 20 ba b8 31 f7 bd
       -0.11856458 -0.0030128192 -0.0006105507 -0.1207003
0002f0 4b 54 20 bb d9 49 dc 3d c7 8e 28 3b 31 45 d6 bb
       -0.0024464305 0.10756273 0.0025719868 -0.00653901
000300 0d 9a a3 3c d1 81 7f 3d 31 23 fc bc 91 39 6d 3d
       0.019970918 0.062379662 -0.0307785 0.057916228
000310 df 18 09 bd fb 52 32 bd b6 e0 51 bd 03 a7 d3 bc
       -0.033470985 -0.043536168 -0.05123969 -0.025836473
000320 cc 40 a5 bc ef c0 84 bc a3 45 b4 bd 3b d4 c5 3b
       -0.0201725 -0.01620528 -0.08802345 0.0060372627
000330 8d 7d a7 3b 4c 46 01 3d 30 40 91 3d 66 9f 92 3d
       0.0051114024 0.03156118 0.07092321 0.07159309
000340 30 5b c3 bc 3e 68 65 bd d6 52 a6 3d 62 26 65 3d
       -0.023847193 -0.056007616 0.081212685 0.055944808
000350 e1 a4 73 3d 02 a5 32 bd 17 8f 27 bd 3b 70 b5 3c
       0.059483413 -0.043614395 -0.040907945 0.022148242
000360 f5 e5 59 bd 6a 94 a6 bc bf 51 b7 bd bd 0d 8f bd
       -0.05319782 -0.020334441 -0.08951139 -0.06985042
000370 d7 fd 2e bd 5d 6c 96 bd 59 68 72 bd 59 02 cc 3c
       -0.04272255 -0.073448874 -0.059181545 0.024903463
000380 d1 45 18 bd a3 f5 d4 3a 7a e2 97 bd 8a d6 6c bd
       -0.037175957 0.0016247522 -0.07416244 -0.057821788
000390 de b2 a8 3c 66 c7 42 3b bd 74 63 bd e5 0a d9 3c
       0.020593103 0.0029720902 -0.055531252 0.026494453
0003a0 de bd 6f 3c f1 61 22 3d 93 5d 07 bd 40 3c 66 bd
       0.01463267 0.039644185 -0.033048224 -0.056209803
0003b0 d2 e2 a2 bd 90 c6 69 bd ce e3 b4 3c 49 9d a2 3c
       -0.07953419 -0.05707413 0.022081282 0.01985039
0003c0 d5 cc b3 bd 1a 56 a1 bc c9 d0 99 3c 0a 7a 9b bd
       -0.08779303 -0.019694377 0.018776314 -0.075916365
0003d0 9b e4 98 bd 14 70 1e be 7f 67 29 bd 8f f3 63 bc
       -0.07465478 -0.15472442 -0.041358467 -0.013913049
0003e0 53 d0 9f bc a1 71 64 bd a7 92 51 bd 37 8f 09 bd
       -0.019508516 -0.055772427 -0.05116525 -0.033583846
0003f0 09 d5 6c 3d 0a 84 86 bd c6 0f e3 bd 8e 2f 63 bd
       0.057820354 -0.06568153 -0.11086993 -0.055465274

features.conv3.bias f4 [64]
000000 46 f8 56 bd cc 47 12 be 66 23 3f 3d 40 dd 24 bd
       -0.052482866 -0.14285201 0.046664618 -0.040250063
000010 86 25 b8 bc c7 a8 b7 bd 5a c3 ad 3c 19 23 b7 3a
       -0.02247883 -0.089677386 0.021211315 0.0013972252
000020 20 48 a9 ba 17 a8 3b bd d8 7b b1 bd f7 2a 11 bc
       -0.0012915172 -0.0458146 -0.086661994 -0.008860341
000030 9d 30 38 be a2 9d bf bd b8 d2 d7 bd b8 21 b6 bd
       -0.17987294 -0.09356238 -0.10538238 -0.0889315
000040 63 66 09 be 29 a4 a5 3d 47 10 93 bd fb e5 d3 bb
       -0.13417964 0.08087952 -0.07180839 -0.006466625
000050 76 17 0a be 42 50 e2 bd c1 a5 f4 3c 4d 48 8e 3d
       -0.13485512 -0.11050464 0.029864194 0.06947384
000060 21 cd a4 bd c7 19 d0 bc 5e 4e b6 bc 6d b5 f0 bc
       -0.08046938 -0.025402917 -0.022254165 -0.029383386
000070 f5 a3 6a bd 32 ac 44 3d 50 26 62 bd b4 c7 6e 3d
       -0.057285268 0.04801578 -0.05521232 0.05829592
000080 5b 4d 94 3c 18 d7 4b be eb e0 fd 3c 0f fa fb bd
       0.018103292 -0.1990627 0.030991038 -0.12303554
000090 34 00 aa 3d 93 b2 84 bd 7c 62 e2 bc fe b3 27 3d
       0.0830082 -0.06479373 -0.027634852 0.04094314
0000a0 db 9d 93 bd b2 27 2f be 9c 31 12 bd 4c 7e 80 bb
       -0.07207843 -0.17104986 -0.035691842 -0.0039213058
0000b0 26 e2 42 bd 71 09 3f bd c8 62 c6 3b 0a 32 1e bd
       -0.047578953 -0.046639863 0.006054256 -0.03862194
0000c0 e6 5e 90 bc b0 9c b1 bb dc 71 f8 bc 16 57 90 ba
       -0.017623376 -0.00542029 -0.03032773 -0.0011012282
0000d0 a6 f0 ee bd b7 06 20 bd 31 92 8e bd 6d 85 40 be
       -0.11666994 -0.039068904 -0.069614775 -0.18800898
0000e0 f2 f4 08 3d de b7 af bd be cc 02 be f3 10 a8 bd
       0.033436723 -0.08579992 -0.12773415 -0.08206358
0000f0 02 55 a8 bc 3e 84 cc bc 37 40 2d bc de 30 8d bc
       -0.020548347 -0.024965402 -0.010574392 -0.017235216

features.conv3.weight f4 [64, 64, 3, 3]
000000 3c 5c 2c 3d f5 96 30 3d b8 62 82 bc d4 24 e0 3c
       0.04208015 0.043112714 -0.015916213 0.027361311
000010 c6 74 0e 3c ee 3e b5 bd db 82 ac 3c c6 41 fe bc
       0.008694833 -0.088498935 0.02105849 -0.031037223
000020 90 d5 5a bc f2 e5 b2 3d a8 59 b0 3d f2 4e 94 bc
       -0.013356581 0.08735265 0.086108506 -0.01810405
000030 f3 13 81 bd 8b 2a 6a bc 41 05 cd bd 9b 76 cc bd
       -0.06302633 -0.01429237 -0.10010768 -0.0998356
000040 30 c2 ef bd 03 89 db bd 66 cf 2c 3c c4 f1 b0 3c
       -0.1170696 -0.10719492 0.0105474945 0.021599658
000050 35 3b 8f bd e9 76 24 3d 18 a7 63 bb 23 b6 bb bd
       -0.06993715 0.040152464 -0.0034737047 -0.09165599
000060 62 4d 75 3d 39 0a a2 3d 39 be c5 bd e6 85 d4 3c
       0.05988825 0.07912106 -0.09655423 0.025942754
000070 bc e9 1d 3d 89 a2 55 3d bc 94 99 3d 07 fe ab ba
       0.038552985 0.05215696 0.07499072 -0.0013121971
000080 fb 4e 44 3d b6 76 9e 3d a5 c4 e2 3c 8e 02 5a 3d
       0.047926884 0.07737486 0.027681658 0.053225093
000090 7f 81 05 3d ab a9 2e 3d f5 40 3d 3c 0a fa ea bd
       0.0325942 0.042642277 0.0115511315 -0.114734724
0000a0 c1 12 58 3c 18 82 51 3d 9c e8 ed bd 25 66 ed bd
       0.013188065 0.051149458 -0.11616632 -0.11591748
0000b0 ec 79 51 bd 3a 47 14 3e e3 82 4b 3e 7a f5 af 3d
       -0.051141664 0.14480296 0.19874148 0.08591743
0000c0 f8 14 95 3d 25 98 b8 3d 4c b8 b5 bc 04 10 ff 3b
       0.0727939 0.09013394 -0.022182606 0.0077838916
0000d0 e8 60 95 3c df 7b 28 3d 52 8d 86 bc 84 4d 51 3d
       0.018234685 0.041133758 -0.016424809 0.051099315
0000e0 97 05 20 3d 91 46 3a 3c ba e5 93 3c b9 9b dd bc
       0.03906783 0.011369363 0.018053878 -0.027051793
0000f0 d3 cc b1 3b 8e ea 2e 3d 04 0c c4 bb f4 70 eb 3d
       0.0054260283 0.042704158 -0.0059828777 0.114961535
000100 96 87 ad 3d 27 b7 86 bc 23 cf 95 3d 86 c9 28 3d
       0.084731266 -0.016444756 0.07314899 0.041207813
000110 d0 a4 21 be 97 f9 9e 3d a1 2a 37 bd 27 61 92 bd
       -0.15785527 0.07762449 -0.04471839 -0.071474366
000120 13 5d eb bd 15 c9 b3 3c 0c 0c 02 bc 3f 9c 8e bd
       -0.11492362 0.02194647 -0.0079374425 -0.06963395
000130 e3 c7 42 3d ec d8 6d 3d 68 a1 b8 bd 8d 1f ab 3c
       0.047553908 0.0580682 -0.09015161 0.020889068
000140 1f ba 96 3d ff 30 52 3c 78 59 d2 bb d5 9a 4a 3d
       0.073597185 0.012829064 -0.006419357 0.049464066
000150 3a 58 b6 3c fb 6f 64 bd f7 54 dd bc 21 fc d6 bc
       0.022258867 -0.055770855 -0.027018053 -0.026243271
000160 8b a5 01 3d 57 78 74 bb 86 d7 e6 bd 15 72 25 bd
       0.031652015 -0.0037303173 -0.112715766 -0.040392
000170 d3 f8 99 be fd 1e b9 bd 50 9f 09 3e a2 97 72 bd
       -0.3007265 -0.09039114 0.13439679 -0.05922664
000180 fa 1f 7f 3e 3f 54 35 3e 9a da 1f 3d b3 c6 d0 3c
       0.24914542 0.17707919 0.039026834 0.025485372
000190 72 a9 7d 3d cf 64 98 3b 58 a8 94 bc 06 20 a3 bd
       0.061929174 0.004650689 -0.018146679 -0.07965092
0001a0 ec 37 6c bd bd 7d 3c 3c 1e 27 aa 3c c9 ea 1f bd
       -0.05767052 0.011504588 0.020770606 -0.039042268
0001b0 a3 8e 0b 3d 4a 43 13 3d 9b 61 17 bd 10 55 82 bd
       0.034071576 0.035952844 -0.03695832 -0.06363881
0001c0 89 38 41 bd 92 a5 5d bd ca 9b 42 bd 78 42 a2 bd
       -0.047173057 -0.05411298 -0.047511853 -0.07922834
0001d0 49 ac 0f bd 56 6e 73 3c ce e8 8d 3c 10 57 08 3e
       -0.035076413 0.014857849 0.017322924 0.13314462
0001e0 51 0c 53 3d 60 c4 2e 3d a1 f4 a5 bc c4 f4 bf bc
       0.051525418 0.042667747 -0.02025825 -0.023432143
0001f0 9a 93 a4 3d 03 02 23 bd 4c a7 0a 3d 3e ed 68 3d
       0.08035965 -0.03979684 0.033850953 0.056866877
000200 57 43 c4 bd d8 04 ec bc cd 3e 85 bd e5 60 03 be
       -0.095831566 -0.028810903 -0.06506119 -0.12829931
000210 5a 36 2d bd 0a 57 ed bd 11 a3 18 be 93 4e ca bb
       -0.04228816 -0.11588867 -0.14905955 -0.0061739176
000220 59 4d f4 bc 2e fd b7 3c 78 5e 5f bd 43 ed d7 bd
       -0.029822038 0.022459593 -0.05453345 -0.10543301
000230 79 d1 90 bd 8f 21 7a bc 60 41 5d 3d 1b 10 a9 bd
       -0.07071204 -0.01526679 0.054017425 -0.08255025
000240 6b 5c 0f 3e 54 16 9e 3d 08 f6 2d 3d f4 f5 10 3d
       0.14000098 0.077191025 0.04247096 0.03539081
000250 eb 24 e0 bc 16 53 55 bb 43 6a 9d 3b 63 6f a6 3d
       -0.027361354 -0.0032550744 0.004803927 0.08126714
000260 09 2d 89 3d af e9 7c 3c b0 c7 d0 3a 99 b4 62 bd
       0.06698043 0.015436574 0.0015928652 -0.055348013
000270 cf b0 25 be d9 5c 39 bd 9d db b7 bd e4 bf f1 3d
       -0.16180728 -0.045254562 -0.08977435 0.11804178
000280 ba 5b 2f 3e f0 95 2e 3d 69 55 84 3d 8b 62 46 bc
       0.17124835 0.04262346 0.06461603 -0.012108455
000290 9e 76 ed 3d 6a d5 cd bc 50 af f3 bd 4f cf 45 3d
       0.1159489 -0.025126178 -0.118986726 0.048293408
0002a0 7c 63 73 bd b9 0a 62 bd 68 9a e3 3c 73 2a 3d 3d
       -0.059421048 -0.055186007 0.027783588 0.04618306
0002b0 86 d5 55 3d bb de 0f 3e dc 0e a8 3d c1 e7 05 bb
       0.052205585 0.14049809 0.08205959 -0.0020432326
0002c0 a2 af 8d ba 32 1d e2 bc 73 15 e9 bd 30 df 36 be
       -0.0010809789 -0.027601812 -0.11381044 -0.17858577
0002d0 ee bb 94 3d dc a0 55 3d f6 2e 84 3d eb c3 14 3d
       0.07262407 0.05215536 0.064542696 0.036319654
0002e0 09 6d 43 bd 03 a8 a4 3d cf 80 35 3d 7f d9 18 bd
       -0.047711406 0.08039858 0.044312295 -0.037316795
0002f0 4a f8 9b bd 72 6f 0d bd 27 64 68 3d e9 ca 4b bd
       -0.07615717 -0.03453011 0.056736138 -0.049754057
000300 cc cd 8f 3c ed 9b 8b bc 18 92 b9 3d 44 e6 60 3d
       0.017554186 -0.017042125 0.09061068 0.0549071
000310 58 d3 73 bd 0d 88 50 3d fd cd d4 3d 07 c8 b1 3d
       -0.059527725 0.050910998 0.10390852 0.0868073
000320 59 1a e1 bc 4d 91 6d 3d 32 07 96 3d b2 ef 1d be
       -0.027478384 0.057999898 0.07325591 -0.15423468
000330 3d c7 f2 3d 7f 34 77 3d e1 5a f0 bc 96 4e ea bc
       0.11854408 0.0603528 -0.02934021 -0.028601926
000340 c3 7f 05 bd 50 a5 1d 3d a2 25 29 bd 9a b1 9c bd
       -0.032592546 0.038487732 -0.041295655 -0.07651062
000350 e6 06 82 bd ac 1b 80 3d f9 95 db b9 91 bc 82 bc
       -0.06348972 0.06255278 -0.00041882673 -0.015959056
000360 77 01 ac b9 a5 35 c2 bb 29 05 67 bd 4f 7a e9 bb
       -0.00032807488 -0.005926805 -0.056401405 -0.007125176
000370 8a 77 79 bd ef 53 96 bc 6f e9 b1 3c 1b 08 f7 3c
       -0.060905017 -0.01835057 0.021717755 0.030155232
000380 b6 4f 9b bd d5 86 2e 3e f0 bb a6 bb 04 e7 6e 3c
       -0.07583563 0.17043622 -0.005088322 0.014581446
000390 fa 1b d9 bd bf 44 3c bd 0a 81 83 bd 95 2f 00 3e
       -0.10601039 -0.045964 -0.064210966 0.12518151
0003a0 66 ce 90 3d 19 31 5d bd 48 6d b1 bd 54 7f 23 bc
       0.070706174 -0.0540019 -0.08663422 -0.009979088
0003b0 1d d3 b6 3d 5e e8 bd bd d2 65 c5 bc d3 12 24 3c
       0.089269854 -0.09272836 -0.024096403 0.010014254
0003c0 52 27 28 bd a3 dc f2 3c 7e fe 74 3d 6f 86 4a 3d
       -0.041053124 0.029646223 0.059813015 0.049444612
0003d0 a4 17 27 bd be bc 81 bd 23 62 b9 3d 6d f8 7c 3d
       -0.04079403 -0.06334828 0.09051921 0.061760355
0003e0 bd 19 97 3c 21 15 b1 3d bd 96 0b 3e 96 94 03 3e
       0.01844489 0.08646608 0.13631721 0.1284965
0003f0 e7 ef 10 be e4 84 60 bd 22 54 8b bc f7 43 7b be
       -0.14154015 -0.054814234 -0.017007891 -0.24537645
