onnx2ncnn/pnet.onnx (onnx, 28155 bytes, 13 tensors)

conv4_1.bias f4 [2]
0	0xbebddf2e	-0.37084335
1	0x3f14d39d	0.58135396

conv4_1.weight f4 [2, 32, 1, 1]
0	0xbc89d29d	-0.016824061
1	0xbdf80800	-0.12110901
2	0xbe14e640	-0.14540958
3	0x3d30e1e4	0.043184176
4	0x3e1c192f	0.15243982
5	0x3e944301	0.2895737
6	0xbbba9340	-0.005693823
7	0x3d7b724b	0.061388295
8	0xbe0ebf8e	-0.1394026
9	0xbe1fa88a	-0.15591636
10	0xbdf2a5a5	-0.118480004
11	0x3e7bd12e	0.24591514
12	0xbe8faef3	-0.28063163
13	0x3e318aff	0.17338179
14	0xbd125024	-0.03572096
15	0xbe4f4bb6	-0.20243725
16	0xbe1da8d5	-0.15396436
17	0x3e77ee67	0.24212037
18	0xbe55ce66	-0.20879516
19	0x3e55ba6c	0.20871896
20	0x3e9522dd	0.2912816
21	0x3d85b4ac	0.06528601
22	0x3dec8e55	0.11550585
23	0xbce388e9	-0.027775245
24	0xbe5b9d12	-0.21446636
25	0xbe752809	-0.23941053
26	0xbe281738	-0.16415107
27	0xbe3e3b99	-0.18577422
28	0x3caf231d	0.021379048
29	0xbe7870e8	-0.2426182
30	0x3dd03edd	0.1016824
31	0x3e2ed175	0.17072089
32	0x3dc8446d	0.09778676
33	0x3e024456	0.1272138
34	0x3da3618f	0.07977592
35	0x3ce9ce6f	0.028540818
36	0xbe46f30f	-0.19428657
37	0xbd720097	-0.059082594
38	0xbe92275b	-0.2854565
39	0x3d90e39f	0.07074665
40	0x3ddb3dc8	0.10705143
41	0x3de73c36	0.11290781
42	0x3e1e8da4	0.15483719
43	0xbd0d4f93	-0.034499716
44	0x3dd42ee2	0.10360505
45	0xbdc68282	-0.09692861
46	0x3e70c4ec	0.2351262
47	0x3e2c1932	0.16806486
48	0xbdba802d	-0.09106479
49	0xbccc19ba	-0.024914611
50	0x3e0366f5	0.12832244
51	0x3d1216b0	0.035666168
52	0xbaec75a1	-0.0018040427
53	0xbe847b27	-0.25875208
54	0x3e045f41	0.12926961
55	0x3eaa3b0a	0.33248168
56	0x3e0f90e0	0.14020109
57	0x3e9510b1	0.29114297
58	0x3da5b0c4	0.08090356
59	0x3dd19e0d	0.10235224
60	0x3e29cf38	0.16582954
61	0x3eab7392	0.3348661
62	0xbe1224ab	-0.142718
63	0xbc83337a	-0.016015757

conv4_2.bias f4 [4]
0	0xbdb633f5	-0.08896629
1	0xbdc06454	-0.09394136
2	0xbb175cec	-0.0023096157
3	0x3d373126	0.044724606

conv4_2.weight f4 [4, 32, 1, 1]
0	0x3d26ad8c	0.04069285
1	0x3b1c51ea	0.0023852536
2	0x3b398cf6	0.002831278
3	0xbc5e8d81	-0.013583542
4	0xb9471824	-0.00018987112
5	0xbb8da64f	-0.004322804
6	0xba99ebc1	-0.0011743234
7	0x3d8dccf8	0.0692386
8	0x3ac983c3	0.0015374351
9	0xbb6fdd88	-0.0036600549
10	0xbbbfc716	-0.0058525903
11	0xbc8ab67f	-0.016932724
12	0x3969fd60	0.00022315001
13	0x3a4f815d	0.00079157
14	0xbbb3452b	-0.005470892
15	0xbaa1ed5b	-0.0012354063
16	0xbc8585e4	-0.016299196
17	0xba8c748e	-0.0010715888
18	0x3b34d11b	0.0027590457
19	0xbafa3db8	-0.001909188
20	0xbaef69db	-0.00182658
21	0xbb9f005e	-0.0048523387
22	0x3c329fb4	0.010902334
23	0x3a9b120c	0.001183094
24	0x396ac04b	0.00022387614
25	0xbb325d3a	-0.0027216212
26	0x3a9288e0	0.0011179708
27	0xb9168f13	-0.00014358414
28	0x3e20549f	0.1565728
29	0x3ab8a44b	0.0014087049
30	0x3a8a8387	0.0010567763
31	0x3a3cd610	0.00072035287
32	0xbe450815	-0.19241364
33	0x3b537021	0.003226288
34	0x3b76f4a0	0.003768243
35	0x3c7f80ce	0.015594674
36	0xbb135428	-0.002248058
37	0xbbd40a45	-0.006470951
38	0xbae7dbfc	-0.0017689462
39	0x3d059e8d	0.03262191
40	0x3ab34e04	0.0013679867
41	0xb89bd9e3	-7.4315605e-05
42	0xba0cbd39	-0.00053687725
43	0x39914ecb	0.0002771526
44	0xbb5b816c	-0.003349389
45	0xba3dd5e8	-0.00072416523
46	0xbb09f3a5	-0.0021049764
47	0xbaac4780	-0.0013143867
48	0xbd2fc1de	-0.042909496
49	0xbba42caa	-0.005010207
50	0x3b6b7ba9	0.0035931861
51	0xbb134121	-0.002246924
52	0xbab13355	-0.0013519326
53	0xbb8c24af	-0.004276834
54	0x3d64fc54	0.0559047
55	0x3c10cfa2	0.008838566
56	0x3ac6b5bf	0.0015160366
57	0x3af7ffc0	0.0018920824
58	0x3ae24d62	0.0017265494
59	0xbb3f759b	-0.0029214385
60	0x3e15414e	0.14575693
61	0x3b742b5d	0.0037257292
62	0xbb19d1ba	-0.0023470954
63	0xbc07007e	-0.008239863
64	0xbce2983f	-0.027660487
65	0xba79bdc3	-0.0009526873
66	0xbb5c377d	-0.003360241
67	0xbd4252b6	-0.04744216
68	0x38ba9f79	8.898875e-05
69	0x3b5b352d	0.0033448443
70	0x3b708b0f	0.003670398
71	0x3be4f548	0.0069872476
72	0x3b5181df	0.0031968278
73	0x3b160c65	0.0022895571
74	0xba7948d4	-0.00095094484
75	0xba24b437	-0.00062829576
76	0x39d794e8	0.0004111894
77	0x3ae233a2	0.0017257819
78	0x3affa24d	0.0019503325
79	0x3b3a0246	0.0028382703
80	0x3c7897a9	0.015172877
81	0x3acd9c25	0.0015686793
82	0xbb1f9273	-0.0024348765
83	0x3abae64d	0.0014259309
84	0x394aed07	0.00019352521
85	0x3be62678	0.007023629
86	0xbc566d1b	-0.013087536
87	0xba5f9e4d	-0.00085303636
88	0xb994be65	-0.00028370615
89	0x3b8913f3	0.0041832863
90	0xbb32a2e3	-0.0027257733
91	0xbb5b9076	-0.0033502853
92	0xbc9113f3	-0.017709708
93	0xba8a37e8	-0.0010545226
94	0x3935806b	0.00017309345
95	0x3d1b3de1	0.03790081
96	0xbd3d2dfc	-0.046186432
97	0xbb750610	-0.0037387647
98	0xbb354937	-0.0027662048
99	0xbcab1c42	-0.020887498
100	0xba634513	-0.00086696557
101	0x3ab20300	0.0013581216
102	0x3bfe4c1e	0.0077605387
103	0xbd096293	-0.033541273
104	0x3b430d8b	0.002976271
105	0x3b8dc673	0.0043266355
106	0x3b4a7807	0.0030894296
107	0x3c41a774	0.011819709
108	0x3a7c1e39	0.00096175406
109	0x3aa09b38	0.001225329
110	0x3bd635e5	0.0065371864
111	0x3a8b84b4	0.0010644407
112	0xbd080d04	-0.033215538
113	0xbb06d3f1	-0.0020573104
114	0xbb242335	-0.00250454
115	0x3aa9f79b	0.0012967469
116	0x3b088fb8	0.0020837616
117	0x3c8807db	0.016605308
118	0x3d69bca7	0.05706468
119	0x3abbb104	0.0014319723
120	0xbaf96d8f	-0.0019029843
121	0x3ba7d54e	0.0051218634
122	0xbba61970	-0.0050689504
123	0x3a80a553	0.0009814895
124	0xbd9716b2	-0.07377376
125	0xba02be08	-0.00049874233
126	0x3b1af5ac	0.0023644967
127	0x3cb8079b	0.022464564

features.conv1.bias f4 [10]
0	0xbbac7777	-0.0052632648
1	0xbedeaa97	-0.43489525
2	0x3b1c6378	0.0023863
3	0x3d52ab70	0.051433027
4	0x3c914827	0.0177346
5	0xbd4275e8	-0.047475725
6	0xbfa75988	-1.3074198
7	0x3bbfaf36	0.005849744
8	0x3f4c6b3d	0.7985113
9	0xbd0a26f8	-0.03372857

features.conv1.weight f4 [10, 3, 3, 3]
0	0xbe32cbb4	-0.17460519
1	0xbed0e737	-0.40801403
2	0xbeec3ba4	-0.46139252
3	0x3f08559a	0.5325562
4	0x3f2b38f1	0.6688376
5	0x3ed8d3d0	0.423491
6	0xbeb06e33	-0.34459075
7	0xbd9b958b	-0.075968824
8	0xbe19c922	-0.15018132
9	0xbbd63583	-0.006537141
10	0xbe85e395	-0.26150194
11	0xbdc27774	-0.0949544
12	0x3e99057b	0.29886994
13	0x3efed7ce	0.4977402
14	0x3f098013	0.5371105
15	0xbe4c912f	-0.19977258
16	0xbf0e5bde	-0.5560893
17	0xbe0e191e	-0.13876769
18	0xbd21dcea	-0.03951732
19	0xbdd947e3	-0.106094144
20	0xbdab09f6	-0.08351509
21	0x3dd51c55	0.104057945
22	0x3f1f3fa2	0.6220647
23	0x3e85dc02	0.26144415
24	0xbe2a8955	-0.1665395
25	0xbebd9e9e	-0.37035078
26	0xbe828c3e	-0.2549762
27	0xbe592741	-0.2120638
28	0x3d9b2051	0.07574523
29	0x3d9f9aa8	0.0779317
30	0x3ed52cf9	0.41635874
31	0x3e5ae7ea	0.2137753
32	0xbe206c88	-0.15666401
33	0x3e7e8aae	0.2485759
34	0xbeb819a9	-0.35957077
35	0xbe80cfb5	-0.25158468
36	0xbc93271f	-0.01796299
37	0x3f1422b5	0.5786546
38	0xbd73d467	-0.059528735
39	0x3e143948	0.14474976
40	0x3e4dbc19	0.20091285
41	0xbf0a4f9d	-0.5402773
42	0x3e1f9acf	0.15586399
43	0xbea5cd77	-0.3238332
44	0xbf5bb831	-0.8582793
45	0x3ed50287	0.4160349
46	0x3c27c64b	0.010240148
47	0xbe0eca85	-0.13944443
48	0xbdaa4c6e	-0.08315359
49	0xbda31b51	-0.079641946
50	0xbe148190	-0.14502549
51	0xbe3ff43a	-0.18745509
52	0x3c9dcec6	0.019263636
53	0x3e7179bf	0.23581599
54	0x3e9af369	0.30263832
55	0xbef1411f	-0.47119996
56	0xbfa5dd1d	-1.2958103
57	0x3eb0f1c9	0.34559467
58	0x3e8a0f6d	0.26964894
59	0xbed35a16	-0.41279668
60	0x3e726b52	0.23673752
61	0x3f06397f	0.5243148
62	0x3ec5c619	0.386277
63	0x3e1980b0	0.14990497
64	0x3d5675c2	0.052358396
65	0xbdc3608a	-0.09539898
66	0x3e89dd99	0.26926878
67	0xbcf02264	-0.029313274
68	0xbe4e581d	-0.201508
69	0xbd447aa4	-0.04796852
70	0x3e289681	0.16463663
71	0xbe269b85	-0.16270263
72	0xbe89f96e	-0.26948112
73	0xbda1472a	-0.078749016
74	0x3f155bde	0.58343303
75	0xbd9f82e3	-0.077886365
76	0xbe168e4a	-0.14702716
77	0xbe3f3e28	-0.18676054
78	0x3e4f70ed	0.20257922
79	0x3d7fabeb	0.062419813
80	0xbe6048ba	-0.21902743
81	0xbf57bcaf	-0.84272283
82	0xbf68e100	-0.9096832
83	0xbf1cf9e9	-0.6131883
84	0xbe714ad0	-0.23563695
85	0x3cd73cd3	0.02627412
86	0x3df54554	0.11976114
87	0x3f2f14b3	0.6839096
88	0x3f615048	0.88013124
89	0x3f64797a	0.8924786
90	0xbc8ac580	-0.016939878
91	0xbc8c2065	-0.01710529
92	0xbd205083	-0.039139282
93	0x3dcf4356	0.10120265
94	0x3d59ea08	0.053201705
95	0x3e30ef5d	0.1727881
96	0xbe86f46b	-0.2635835
97	0x3e1d0bdc	0.15336555
98	0xbc900ad2	-0.017583285
99	0x3cdc2740	0.026874185
100	0xbd0b3879	-0.033989403
101	0x3e04f080	0.12982368
102	0xbd8e0ff9	-0.0693664
103	0x3e0c0c9b	0.13676684
104	0x3df8fb81	0.121573456
105	0xbb92bf63	-0.0044783815
106	0xbd86aca2	-0.06575896
107	0xbe9896ef	-0.29802653
108	0x3f60a00c	0.8774421
109	0x3eb362b4	0.35036242
110	0xbf25baa0	-0.6473789
111	0x3f4ca02c	0.799319
112	0xbf46fc09	-0.77728325
113	0xbe9fbf91	-0.3120084
114	0x3f0171f4	0.50564504
115	0xbf23c0a2	-0.6396581
116	0xbebf7207	-0.37391683
117	0xbe5a316a	-0.21307912
118	0x3ee7f385	0.45302978
119	0x3d537e13	0.051633906
120	0xbe04611a	-0.12927666
121	0xbe83b83d	-0.257265
122	0x3f1dc501	0.6162873
123	0xbf1f8dc6	-0.62325704
124	0xbf1904d5	-0.59773
125	0xbe670e56	-0.22564062
126	0xbf5b2101	-0.85597235
127	0xbe91fe48	-0.28514314
128	0xbe51839f	-0.20460366
129	0xbeaa6983	-0.33283624
130	0x3e8cfd5f	0.27537057
131	0x3f518a9a	0.81852114
132	0x3e5f80ea	0.2182652
133	0x3f44762a	0.76742804
134	0x3f3d5957	0.73964447
135	0xbf356fa1	-0.7087346
136	0x3f910701	1.1330262
137	0xbee26aec	-0.442222
138	0xbef3d61b	-0.47624287
139	0x3f874b53	1.0569862
140	0xbf1a9bbb	-0.60393876
141	0xbc69e972	-0.014276849
142	0x3ea55ba5	0.32296482
143	0xbe288b01	-0.16459276
144	0xbc602e01	-0.013682843
145	0x3f442226	0.76614606
146	0xbea8b0bb	-0.32947335
147	0xbecf4b6e	-0.40487236
148	0x3ecc3c45	0.39889732
149	0xbee69323	-0.4503413
150	0xbde1727a	-0.11008163
151	0x3e44704a	0.1918346
152	0xbe5d710f	-0.2162516
153	0xbe57c15e	-0.21069857
154	0x3c3f7650	0.011685923
155	0xbd4ac0c7	-0.049500253
156	0xbe20a6a0	-0.15688562
157	0x3e782342	0.242322
158	0x3ccd2fbc	0.025047176
159	0xbd0fcd4d	-0.0351079
160	0x3e437543	0.190877
161	0xbc0b751b	-0.008511807
162	0xbf089e87	-0.53366894
163	0xbe8a7153	-0.27039585
164	0xbed21ad8	-0.41036105
165	0x3e5b786f	0.2143266
166	0xbdf6070c	-0.12013063
167	0xbe6eb201	-0.2331009
168	0xbc97e93e	-0.018543836
169	0xbf4a14d1	-0.78938013
170	0xbf488b9c	-0.78338027
171	0x3db3f5b1	0.08787096
172	0x3ea6dbc4	0.32589543
173	0x3eaadaea	0.33370143
174	0xbeecb821	-0.4623423
175	0x3e1e51b5	0.15460856
176	0x3e55eec5	0.20891865
177	0xbdc4336c	-0.095801204
178	0x3eb2cd21	0.34922126
179	0x3ebb16cb	0.36540827
180	0x3c8f4dca	0.017493147
181	0x3d7f3f17	0.062316027
182	0x3daef036	0.0854191
183	0xbc454896	-0.012041232
184	0xbdb38812	-0.08766188
185	0xbebccbd6	-0.36874264
186	0x3d70a6d7	0.05875286
187	0x3deddb2a	0.11614068
188	0xbdc6ee87	-0.09713464
189	0xbf1246f8	-0.5713954
190	0xbdc030dd	-0.0938432
191	0x3efbad1f	0.49155518
192	0xbeb3496b	-0.3501695
193	0x3d4baf70	0.049727857
194	0x3eb7decc	0.35912168
195	0xbd1f326c	-0.038866445
196	0xbbc87399	-0.006117296
197	0x3e17db93	0.14829855
198	0xbe8a01b0	-0.26954412
199	0xba7df48f	-0.0009687626
200	0x3e5df63d	0.21675964
201	0xbe96617d	-0.29371253
202	0x3d931282	0.071812645
203	0x3eb4e918	0.35334086
204	0xbec9e570	-0.3943286
205	0x3e51038a	0.20411506
206	0x3e8fc5cd	0.28080598
207	0x3cb93ea2	0.022612873
208	0xbd415476	-0.04719969
209	0x3d062060	0.03274572
210	0xbeaf2c66	-0.3421356
211	0x3cafba3c	0.021451108
212	0x3e37f8dc	0.17966026
213	0xbe554dc6	-0.2083045
214	0x3e113f9c	0.14184421
215	0x3d9f3da7	0.07775431
216	0xbec4fee6	-0.38475722
217	0xbf7d731e	-0.9900378
218	0xbea154a6	-0.31509894
219	0xbe9c52bd	-0.30531874
220	0xbf1e3bae	-0.61809814
221	0xbcf7a0d0	-0.030228049
222	0xbdd894f6	-0.10575287
223	0xbcd64c89	-0.026159542
224	0x3eb43d77	0.35203144
225	0x3f152450	0.58258533
226	0x3f7caaf7	0.9869837
227	0x3ef702e8	0.48244405
228	0x3f22df08	0.6362157
229	0x3f92f493	1.1480888
230	0x3ebb4b6d	0.36580983
231	0x3e3b9487	0.18318377
232	0x3ebb0f91	0.36535314
233	0xbec24c4c	-0.37948835
234	0xbd13ad85	-0.036054153
235	0x3db038da	0.086045936
236	0xbd9e0942	-0.077166095
237	0xbe93334b	-0.2875007
238	0xbf05e520	-0.5230274
239	0xbe992d6d	-0.2991747
240	0xbd8f7987	-0.070056014
241	0xbeafb316	-0.3431632
242	0x3d76715a	0.060166694
243	0xbe52a07b	-0.20569031
244	0x3fb73793	1.4313835
245	0x3f6f9e54	0.93600965
246	0xbf8f88ce	-1.1213624
247	0x3ec4275a	0.38311273
248	0x3faece9c	1.3656802
249	0xbfb6ab2e	-1.427099
250	0xbfa3809d	-1.2773625
251	0xbd0e76db	-0.03478132
252	0x3e3296a5	0.17440279
253	0xbf14ef3a	-0.5817753
254	0xbf84e055	-1.0380961
255	0x3ed60995	0.41804186

features.conv2.bias f4 [16]
0	0xc0065952	-2.0992017
1	0x3f1e1916	0.6175703
2	0x3f274bd7	0.653501
3	0x3f84eedb	1.0385393
4	0x3f2c12cb	0.67216176
5	0x3f97dacc	1.1863647
6	0x3f45a8d1	0.7721072
7	0x3f389c75	0.72113734
8	0x3f9d742d	1.2301079
9	0x3fadbb75	1.3572832
10	0x3fa57fc9	1.2929622
11	0xbfd17aa5	-1.6365553
12	0xbd93531d	-0.07193587
13	0x3f6b767b	0.9197766
14	0x40020ee0	2.032158
15	0x3ecf930b	0.40541872

features.conv2.weight f4 [16, 10, 3, 3]
0	0x3ed5902a	0.4171155
1	0xbdf0e146	-0.117617175
2	0x3e03df6d	0.12878199
3	0x3e4dcce8	0.20097697
4	0xbe8f8549	-0.28031376
5	0x3de3ee30	0.11129415
6	0xbdf2022e	-0.11816822
7	0xbed50293	-0.41603526
8	0x3da98483	0.08277228
9	0xbd884fa7	-0.066558175
10	0x399ae8f4	0.00029546733
11	0x3e0dbae0	0.13840818
12	0x3ef3415f	0.47510812
13	0xbcc7b685	-0.024379024
14	0xbe3f66c7	-0.1869155
15	0x3ec38212	0.38185173
16	0x3e5d0cc8	0.21586907
17	0xbe58fed8	-0.21190965
18	0xbe1205af	-0.1425998
19	0xbe33e10c	-0.17566317
20	0xbe889eb1	-0.26683572
21	0xbe9a47b0	-0.30132818
22	0xbdf371fa	-0.11886974
23	0xbc5d7c0d	-0.013518346
24	0xbea5c0f7	-0.32373783
25	0x3e21a38c	0.15785044
26	0x3ee33b20	0.44381046
27	0x3df90e0f	0.121608846
28	0xbe0e83c3	-0.1391745
29	0x3e539df7	0.20665728
30	0x3ebc4fe9	0.36779717
31	0xbe9bee75	-0.30455366
32	0x3cdca306	0.026933204
33	0x3e0434ad	0.12910719
34	0x3c84da5a	0.0162174
35	0xbe8b44c3	-0.272009
36	0x3e5ad3ea	0.21369901
37	0x3ee7cf08	0.4527514
38	0x3e44140e	0.19148275
39	0x3eadda22	0.33955485
40	0x3ee440b4	0.44580615
41	0x3e8f906b	0.2803987
42	0x3e9bee83	0.30455408
43	0x3eb9d5eb	0.3629602
44	0x3e020950	0.12698865
45	0xbcab8f78	-0.020942435
46	0x3e95bda7	0.29246256
47	0x3e1a5f9b	0.15075533
48	0x3c0812c2	0.008305253
49	0x3e424295	0.18970712
50	0x3e4e6982	0.20157436
51	0x3e28c072	0.16479662
52	0x3ec85b89	0.39132336
53	0x3e4eaedf	0.20183896
54	0x3e7ec72a	0.24880663
55	0x3ee78fdb	0.4522694
56	0xbd2dd35b	-0.042437892
57	0x3d7aff42	0.06127859
58	0x3f13fdf4	0.57809377
59	0x3e516911	0.20450236
60	0xbec7751f	-0.38956544
61	0xbdcddce4	-0.10051897
62	0xbe823730	-0.2543273
63	0xbe80a7af	-0.25127932
64	0x3d6d48c6	0.05793073
65	0xbd9a1892	-0.07524218
66	0xbe544612	-0.20729855
67	0xbc3a7684	-0.011380795
68	0xbd08e9a4	-0.033425942
69	0x3d151fcb	0.036407273
70	0xbe80f57d	-0.25187293
71	0xbe8622bb	-0.26198372
72	0xbebf7abd	-0.3739833
73	0x3f2ea27b	0.68216676
74	0xbd0b64db	-0.03403173
75	0xbd29c03e	-0.041443102
76	0x3f16f18d	0.5896233
77	0x3ec5e32f	0.3864989
78	0xbe52fb24	-0.20603615
79	0x3f050fb6	0.519771
80	0x3e9ea599	0.30985716
81	0x3e8e7295	0.27821794
82	0x3f0bf185	0.54665405
83	0x3f57ee9f	0.8434848
84	0xbd8ca6fa	-0.06867786
85	0x3ee4aa3c	0.4466113
86	0x3f45108d	0.7697838
87	0x3f2a14a6	0.66437757
88	0x3efa47c8	0.4888289
89	0x3f099866	0.53748167
90	0xbd8c7b13	-0.06859412
91	0x3e12e6bf	0.14345835
92	0xbe74169f	-0.23836754
93	0xbdae3f16	-0.085081264
94	0xbd830f67	-0.06399422
95	0xbd912922	-0.070879236
96	0x3e0bae61	0.13640739
97	0xbddf8964	-0.10914877
98	0x3d1c8864	0.03821601
99	0x3eb0c74b	0.34527048
100	0xbed0d94c	-0.40790784
101	0xbf9ad369	-1.2095767
102	0x3efcd244	0.4937917
103	0x3d0ebc66	0.03484764
104	0xbf35787f	-0.7088699
105	0x3e81bfce	0.25341648
106	0xbe0fe0f7	-0.14050661
107	0x3e4c0cee	0.19926807
108	0xbfae6695	-1.3625056
109	0xbceed208	-0.029152885
110	0x4010b8d3	2.2612808
111	0xbd21b922	-0.039483197
112	0x3edaeed9	0.4276035
113	0x3e287b8b	0.16453378
114	0xbd64ba00	-0.055841446
115	0x3ea627b7	0.32452175
116	0xbd4f789d	-0.050652135
117	0x3f65eda4	0.89815736
118	0x3ede2ba9	0.43392685
119	0xbf9addf0	-1.209898
120	0xbdf034c1	-0.11728812
121	0x3df9865c	0.1218383
122	0xbf1ac85f	-0.6046199
123	0x3da626f8	0.081129014
124	0x3e119f81	0.14221002
125	0x3e442729	0.19155563
126	0xbf4975a4	-0.7869513
127	0xbf0e47a5	-0.5557807
128	0xbe81d2ce	-0.25356144
129	0xbce23b19	-0.02761607
130	0xbc075fce	-0.008262588
131	0xbf0fc283	-0.56156176
132	0x3e8c0be7	0.2735283
133	0x3ec4e119	0.38452986
134	0xbec56ae3	-0.3855811
135	0xbf5f20c0	-0.8715935
136	0xbfbc817f	-1.4727019
137	0xbf013fcf	-0.5048799
138	0x3ded64f7	0.11591523
139	0xbe2027b4	-0.15640146
140	0xbe7c6f42	-0.24651816
141	0x3dd3f6de	0.103498206
142	0x3e190361	0.14942695
143	0x3e32c7e3	0.17459063
144	0xc00a208e	-2.158237
145	0xbfca929f	-1.5825995
146	0x3fdcb8be	1.7243879
147	0x3f13ab73	0.57683486
148	0x3e46ef79	0.19427289
149	0x3f491020	0.7854023
150	0x3ea363a2	0.3191195
151	0x3f221f71	0.63329226
152	0xbf16ec08	-0.58953905
153	0x3f14c0fa	0.5810696
154	0x3e5a0028	0.21289122
155	0x3f2954f3	0.6614525
156	0xbe81900d	-0.25305215
157	0x3d0db7dd	0.034599174
158	0x3edbee7c	0.42955387
159	0x3e68b445	0.22725017
160	0x3c364d9a	0.0111269
161	0xbcea27b6	-0.028583389
162	0x3ebc2e43	0.36754045
163	0xbf59af31	-0.85032946
164	0x3fa97a96	1.3240535
165	0xbf0751ac	-0.52858996
166	0xbf75ff39	-0.96092564
167	0xbf2366a7	-0.6382851
168	0x3eb86e73	0.36021766
169	0x3ec11c5b	0.37716946
170	0xbec5337f	-0.3851585
171	0xbca2b138	-0.019859895
172	0xbe5c58a9	-0.21518196
173	0x3d8931ae	0.06698929
174	0x3d4767c1	0.04868293
175	0xbf1deb09	-0.6168676
176	0xbeb2a6be	-0.3489284
177	0x3e9a7c35	0.30172887
178	0x3e62396b	0.22092216
179	0xbeb054f7	-0.34439823
180	0xbe8c0cfc	-0.27353656
181	0x3df6ddf4	0.12054053
182	0x3eadbda1	0.33933738
183	0xbea97758	-0.33098865
184	0xbdba64f4	-0.091012865
185	0x3e0538dc	0.13009971
186	0xbe437b85	-0.19090088
187	0x3dc72dda	0.09725542
188	0x3dde932a	0.10867913
189	0xbeaae5a5	-0.3337833
190	0x3c8665a7	0.016405893
191	0x3f3869f0	0.7203665
192	0xbf8e5f8b	-1.1122907
193	0x3e9f6591	0.31132177
194	0x3ec37e46	0.38182276
195	0xbf753e6c	-0.95798373
196	0xbeff0e75	-0.49815717
197	0x3f307919	0.6893478
198	0x3e923947	0.28559324
199	0xbddb5d60	-0.10711169
200	0xbf668f96	-0.90062845
201	0x3f8bb2c4	1.091393
202	0x3e6d1afb	0.23154823
203	0x3d9cbbb0	0.07652986
204	0x3f6217e0	0.8831768
205	0xbe6191df	-0.22028302
206	0xbf0d68ff	-0.55238336
207	0xbe68f27f	-0.22748755
208	0x3d9204a1	0.07129789
209	0x3e82b194	0.25526106
210	0xbeb0b417	-0.34512398
211	0xbe7dd8c3	-0.2478972
212	0x3c5457d5	0.012960394
213	0xbe185639	-0.14876641
214	0xbe0d290f	-0.13785194
215	0x3ef72a7a	0.48274595
216	0xbf0f6143	-0.56007785
217	0xbd06d623	-0.03291906
218	0xbc356b67	-0.01107297
219	0xbcfba1f4	-0.030716874
220	0xbe1fce33	-0.15606003
221	0x3e4c2e82	0.19939616
222	0x3f049a02	0.517975
223	0xbef6c97a	-0.4820059
224	0x3d261111	0.04054362
225	0x3cb2c136	0.021820646
226	0xbec70e11	-0.3887792
227	0xbeab6fd2	-0.3348375
228	0x3dc41a0e	0.09575282
229	0xbd8eb69a	-0.06968422
230	0xbe06b332	-0.13154295
231	0xbe6046a4	-0.21901947
232	0xbf2ea9fd	-0.6822813
233	0xbefc170f	-0.49236342
234	0xbf8f0bd6	-1.1175487
235	0xbe9547cc	-0.2915634
236	0xbea2bee1	-0.31786254
237	0xbde74003	-0.11291506
238	0xbefb2643	-0.4905263
239	0xbec5e74e	-0.38653034
240	0x40266a73	2.6002471
241	0x3f313460	0.6922054
242	0xbf37ca4d	-0.7179306
243	0x3efe5306	0.49672717
244	0x3d5e2ef1	0.054243986
245	0x3ec44034	0.38330233
246	0x3dfa08ff	0.12208747
247	0xbd780b9d	-0.06055795
248	0xbdef6a3e	-0.11690186
249	0x3ee6ad55	0.45054117
250	0x3d2c9a60	0.04213941
251	0x3df3d6e4	0.119062215
252	0xbce0e2e8	-0.027451947
253	0x3e003821	0.12521411
254	0xbf8969db	-1.073543
255	0xbd119ec9	-0.03555182

features.conv3.bias f4 [32]
0	0xc02db6ec	-2.7142897
1	0x3ee6a6d5	0.45049158
2	0xc061f3ba	-3.530501
3	0x3ff8569c	1.9401431
4	0x3f4c7604	0.7986758
5	0xc007561c	-2.1146307
6	0x3f040999	0.51577145
7	0x4017e2b1	2.3732111
8	0x3d7305ff	0.05933189
9	0x3f618fc5	0.8811
10	0x3ff44cff	1.9085997
11	0x3fc4cb27	1.5374497
12	0x3ea2f0fa	0.31824476
13	0xc01cd498	-2.4504757
14	0xbf02df56	-0.51122034
15	0x3efafc49	0.49020603
16	0xbddad760	-0.10685611
17	0x3ef64dbc	0.48106182
18	0x3e6218c8	0.22079766
19	0x3d6cf9fb	0.057855587
20	0xbf05b3d8	-0.52227545
21	0xbef5f12c	-0.48035562
22	0x3fe1b4e8	1.7633333
23	0x3f8b3035	1.0874087
24	0xbe8ffa74	-0.28120768
25	0xbd5d372d	-0.054007698
26	0x3f8e0e0e	1.1098039
27	0x3fc436fa	1.5329278
28	0xc0181f42	-2.3769078
29	0xbdfa7885	-0.122300185
30	0x4087ab7e	4.239684
31	0x402c6326	2.6935515

features.conv3.weight f4 [32, 16, 3, 3]
0	0xbd13263b	-0.03592513
1	0xbf13c929	-0.5772882
2	0xbe1c41c9	-0.1525947
3	0xb9297a96	-0.00016162763
4	0xbdaec103	-0.08532908
5	0x3e25e1ec	0.16199464
6	0xbdcec358	-0.100958526
7	0x3e0cc716	0.1374782
8	0xbdc48f21	-0.09597612
9	0xbeb4cb2f	-0.35311267
10	0xbefcb208	-0.49354577
11	0xbf1480c4	-0.5800898
12	0x3e55da80	0.20884132
13	0x3dd487cf	0.10377466
14	0x3e07c3c3	0.13258271
15	0xbe8498ef	-0.2589793
16	0xbc6198de	-0.0137693565
17	0xbe4f8ca7	-0.20268498
18	0xbea31622	-0.31852823
19	0xbe3282ca	-0.17432705
20	0x3ddc4887	0.10756021
21	0xbe4fa6d5	-0.20278485
22	0xbc26f82a	-0.010191003
23	0xbbd30be2	-0.0064406255
24	0xbcd064f1	-0.025438758
25	0xbd276fc2	-0.040878065
26	0xbeaedca8	-0.34152722
27	0x3eece085	0.46265045
28	0x3dad9da5	0.08477334
29	0x3e4b8509	0.19874968
30	0xbe7b5b71	-0.24546601
31	0x3da2be58	0.079464614
32	0x3ddec2f6	0.108770296
33	0xbf0f2c16	-0.55926645
34	0x3e5d99b3	0.21640663
35	0xbde7e8d8	-0.11323708
36	0x3eb2e24a	0.3493827
37	0xbe4cfdb6	-0.20018658
38	0x3debfd03	0.115228675
39	0x3e1b400c	0.1516115
40	0xbe6c0b25	-0.23051126
41	0xbe1a4579	-0.15065564
42	0x3e708f21	0.234921
43	0xbe8ed53f	-0.2789707
44	0x3b8b82e4	0.0042575467
45	0xbe887f7e	-0.2665977
46	0xbe3689d2	-0.17826012
47	0x3c851cbd	0.016249055
48	0xbe3777c7	-0.17916785
49	0xbe770c8c	-0.2412588
50	0xbe1f6335	-0.15565188
51	0x3d8519fc	0.06499097
52	0xbc932ad4	-0.017964758
53	0x3d78550a	0.060627975
54	0x3e954602	0.29154974
55	0x3de908ad	0.11378608
56	0x3dc00875	0.09376613
57	0xbc9e61ad	-0.019333685
58	0x3c8484bd	0.016176576
59	0xbd3118eb	-0.043236654
60	0xbdfc5158	-0.123202026
61	0xbe111654	-0.14168674
62	0xbebbd8ba	-0.36688787
63	0xbeb952a3	-0.3619586
64	0xbea6ae1b	-0.32554707
65	0xbe1955bf	-0.14974116
66	0xbdf4446b	-0.11927112
67	0xbc1f1d17	-0.009711525
68	0x3d8cd2af	0.06876122
69	0xbe09976d	-0.1343667
70	0xbd1ddd00	-0.03854084
71	0x3e28f42b	0.16499393
72	0x3ea21a2b	0.3166059
73	0xbc3fc01c	-0.011703517
74	0x3d82d811	0.06388868
75	0xbcc59560	-0.02411908
76	0xbecb276d	-0.39678517
77	0x3e1da82d	0.15396185
78	0x3e214989	0.15750708
79	0xbe348cee	-0.17631885
80	0x3e233ede	0.1594195
81	0x3be0362e	0.006842396
82	0x3e84c0e0	0.25928402
83	0xbe104de4	-0.14092213
84	0x3e0e0c02	0.13871768
85	0x3ebc368c	0.36760366
86	0xbe0aeab1	-0.1356609
87	0xbda2161f	-0.079143755
88	0xbe32926f	-0.17438672
89	0xbf0d3854	-0.55164075
90	0x3f509eb3	0.81492156
91	0x3e1e0b66	0.15434036
92	0xbe80753a	-0.25089437
93	0xbe37521f	-0.1790242
94	0xbeda483d	-0.42633238
95	0x3e04942a	0.12947145
96	0x3e1fc96a	0.15604177
97	0xbdc9737a	-0.098364785
98	0xbda9a25c	-0.08282921
99	0x3dbce332	0.092230216
100	0x3c012a6e	0.007883651
101	0x3d5247a5	0.051337857
102	0xbdcd1dd4	-0.10015455
103	0xbf0d8033	-0.5527374
104	0xbdbb0cd7	-0.091333084
105	0x3d2bf9a3	0.04198612
106	0x3cb370f5	0.021904448
107	0xbdb8a6e4	-0.09016207
108	0xbe2375dd	-0.1596293
109	0xbe8f8817	-0.28033516
110	0xbd8f63da	-0.07001467
111	0x3da2d074	0.079499155
112	0xbe008c9d	-0.1255364
113	0xbd8b21f7	-0.06793588
114	0xbd00fdc8	-0.031492025
115	0x3ca4b742	0.020106915
116	0x3cbe086f	0.02319738
117	0xbf0273e4	-0.50958085
118	0xbec23d99	-0.3793762
119	0xbe874f4e	-0.26427692
120	0xbf1b8242	-0.6074563
121	0xbf2f0c5b	-0.6837823
122	0xbe9e98c5	-0.3097593
123	0xbe3071d2	-0.17230919
124	0xbf2514cb	-0.6448485
125	0xbebeb7c5	-0.3724958
126	0x3d271236	0.04078885
127	0x3eeae01a	0.458741
128	0x3ec33e86	0.3813364
129	0x3db4f231	0.08835257
130	0x3e026fbe	0.12737939
131	0xbe6dd329	-0.23225082
132	0xbe906306	-0.2820055
133	0xbea2cdc5	-0.31797615
134	0x3d8acbf9	0.06777186
135	0xbe5e41c3	-0.21704774
136	0x3d896133	0.067079924
137	0xbd07f362	-0.033191092
138	0x3d6d6629	0.057958756
139	0x3e349097	0.17633282
140	0x3d58fc2b	0.05297486
141	0xbdaffb75	-0.085928835
142	0x3dac66d7	0.08418053
143	0x3d78839c	0.060672387
144	0xbe632081	-0.22180368
145	0x3e3754cd	0.17903443
146	0x3bef53c1	0.0073036854
147	0x3e2e39f2	0.17014292
148	0x3ea7397d	0.32661048
149	0xbde4b806	-0.11167912
150	0xbee6d244	-0.45082295
151	0xbed913e4	-0.42397988
152	0xbec34f37	-0.38146374
153	0x3f18a9ae	0.5963391
154	0x3e9b6a8c	0.30354726
155	0x3cec9047	0.02887739
156	0xbeb94a7e	-0.36189646
157	0x3e2951de	0.16535136
158	0x3f37fc72	0.71869576
159	0xbee99429	-0.4562085
160	0xbee3b96f	-0.44477412
161	0x3e97142a	0.2950757
162	0xbf1d7355	-0.6150411
163	0xbe796b28	-0.24357283
164	0x3dc408a3	0.0957196
165	0xbe52dcb4	-0.20592004
166	0xbed3c5fb	-0.41361985
167	0xbcf6e9c4	-0.030140765
168	0x3ec9c727	0.39409754
169	0xbef61409	-0.4806216
170	0xbed7c27e	-0.42140573
171	0x3ee036c0	0.4379177
172	0x3d763f0a	0.060118712
173	0x3f24e82c	0.64416766
174	0xbeb01ef6	-0.3439862
175	0xbf09705d	-0.5368708
176	0x3f1a84f0	0.60359097
177	0xbf439ffa	-0.7641598
178	0xbc747e6b	-0.0149227185
179	0x3e7150b4	0.23565942
180	0xbef0a3a2	-0.46999842
181	0x3e6ab3e7	0.2292019
182	0x3e4b71fc	0.198677
183	0xbf0c8c88	-0.54901934
184	0x3ead7fdf	0.3388662
185	0xbeb5c26b	-0.35499892
186	0xbec6e608	-0.38847375
187	0xbed36fe5	-0.41296306
188	0x3f1bd78c	0.60875773
189	0xbf81241e	-1.0089147
190	0xbe6f8163	-0.23389201
191	0xbe5a5895	-0.21322854
192	0x3f48625d	0.7827509
193	0x3d8db8f8	0.069200456
194	0xbeae0b53	-0.33993015
195	0x3f3e3a42	0.74307644
196	0xbe0fce74	-0.140436
197	0xbeec722d	-0.4618086
198	0xbe8e8a8a	-0.27840072
199	0x3d71c828	0.059028774
200	0x3d6ebfeb	0.058288496
201	0xbecef748	-0.40423036
202	0xbd9acd59	-0.07558698
203	0x3f0ba361	0.5454617
204	0xbf1fcdc2	-0.62423337
205	0xbeba5104	-0.36389935
206	0x3ec2f813	0.3807989
207	0x3eb8a712	0.36064965
208	0x3e046bed	0.12931795
209	0x3eb4b9bb	0.3529795
210	0xbf998c55	-1.1995951
211	0xbf5ace13	-0.85470694
212	0xbece2896	-0.4026534
213	0xbe8f4adf	-0.2798681
214	0x3e8d027e	0.27540964
215	0x3e87014c	0.26368177
216	0x3f0a65e0	0.540617
217	0xbe3b66ca	-0.1830093
218	0x3ed0900d	0.40734902
219	0xbf4ae855	-0.7926076
220	0xbf135e96	-0.575662
221	0xbe333aa0	-0.17502832
222	0x3f3d15c2	0.73861325
223	0x3faabe3b	1.3339304
224	0xbf15116b	-0.582297
225	0xbebc6d42	-0.36802107
226	0x3e306d39	0.17229165
227	0x3f1bdc0e	0.6088265
228	0xbe8c1f9b	-0.27367863
229	0x3ee37162	0.44422442
230	0xbd9124cf	-0.07087099
231	0xbf839be1	-1.0281945
232	0xbf22a6dc	-0.6353586
233	0xbe89ae1c	-0.26890647
234	0xbf3eac8e	-0.7448205
235	0x3f0299da	0.5101601
236	0xbeeec6fb	-0.46636185
237	0x3f017ba0	0.5057926
238	0x3ebb554b	0.3658851
239	0x3f02ade2	0.51046574
240	0xbf38fa3c	-0.7225683
241	0xbdd9103e	-0.10598801
242	0xbd222187	-0.039582755
243	0xbed1e25f	-0.4099302
244	0x3d8942ed	0.06702218
245	0xbe8ddbab	-0.27706656
246	0xbf05f3ce	-0.5232514
247	0x3ed8f2ef	0.42372844
248	0x3e43119c	0.19049686
249	0x3e8ad3bb	0.27114663
250	0xbf268d58	-0.65059423
251	0x3d305606	0.04305079
252	0x3d5cbaf1	0.05388922
253	0x3ea98d4c	0.33115613
254	0x3cdc87bf	0.026920198
255	0xbed836cc	-0.42229307

features.prelu1.weight f4 [10]
0	0xbf34ae80	-0.70578766
1	0x3f11b690	0.56919193
2	0x3e93cc4c	0.28866804
3	0xbedeaff4	-0.43493617
4	0xbe92c76e	-0.28667778
5	0xbf53df7f	-0.827629
6	0x3ee36b7c	0.44417942
7	0xbef3dea2	-0.47630793
8	0xbe967541	-0.29386333
9	0xbf0770ca	-0.5290648

features.prelu2.weight f4 [16]
0	0x3f4a5a52	0.7904407
1	0x3e29ae02	0.16570285
2	0x3ec0b11f	0.37635133
3	0x3e05eaa7	0.13077794
4	0x3d24ade0	0.040204883
5	0x3e18d0be	0.14923379
6	0xbddc7fab	-0.10766538
7	0xbdc2ce40	-0.09511995
8	0x3e0f2dd6	0.13982329
9	0x3d9ff8b9	0.07811112
10	0x3ec8e018	0.3923347
11	0xbdf2fc25	-0.11864499
12	0xbebe856f	-0.37211177
13	0x3e34675d	0.17617555
14	0x3e7a6e2f	0.24456094
15	0xbb5b7bd4	-0.0033490555

features.prelu3.weight f4 [32]
0	0xbd91593a	-0.07097097
1	0xbc2a1529	-0.010381022
2	0xbd35581a	-0.044273473
3	0x3d3dbf6d	0.046325136
4	0x3f4c569a	0.79819643
5	0x3b2ecd98	0.0026672836
6	0xbce07b99	-0.027402686
7	0x3e2f61f1	0.17127205
8	0xbd924c74	-0.071434885
9	0xbc31e530	-0.010857865
10	0xbdb77f57	-0.08959835
11	0xbaa4fea6	-0.0012588098
12	0xbc9783b4	-0.018495418
13	0xbcec1ce4	-0.02882237
14	0xbd30ef78	-0.043197125
15	0xbd0edd8c	-0.034879252
16	0xbf49d461	-0.7883969
17	0xbc686cee	-0.014186127
18	0xbcd24281	-0.025666477
19	0xbcfffd18	-0.031248614
20	0xbb838f74	-0.0040149037
21	0xbcbea64d	-0.023272658
22	0xbeab254d	-0.33426896
23	0xbd9fa9e0	-0.07796073
24	0xbcaadfd1	-0.020858677
25	0x3cc801b5	0.024414876
26	0xbd970b8b	-0.073752485
27	0xbc93c750	-0.018039376
28	0xbdd10642	-0.10206272
29	0xbc21b236	-0.009869149
30	0xbdd01f26	-0.10162191
31	0x3d78aea1	0.060713414
