onnx2ncnn/rnet.onnx (onnx, 239059 bytes, 16 tensors)

conv5_1.bias f4 [2]
00000000: 8831 683f 9433 5ebf
0.9070058 -0.8679745

conv5_1.weight f4 [2, 128]
00000000: 20fa 533d a07d 5e3d 2eb0 3a3c 3676 fbbd
00000010: ba0e a23c e3cc fd3c 3316 863c c86e a93c
00000020: 18b6 403c 272c 6b3d 572a 0f3e c993 0f3d
00000030: 3182 da3c 59e3 f8bb 23eb e7bd 7106 a73c
00000040: 32ee 983c 20ea 8abd f028 a1bc 7dc6 093d
00000050: b2aa 4c3d e1da 50bd 5a66 a5b9 9b37 30bc
00000060: 1864 3d3d d72c 3dbd ef46 7ebd 13dc 11bd
00000070: 4acb 81bd cb69 153d cb6c 923d 5bb3 5c3d
00000080: e45b ad3c a16b 0abe 869a 833c 9d79 033d
00000090: d90a 90ba 57a7 86bd e701 723d 9561 663d
000000a0: 6b68 893d 029a 36bd 0f5a a33d 30aa cdbb
000000b0: 45a5 073d 8099 13bd c827 3a3d bc36 f53b
000000c0: e2f9 913d 4826 c13c 14d4 0dbc e267 bb3c
000000d0: f604 f03c db81 073d 9a65 57bd 5c05 b8bd
000000e0: 9ecc 3d3c 42dd a8bd d97c febd 586f 42bd
000000f0: 9fb3 68be b56c 90bd a3ef 40be 8947 b33d
00000100: ceab 4d3d 7341 ec3c 74b4 363d 7231 4e3c
00000110: c2c3 1cbe 3429 acbd c933 0b3e da28 edbd
00000120: 9051 853c 8d15 b5bb 6f4e 363d 5f69 98bd
00000130: 4ef1 323c 34f0 983d b86a 203d e3d1 b93c
00000140: a6be b73c cb86 5abd 4425 86bd 2cea 323d
00000150: a883 1f3c 503f 243e b792 87bb 0f2b ab3c
00000160: 3e8b b83d 258a 4f3c 02a9 adbd 16da 023d
00000170: 6759 9bbc 31b8 753c 8ffd 603b e097 58bc
00000180: 45a0 963c 22fc 4f3c 5c9c e1bd f772 673c
00000190: 7d5a bd3b cd41 e2bd d881 bfbc 39aa 5f3d
000001a0: 2661 11bd bcac 45bd 4074 d53c a425 a0bd
000001b0: 8440 883b 36d9 243d d201 c73c 2dc4 77bd
000001c0: c434 a3bd 7de0 abbd 7d9a f5bc 91e3 00bd
000001d0: 1099 6abd b897 623b 2411 143d becd c3bb
000001e0: c989 323d e5d4 003d 7caa ae3d 07a9 393d
000001f0: 6345 10bd 97be a0b9 bad3 8fbd d48f fd3b
00000200: 69d6 63bd cda0 3d3d 7812 dc3c ce3f 123e
00000210: c3c1 6f3c e443 203b c850 283c b1dc 073e
00000220: f3ce 2abd fcbf 953c 7bf3 ae3c bca6 003e
00000230: 618d b7bc 5fa2 41bc b4e7 fa3d d41d 743c
00000240: 8c62 95bb 8f9b 8bbd 0d56 07be eb94 23be
00000250: 3110 773d abbd 52bd d19a d33b a78b 8d3d
00000260: c431 1a3d 9e89 55bd df06 80bd cf9d 833d
00000270: 4db6 87bd 691b cabd 27bf 16bd 8b82 663d
00000280: 1fd0 1a3d c656 243e 70d8 40b9 6230 f33c
00000290: f7da d0bc d752 8ebc a135 803c c162 16bd
000002a0: 30b6 943d 6d3c 84bd d733 ddbd 139e 7cbc
000002b0: acb8 58bd 6f69 05bd e9b6 073d 6ccf 49bc
000002c0: d648 493d f011 e1bd 72c5 aa3c ea05 bb3c
000002d0: 2746 273d a141 93bc 99f5 36bd 2469 f43d
000002e0: de1a 993d beb2 97bd ef19 233d 2a2c 70bd
000002f0: 79e7 933e 3aaa d63d 89f2 843d f97e 5abc
00000300: bd53 8bbd a557 723d cbc7 32bc f1a0 203c
00000310: 26fd 3c3d be39 423e b992 a8bc 7ba0 e13c
00000320: 0630 10bd 7ff4 a33d a196 6abc 89ae 99bd
00000330: b66c 093d 2504 503c b9e8 433d 814a 52bd
00000340: abbf b73c a6ad 55bd 0b16 163d ee87 1d3d
00000350: 2383 1f3c 81b5 15bd 95ca bfbb 912c 1abe
00000360: 7c0b aabc f656 fd3a 21dd 77bd 041d abbd
00000370: e085 eabc f960 043d a853 4ebd 136e 8abc
00000380: bfb1 23bd bea5 923b 3b79 af3d 3f63 673c
00000390: c02f 38bd e952 6b3d 6644 bfbc 5b21 4f3b
000003a0: 0070 59bd d156 4ebd 5faf 2b3a 1b14 063e
000003b0: 2797 bbbd bf30 bb3c 88de 103d a0d0 82bd
000003c0: b526 ec3d 3bf3 8cbd 8f84 5e3a d521 73bc
000003d0: fdf0 67bd ef75 7f3d 0bf6 e0bd 8148 12bd
000003e0: 0a22 00be 1d86 1b3d 447f 9c3d 4fcc 3ebd
000003f0: 5e62 1cbd bac0 a03d a78d 91bd c624 8abd
0.05175221 0.054319024 0.011394544 -0.12278406 0.019782413 0.030981487 0.016368007 0.020682707
0.0117621645 0.057415154 0.13980995 0.03505305 0.026673408 -0.0075954613 -0.11324146 0.020388814
0.018668268 -0.06782937 -0.01967284 0.03363656 0.049967475 -0.05098999 -0.0003154751 -0.010755445
0.046238035 -0.04618534 -0.062079366 -0.03561027 -0.063376024 0.036477845 0.07149657 0.053881984
0.02116198 -0.1351762 0.016064893 0.0320984 -0.0010989561 -0.06574886 0.059083845 0.056245405
0.06709369 -0.044580467 0.07976162 -0.0062763914 0.033116598 -0.03603506 0.045448095 0.0074833315
0.071277395 0.023577824 -0.00865652 0.022876684 0.02929924 0.033082824 -0.05258713 -0.08985397
0.011584429 -0.082453266 -0.124261566 -0.047469467 -0.2272477 -0.07051984 -0.18841414 0.087538786
0.050212674 0.028839802 0.044605687 0.012585031 -0.1530905 -0.08406296 0.13593973 -0.115800574
0.016274244 -0.0055262507 0.044508394 -0.07441973 0.010921789 0.0746769 0.039164275 0.02268309
0.022429775 -0.053351205 -0.065500766 0.043680355 0.009735979 0.16039777 -0.004137363 0.020894555
0.09010933 0.012667214 -0.08479501 0.031946264 -0.018963529 0.014997528 0.003433082 -0.013219804
0.01838697 0.0126943905 -0.11016151 0.014126531 0.0057786093 -0.11047707 -0.023377344 0.054605696
-0.03549304 -0.048260435 0.026056409 -0.078196794 0.0041580815 0.04024621 0.02429286 -0.060489822
-0.079690486 -0.08392427 -0.029980892 -0.031467024 -0.057274878 0.0034575295 0.03614916 -0.005975454
0.043588433 0.031453032 0.08528611 0.045327213 -0.035222422 -0.0003065958 -0.070228055 0.007738093
-0.0556244 0.04629593 0.026864275 0.14282152 0.014633599 0.0024454528 0.010273166 0.13267781
-0.04170127 0.018280022 0.021356335 0.12563604 -0.022406282 -0.011818497 0.12251225 0.01489969
-0.004558867 -0.0681678 -0.1321642 -0.15974776 0.060318176 -0.051450413 0.0064576645 0.06911402
0.037645116 -0.052133195 -0.062513106 0.06426584 -0.06626568 -0.09868509 -0.03680339 0.05627684
0.037796136 0.16048726 -0.00018391176 0.029686157 -0.025495036 -0.017373485 0.015650572 -0.036715273
0.07261312 -0.06456838 -0.10800903 -0.015418547 -0.05291049 -0.032571252 0.03313342 -0.01231752
0.049141727 -0.109897494 0.020846102 0.022829968 0.040838387 -0.01797563 -0.044667814 0.119341165
0.07475828 -0.07407139 0.039819654 -0.058635868 0.28887537 0.10481687 0.064915724 -0.013335937
-0.06803081 0.059165616 -0.010911892 0.009803996 0.04613986 0.1896734 -0.020577775 0.027542343
-0.03520205 0.08005618 -0.014318139 -0.07503993 0.03355094 0.012696301 0.047829363 -0.051340584
0.022430262 -0.052167557 0.036642116 0.03845971 0.009735855 -0.03655005 -0.005853007 -0.15056063
-0.02075743 0.0019328285 -0.06051362 -0.08355144 -0.02862829 0.032319043 -0.05037275 -0.01689819
-0.039964434 0.0044753244 0.08568045 0.014122783 -0.044967413 0.057452116 -0.023348045 0.0031605575
-0.053085327 -0.050375763 0.00065492647 0.13093607 -0.091596894 0.022850392 0.035368472 -0.06387448
0.1153082 -0.0688233 0.00084883807 -0.014839609 -0.05662631 0.06236833 -0.10984429 -0.035713676
-0.12512985 0.037969697 0.076414615 -0.046581563 -0.038179748 0.0784926 -0.07107096 -0.06745295

conv5_2.bias f4 [4]
00000000: fa15 af3d f57b 0fbd b3ec 26bd 8085 1a3d
0.085491136 -0.035030324 -0.040753078 0.03772497

conv5_2.weight f4 [4, 128]
00000000: 0a12 5d3c 5e0e 373b 382a b23b 280e bd39
00000010: 23ed 2e3b f571 013e bd04 0ebc 78e3 483b
00000020: c960 00bb 712f 8139 baa4 b2b8 048d b8bb
00000030: c857 72bb f5b9 f73a 6d6e 003b 6c4a 6bba
00000040: c154 0a3a 6d7b e5b8 7e38 a93d b996 99ba
00000050: e2c9 053b a7ba deba fc83 003c a2f7 093b
00000060: 47b2 4eba 4229 a8b9 4644 00b5 0f6e 243b
00000070: 01b4 92ba b84f f13b 6e6f a7b9 c12c e3ba
00000080: 88c8 bdba 22e7 7f3a 77a1 94bb 2bd9 9239
00000090: 296b 703c 0221 533c 0f2c 263c 54e7 38bb
000000a0: f014 50bc d745 94bb 640e bb3a d0ea 0c3a
000000b0: 30f7 113b 8300 1ebb 8d31 083b ecc1 4dbb
000000c0: 4be8 99b9 f0a3 35bb a814 273a d3cd f6b8
000000d0: 3424 88bc ca2b 00bd 51da 2f3b 3bd2 d03b
000000e0: 587f 023b c51c daba a11d 3a3b 848f a43a
000000f0: 324b 5d3a ffb7 5e3b 5823 5a3b dcd6 fa3b
00000100: 9d73 dc3b 18f0 883b 2266 9fbb 2b60 c2ba
00000110: 5656 a5b7 0d3e 0b37 cae3 e6bd d0ce 143b
00000120: e2fb 01bc b68a a6b9 f2db 0fbb 6612 393c
00000130: 3b19 53bc 6b1b b2bc ccfc 7f39 ff62 9dbb
00000140: 5ce2 7537 1aae 783b 5d3e 8bbc 2e69 31bb
00000150: 0f2b c033 a056 f63b 79e0 df3b 58e3 c0bb
00000160: ec86 49bd 30b6 17bb fde1 05bb 3ab1 4fbb
00000170: 90e9 b43b 6d52 56bb 7bb2 07bb f817 13bc
00000180: 05f0 1bbc 9624 153c 7579 763c 17d4 d3ba
00000190: 9278 f9bb 8fc6 eabc fc67 9fb7 840a 32bc
000001a0: 3897 803c 28d2 1aba 5571 9ab9 cf18 4f3a
000001b0: 0fe6 bf3b 8ab4 e83a c4c6 083b 3ff1 c43a
000001c0: 1c0b 0a3b f58f 4cbb 20e3 ae39 8298 843b
000001d0: 0d85 7739 83c9 5cbd c92c e2bb ea9b 46bc
000001e0: 30c0 1a3b 8e64 283a bfb4 19bc 8048 37bc
000001f0: d2a8 7a3a 5faf b93b fe0f 7bbb 5b0a 8b3b
00000200: 0fd5 ab3b b835 6bbb 085c a23a fce6 243b
00000210: fde7 3fba ab6b 06bd a246 f03a 0675 8b3b
00000220: d05a 86ba fcbb f8b9 cabc 8fba 57b8 e0bb
00000230: 288b 24bc f24c 9aba 0ca5 2c3a f24c 9cba
00000240: 992c 22bb fcfc a2b9 5f64 8d3d 5cc4 9d39
00000250: c067 5f3b eabd 163a 248f c43b 6595 a0bb
00000260: 1f58 03ba 30e7 f43a 61b4 7037 77f6 993b
00000270: 348e 93ba ae45 bcbb aadf 21bc a1f5 9e3a
00000280: a97e a83b c88c b93a 0a9e 98bc 5d94 a2ba
00000290: 4def 933b 7d8b 093b 3642 72bb e054 983b
000002a0: cb8b 98bb a82c 96bb 5f49 9f39 d191 0dbb
000002b0: 7284 39bb 2d42 9439 3183 273b 4fd7 84bb
000002c0: 77eb b539 ba19 cebc ea7e 7eb9 5de0 d7b9
000002d0: ae19 0a3b d154 42bd 6134 04ba 5c27 2e3b
000002e0: 34cd 6cbc 8e64 2e3b ee2f c5bb c385 94ba
000002f0: 0020 c93a 1b63 9b3a 4c12 4c3b 94f7 7e3c
00000300: 86dd 153a ed59 3c3b c39e 5ebb 7207 cd39
00000310: 9bd6 bb3a 7363 503b 3f8e fc3b e82b b2bb
00000320: 7d18 e9bb bb73 b3bb 61da 573b b435 f639
00000330: 19a3 99bb f380 d6bb 5f0f 643a 0e5a da3b
00000340: f79c 89b7 0565 c53a f1b4 f03b b0a1 003c
00000350: ca53 23b3 6701 373c 2ea0 023c d0c1 97bb
00000360: 33b1 e7bd 8daf 15bb f489 9bba 7804 2c3c
00000370: 762e 103b 8f97 7fbb b52d 143c 77c8 bcbb
00000380: 5f41 62bb 4f5c a53c cc91 bdbd cd1d ad39
00000390: 5c1a fabb a6f7 523c 6a18 7837 2d44 92bb
000003a0: dc18 edba 98d2 3339 8a75 4c3b 3b88 a339
000003b0: 27c8 89bb 4b08 caba de73 27bc 82cb e0b8
000003c0: cf45 db3a 0ed9 87bb 69ae fb38 feaf b43a
000003d0: 36a0 323a f4eb c7bc cfca 5fbb 758f 87bb
000003e0: fcf5 4338 f174 a23a df6b 873c e1d0 8dbc
000003f0: 1c26 73bb 1d6e 793c 312e 83ba 16d9 153c
0.01349307 0.0027932147 0.005437162 0.00036059436 0.0026691637 0.12641127 -0.008668122 0.003065316
-0.0019588938 0.00024640144 -8.518384e-05 -0.0056320447 -0.0036978591 0.0018900024 0.001959707 -0.00089756283
0.00052769115 -0.00010942561 0.08262728 -0.0011717892 0.002041452 -0.0016992883 0.0078439675 0.0021052142
-0.0007884842 -0.00032074196 -4.7783067e-07 0.0025090014 -0.0011192561 0.0073642395 -0.00031935744 -0.0017332063
-0.0014479319 0.00097619195 -0.0045358497 0.00028009093 0.0146739865 0.012886288 0.01014234 -0.0028214054
-0.012700304 -0.004524927 0.0014271257 0.0005375566 0.002227258 -0.0024109192 0.0020781488 -0.0031396104
-0.00029355506 -0.0027716123 0.00063736225 -0.00011768532 -0.016618825 -0.03129176 0.0026833008 0.0063727177
0.0019912329 -0.0016640654 0.0028399008 0.0012554978 0.0008441686 0.0033984182 0.0033285227 0.0076550078
0.0067276494 0.004179012 -0.00486447 -0.0014829686 -1.9709736e-05 8.299493e-06 -0.11273916 0.0022706278
-0.007933589 -0.00031765335 -0.0021951166 0.01129589 -0.012884433 -0.02174159 0.00024412869 -0.004803061
1.4655841e-05 0.003794557 -0.01699751 -0.0027070749 8.948529e-08 0.0075176507 0.006832179 -0.0058864765
-0.049200937 -0.0023149364 -0.002042889 -0.0031691329 0.005521007 -0.0032702938 -0.0020705748 -0.008977883
-0.009517674 0.009102961 0.015043606 -0.001616123 -0.00761325 -0.028659133 -1.9002699e-05 -0.010866765
0.015697107 -0.00059059495 -0.00029457608 0.000790012 0.0058562825 0.0017754 0.0020870427 0.001502551
0.002106375 -0.0031213735 0.00033357088 0.0040465007 0.00023605321 -0.053903114 -0.0069023115 -0.012122134
0.0023613088 0.0006423675 -0.009381472 -0.011186719 0.00095618994 0.005666658 -0.0038309093 0.004243178
0.0052439044 -0.0035890173 0.0012387047 0.0025162091 -0.0007320641 -0.032817524 0.0018331597 0.0042558936
-0.0010250453 -0.00047442305 -0.0010966298 -0.0068579125 -0.010042943 -0.0011772199 0.0006585873 -0.0011924787
-0.002474582 -0.00031087536 0.0690391 0.00030091673 0.003408894 0.00057503453 0.005998509 -0.0049006217
-0.00050103845 0.0018684622 1.43471125e-05 0.0046985704 -0.001125759 -0.005745611 -0.009879986 0.0012127646
0.005142052 0.0014156336 -0.018630046 -0.0012403835 0.004514611 0.0020987683 -0.0036965734 0.0046487898
-0.0046553365 -0.00458296 0.0003038151 -0.0021601806 -0.0028307703 0.00028278065 0.0025560374 -0.004053987
0.00034698445 -0.025158752 -0.00024270607 -0.0004117516 0.0021072435 -0.04744417 -0.00050432055 0.0026573753
-0.014453221 0.0026610228 -0.0060176766 -0.0011331368 0.001534462 0.0011855097 0.0031138835 0.015561957
0.00057169085 0.0028740123 -0.003396914 0.00039106194 0.0014330925 0.0031797558 0.0077073867 -0.005437363
-0.007113515 -0.0054764426 0.003293656 0.00046960788 -0.004688632 -0.0065461337 0.00086998 0.0066635674
-1.6404765e-05 0.0015060013 0.0073457886 0.007851049 -3.80276e-08 0.011169768 0.00797276 -0.0046312585
-0.11313095 -0.0022840232 -0.0011866675 0.010499112 0.002200035 -0.0039000248 0.0090441005 -0.005761202
-0.0034523827 0.020185618 -0.09256324 0.00033019335 -0.007632537 0.012876427 1.4787636e-05 -0.0044636936
-0.0018089074 0.00017149223 0.0031197988 0.00031191282 -0.004204768 -0.0015413848 -0.010220496 -0.000107190586
0.0016729179 -0.004145748 0.00012001099 0.001378536 0.00068140344 -0.024404503 -0.0034147983 -0.0041369745
4.6720714e-05 0.001239447 0.01653093 -0.017311515 -0.0037101572 0.015224007 -0.0010008273 0.009145996

features.conv1.bias f4 [28]
00000000: c21c bbbd f81a 8bbd 4a50 4fbf 57ce 4f3f
00000010: 18d6 41be a9ba 31bf 117c 72bf 0a32 3bbf
00000020: 3b49 42be 4db4 e6bd cbce 32be c5dc 90be
00000030: d486 91be d556 2dbe f33a 08bc 3291 72bf
00000040: f342 88be b588 22bf 20f3 34bf 8f04 b0be
00000050: bf11 99bd 1cf4 47bf 2767 25bf 4d35 14bf
00000060: 8d0d 3abf f0c9 f6bd 65fd 1fbf b997 6ebe
-0.091363445 -0.06792253 -0.80981886 0.81174225 -0.18929327 -0.69425446 -0.9472056 -0.7312323
-0.18973248 -0.112648584 -0.17461698 -0.28293434 -0.28423178 -0.16927655 -0.008314836 -0.947528
-0.26613578 -0.6348985 -0.7068348 -0.34378478 -0.07474088 -0.78106856 -0.64610523 -0.5789383
-0.72676927 -0.12050235 -0.62496024 -0.23300065

features.conv1.weight f4 [28, 3, 3, 3]
00000000: a68a b5be b44b 27bf 5138 5ebf a08f 413e
00000010: 7d1b b9bd a6c1 a83e 5632 463f 7258 fd3e
00000020: 8207 ddbd dbe4 dd3d e9cf 443e 8c50 9a3e
00000030: 5656 fcbd 80fe 8c3e de4f 2e3f c6eb 92be
00000040: 2131 9abe 4182 36bf cce5 023e bc17 e33d
00000050: cf99 0c3e 098b 55be f25b 8e3e 334a 123f
00000060: fa3e a9be 6106 22be cfbb dcbe a8af e03e
00000070: 51c4 033f 5b0b d63d c097 12bf 6000 2abf
00000080: a1d6 3cbf 09bc d63e 8215 343e 99e5 f93e
00000090: 15a2 263e f911 983e 3e15 a53e 6b4a 1cbf
000000a0: 765c 00bf 564f 08bf 2869 9c3e 1bf4 ce3d
000000b0: 9318 da3d 0d43 893e 9935 933e bc57 d73d
000000c0: 0d02 c4be 0d5e c9be 3930 48be f907 a5bd
000000d0: 83ee d93e c288 cb3e 6f08 c13e 1840 92be
000000e0: 3121 c3be fba9 20be 92dd 85be 0f64 0a3d
000000f0: bc98 903e 2985 0abe 826e e33e a81b 483f
00000100: 8d16 dabe 1331 5dbe 16ff 883e 9c63 6abe
00000110: 9146 183d 5450 8d3e 03ef ccbc 86d0 713e
00000120: f943 a63e 36ef f4be ff07 36be 066e 2dbe
00000130: c578 61be 2655 a3bd f86f 003f 9db9 573d
00000140: 0942 b7bd 1358 06be be88 73bd ed80 aebe
00000150: 8301 bc3d 959c c6be 4ff1 f4be 7aaa f4be
00000160: a409 2cbf e097 37bf 475c 813d aa9a 6f3e
00000170: 21da ec3e b7fd ab3e 973f 983e d202 aa3e
00000180: ce67 a83e c371 c53e ef2c f83e 73b4 c3bd
00000190: 5eb3 8ebb 4944 b3bc 7f6f b3bd 79ca 923d
000001a0: 3d2d 1e3e e272 313e 0d47 183e 3596 743e
000001b0: c94e d83e dc40 883e 545a 7b3e 76d6 8b3e
000001c0: 6d12 4d3d 757a cd3d 8dc2 00bf c078 84be
000001d0: ad0e ebbe f3fb 833e 22ab c23d a404 883e
000001e0: adf7 243e 23bf 283e 52ba 4a3e e7d0 ccbe
000001f0: 7707 9cbe 91d1 eebe 4a94 453c e357 633c
00000200: c0f9 3e3e ee0e 6f3e 4aee a2bc c8da 883e
00000210: 62b2 a3be 001f 42be e369 b6be 0843 1abe
00000220: aa02 843e ca84 5e3e 6032 9f3e 524f 083f
00000230: 1d45 b43e b6aa 44bf 7871 fd3d 20b4 06be
00000240: 3d8f 1ebe 6f0f 4fbe 6114 54bd 70a2 e73e
00000250: 254f 763e 5788 dd3d 2b0c e1be 0c5e e8bc
00000260: 8b82 a0be a35f 82be 7292 a8be d55c 16be
00000270: 2b67 723e 013d 913d c937 293e 2e9a 78bd
00000280: 7711 a33e 38f5 00be 189b 4ebf e100 31bf
00000290: ae27 38bf 706f 2dbe 8dab 593e f216 993e
000002a0: f7ca eb3e 8c66 ed3e 0053 cf3e 2359 bbbe
000002b0: 9e73 d4bc 62f8 90bd 07d1 1fbe efa1 1e3d
000002c0: 7e96 b93d c93c 0ebd f1e4 d73e 59f7 04bb
000002d0: c7ae 22be 8343 ac3d 6fb1 d03b 4bf7 34bd
000002e0: d6d7 553e 0508 223e 5261 efb8 9149 a63e
000002f0: c9fc acbd e83e b7bd 70f9 0abe b983 babc
00000300: cdb6 1dbf 552f 9cbe 6797 a4bd 1547 d23e
00000310: 6f03 91be a470 42be f4e6 183f 7600 aa3e
00000320: a277 133e 63a7 b9bc a5ff 31bd 329d 983e
00000330: f98e 1d3f ce75 2fbe 0731 a7bd 569c f93e
00000340: 3977 8d3e b607 72bd b78c 5fbe e949 8bbe
00000350: 8a26 c93d 842b 4f3e b30e 1ebe f37c 0cbf
00000360: 2a61 043e 6610 e63e 76c2 323e cf35 453e
00000370: 818b a13e a149 bebe 6e91 113e 6b53 d3be
00000380: 366b afbe 3521 9d3e 328c 6f3e 5115 b2be
00000390: 5b6c cf3e d527 94bc c23f 02bf 24f7 173d
000003a0: b3ba e4be 8f06 b8be 07df 7e3e f5a7 ce3e
000003b0: fba8 80be 4289 cc3e 7d7f 6c3e 6ad6 f9be
000003c0: bd51 c8ba e397 aebd e177 e2bd b35d 0fbc
000003d0: 36e8 65be 99cc 6abe 9bbb 34be e969 e6bd
000003e0: 9a3d 913d a66b e0bd 0935 8abe 344b 9bbe
000003f0: eb99 1a3f d6c7 f63e b318 ba3e b75c 4d3e
-0.35457343 -0.6534989 -0.8680468 0.18902445 -0.09038446 0.32960242 0.77420557 0.4948154
-0.107924476 0.10834666 0.19219936 0.30139577 -0.12321155 0.27537918 0.6809062 -0.28695506
-0.30115607 -0.712925 0.12782973 0.11088511 0.13730548 -0.20853819 0.27804524 0.5714447
-0.3305586 -0.15822746 -0.43112037 0.43884015 0.5147143 0.10451385 -0.572628 -0.6640682
-0.73765 0.41940334 0.1758633 0.48807982 0.16272767 0.29701212 0.3224277 -0.6105105
-0.50141084 -0.5324606 0.30548978 0.10105153 0.106492184 0.26808968 0.2875183 0.10514781
-0.38282815 -0.39329568 -0.19549645 -0.08058161 0.42564783 0.39752775 0.37701747 -0.28564525
-0.3811126 -0.15689842 -0.26145607 0.03378683 0.28241527 -0.13527359 0.44420248 0.781672
-0.4259533 -0.21600752 0.26757115 -0.2288956 0.037176672 0.27600348 -0.025016313 0.23614702
0.32473734 -0.47838753 -0.17776488 -0.16936502 -0.22018726 -0.07975225 0.5017085 0.05266725
-0.08948142 -0.13119535 -0.05945658 -0.34082738 0.09179976 -0.38791338 -0.47840354 -0.47786313
-0.6720221 -0.7171612 0.06316429 0.23398843 0.4626017 0.33592007 0.29736015 0.33205277
0.32891697 0.38563356 0.48471782 -0.09555902 -0.0043548783 -0.021883147 -0.087615006 0.07167525
0.15446945 0.1732898 0.14870854 0.23885424 0.42247608 0.26611984 0.24546176 0.27312058
0.0500664 0.100331225 -0.5029686 -0.25873375 -0.45909634 0.2577816 0.09505297 0.2656604
0.16110106 0.16479163 0.19797638 -0.4000313 -0.30474445 -0.4664426 0.012059281 0.013875934
0.1864996 0.23345539 -0.019889016 0.26729417 -0.31972033 -0.18957138 -0.3562766 -0.15064633
0.25783283 0.21730343 0.3109312 0.53246033 0.3520898 -0.76822984 0.12375158 -0.1315465
-0.15484329 -0.20220731 -0.051777247 0.45241117 0.24053629 0.108170204 -0.43954596 -0.028365158
-0.31349596 -0.2546359 -0.3292423 -0.1468385 0.23672168 0.07091714 0.16525187 -0.060693912
0.31849262 -0.12593544 -0.80705404 -0.69141966 -0.71935546 -0.16937041 0.21256848 0.29900318
0.46053287 0.463673 0.4049301 -0.36591443 -0.025934037 -0.07078625 -0.15607081 0.03872865
0.09061907 -0.034725938 0.42166856 -0.0020289032 -0.15886985 0.08411314 0.006368808 -0.04418115
0.20883116 0.15823372 -0.000114145354 0.32478002 -0.084466524 -0.08947545 -0.13571715 -0.022767888
-0.61607057 -0.3050486 -0.0803669 0.41069856 -0.28322932 -0.18988281 0.59727407 0.33203477
0.14401105 -0.022662824 -0.043456692 0.2980743 0.61546284 -0.17134783 -0.08163648 0.48752087
0.27630022 -0.059089385 -0.21831022 -0.27204826 0.09821804 0.20231444 -0.15435295 -0.5487816
0.1292769 0.44934386 0.17456993 0.19258808 0.31551746 -0.3716555 0.14215633 -0.4127458
-0.34261483 0.30689397 0.23393324 -0.34781888 0.40512356 -0.0180854 -0.50878537 0.037100926
-0.4467369 -0.35942504 0.24889766 0.40362516 -0.25128922 0.3994847 0.23095508 -0.48796397
-0.0015283149 -0.08525064 -0.11058021 -0.008750367 -0.22451863 -0.2292961 -0.17649691 -0.112506695
0.07091828 -0.10958032 -0.26993588 -0.30330813 0.6039111 0.48199338 0.3634697 0.20054899

features.conv2.bias f4 [48]
00000000: 126a acbe 7369 c7be 5425 e6be 277d 923d
00000010: db37 eb3e db17 acbe 5997 15bf 6b26 c7be
00000020: ffd9 9abe 32a0 f0be 2ae5 11bf c9e0 9e3e
00000030: 8072 b8be 36fa 823e b6e5 cf3e 806d 1ebf
00000040: a85f 3f3d 9568 07bf 6c18 06bf 6415 f0bd
00000050: bc8e 9bbe 1c01 c1be dfc1 18bf 093d bcbf
00000060: d781 94be b8f3 fdbe ae92 23bf 55df d1be
00000070: a967 86bd d56f 9bbe 85ec 0ebf b4ab 21be
00000080: 4e1f 38bf cd5b b0be b2ab fdbe 4f85 0ebf
00000090: 66e8 13bf 309d 83be e375 17bf 556f 7cbf
000000a0: 2831 e9be fac7 97be 0638 0ebe 46d5 0b3d
000000b0: 2664 d2be 2730 f5be 9ebf a1be 052a 78be
-0.33674675 -0.3894764 -0.44950354 0.07152777 0.45941052 -0.3361195 -0.58434063 -0.38896498
-0.30244443 -0.4699722 -0.569903 0.31030872 -0.36024857 0.2558152 0.40604943 -0.61885834
0.046722084 -0.52893955 -0.52381015 -0.1172283 -0.30382335 -0.3769616 -0.59670824 -1.4706126
-0.2900531 -0.49600005 -0.6389569 -0.409907 -0.0656274 -0.3035876 -0.5582965 -0.15788156
-0.7192277 -0.34445038 -0.49545056 -0.5567216 -0.57776487 -0.25705862 -0.59164256 -0.9860738
-0.45545316 -0.29644758 -0.13888559 0.03413894 -0.41092032 -0.478883 -0.31591505 -0.24234779

features.conv2.weight f4 [48, 28, 3, 3]
00000000: abf0 3f3e 92ae fb3a 7a5a b7be 4c6b 903e
00000010: 8cc6 82bd 0cf1 f93e 91be 56be d7b8 98be
00000020: 0e8f 9dbd 49ca debc c861 f3be 8c8a 44bf
00000030: 85eb 143f 2879 97be 3fe5 053f a06d 53bf
00000040: c65d 72be 8a0d 4c3f b96d dcbe 11da 153f
00000050: e2cc 28be 3322 f33e 0310 67bd 8604 bcbe
00000060: fe90 0ebf 2104 bb3e 8432 bebe 9c87 9f3e
00000070: df50 e9bd d97c 1bbe 703d 35be 8e77 1dbf
00000080: 18f0 85bc c766 be3e 8235 c1bd b592 d33e
00000090: b724 513e aef5 3ebf 85f4 0dbd d7e4 f1be
000000a0: eac9 41bf 00cf 2e3f b438 17bf e814 d8bd
000000b0: 4134 bb3e d631 563e ab14 f53d 6c20 7cbe
000000c0: 86c3 b8bb b6dd bcbe ee50 d53e 4c5f 183e
000000d0: 1322 b0be 4cbe 78bd 93f2 22bf 6aeb abbe
000000e0: 1691 30be 8434 a43e 9a01 df3e c786 8f3e
000000f0: fa6a b63e d4ce efbc 9a09 06be 757f a63e
00000100: d01b 9f3e 4d75 debd fd6c bb3d 9f1e 39b8
00000110: 8c24 c6be c504 e7be 4b4a 463e c1ec f73e
00000120: ff74 ebbd fefb 21bd 42c9 38bf a2fa 6e3f
00000130: af1f e13e ddc3 c33c 3f0d 703d 0f60 84be
00000140: a3b3 4abe 56ef 773e 34f6 963e be30 81bb
00000150: 4420 13be 5a93 98be 393a 17bf abbe ea3d
00000160: 1ba1 19be 7683 f4be cf7e b03d c5b1 52bf
00000170: 047f a43f ae74 22bf 8858 ecbd 3e35 1fbe
00000180: 1a37 683e dc4f 323e 3b2a a2be c0ac 00bf
00000190: fef1 5cbe 1b61 dfbd da2f 84be dd00 c2be
000001a0: 389e b8be 82a3 aabe f3c1 82bd 1f33 ff3e
000001b0: 66df 90bf 7bcc 8cbf f0c4 313e ec16 fcbe
000001c0: 4e5e 01be d79b 753f 89ea 1a3d aaf7 363e
000001d0: d16a 413f e7e7 4d3d 9c8f 1cbf 7d65 5abe
000001e0: ee12 b1be 9533 62be e17b 1fbe 546b f7bd
000001f0: c6ea 483f 834e 183f fabf 25bf 7b48 93be
00000200: 13f1 173f c90b 2abe ad15 cd3d beac b13d
00000210: 1a4a b33e 93a9 37be ae08 e0be 2766 323e
00000220: 1024 253f 5a0f e0bd 56df 4a3e 41b0 5dbf
00000230: 2224 08bf 1f44 8e3e 157d b03e 557f 21bf
00000240: a87e 99bd b7b2 0dbf 5af8 49bf a1eb ebbb
00000250: ed36 6a3f d7fb 14bc b63c 1c3e 8d9c e53d
00000260: b80d 04be 3b7f c43e 32fc babe de12 5b3f
00000270: 5a0f 003f b388 9ebe 895a b43e b5e9 86be
00000280: 94d5 77bf ce81 67be ca51 943e 3f63 ce3e
00000290: a51f b5be 7458 9abe c170 1cbd f380 4bbe
000002a0: 1299 1fbe 3ffb 04bd 0a0f 073e d956 b8be
000002b0: 2ac3 1f3f 7cfd ebbd 4633 35be de70 b83d
000002c0: 2409 2c3f f997 8d3d 49ef 98be 672d aa3e
000002d0: 1102 3e3f 4b84 2d3e 22d8 5bbf 0f77 853e
000002e0: 2a64 97be c540 46bf 4ea1 11bf 61ac ccbd
000002f0: 495d 843d d221 4abf e7a4 ba3d 84b1 fabe
00000300: fbb7 7cbe 9705 4b3e b84d 2b3d 327b a23e
00000310: b8c4 8ebf 8250 9e3e 1d84 38bd ffb5 2bbd
00000320: fe30 8cbd 98e1 24be 0335 e03c 4213 5bbe
00000330: ddd6 83be 44de 813e b55d 2ebe 3afb de3e
00000340: 0a2e 93be 3763 dabd 44b3 413e 5e56 07bf
00000350: 8ecf 52bf f71d d8bc 6d57 3abd 2fd0 a73e
00000360: 7b23 a03f 8ddb b83d b115 fabd 630a 073f
00000370: 85f1 15be 35ef 05bf f666 fbbc 7a9b 2dbd
00000380: 799f d53e 3bfc fcbe 1cdb 19be 3cef 433f
00000390: 0f60 c93c f63a 8abe ab77 00bd be45 52be
000003a0: 6c93 c93e 23db aebe 744d ce3e 3970 eebd
000003b0: 230a 6c3e 9fa4 42bd 2449 d5be cf58 25bf
000003c0: c231 5e3c 4833 b8bc 6827 f73d 6638 803e
000003d0: 7836 423f d495 55be 01f2 433d fda9 c23e
000003e0: 38e3 0dbf c287 3bbd c53c 1dbe fec8 97be
000003f0: 1233 63be 26bb cabd b594 893e 5326 493e
0.18744151 0.0019201806 -0.35811216 0.2820686 -0.06385526 0.48816717 -0.20971133 -0.29828522
-0.07693301 -0.027196066 -0.4753554 -0.76773906 0.58171874 -0.29584622 0.52302927 -0.8258915
-0.23668584 0.7970816 -0.43052462 0.5853587 -0.16484407 0.4748703 -0.056411754 -0.367222
-0.5568999 0.36526588 -0.37147915 0.3115815 -0.11392378 -0.15184344 -0.17699218 -0.6151055
-0.016349837 0.37187788 -0.09434034 0.41322866 0.20424162 -0.7459363 -0.03465702 -0.47244903
-0.7569872 0.68284607 -0.590709 -0.105508626 0.36563304 0.20917448 0.11966833 -0.24621743
-0.0056385426 -0.36887902 0.41663307 0.14880103 -0.34400997 -0.060728356 -0.6365139 -0.33578044
-0.17242846 0.32071316 0.4355591 0.28032514 0.35628492 -0.029273428 -0.130896 0.32519117
0.31075907 -0.10862217 0.09151647 -4.4135955e-05 -0.38699758 -0.45120826 0.19364278 0.48422816
-0.114969246 -0.03954696 -0.72182095 0.93351185 0.43969485 0.023897106 0.058606382 -0.25854537
-0.19795088 0.24212393 0.29484713 -0.003942578 -0.14367777 -0.2979992 -0.59073216 0.11462148
-0.15002863 -0.47756547 0.08617937 -0.82302505 1.2851262 -0.6345929 -0.115403235 -0.15547654
0.2267727 0.17413276 -0.31672844 -0.50263596 -0.21576688 -0.10907193 -0.25817758 -0.37891284
-0.3605821 -0.33327872 -0.06384649 0.4984369 -1.1318176 -1.0999902 0.17360282 -0.49236238
-0.1263363 0.9594092 0.037821326 0.17867914 0.75553614 0.050269987 -0.6115663 -0.21327777
-0.34584755 -0.2208999 -0.155746 -0.12081018 0.78483236 0.594948 -0.6474606 -0.28766236
0.59352225 -0.16606058 0.100139 0.08675526 0.35017473 -0.17935781 -0.43756622 0.1742178
0.6450815 -0.10940428 0.19811758 -0.8659707 -0.53180134 0.27786347 0.3447043 -0.6308492
-0.07494861 -0.5535082 -0.7889458 -0.00719972 0.9149006 -0.009093246 0.15257534 0.112115
-0.12895858 0.3837832 -0.36520535 0.85575664 0.50023425 -0.30963668 0.35225323 -0.2635018
-0.9681027 -0.2260811 0.2896865 0.40310094 -0.35375705 -0.3014561 -0.038193468 -0.19873409
-0.15585735 -0.03246617 0.1318933 -0.3600376 0.6240717 -0.11522958 -0.1769534 0.09005903
0.6720145 0.06913752 -0.2987006 0.33237764 0.74221903 0.16944997 -0.8587667 0.26067397
-0.29568607 -0.7744258 -0.56886756 -0.09993816 0.06463105 -0.78957856 0.09113484 -0.4896356
-0.24679558 0.19826351 0.041822165 0.31734616 -1.1153784 0.30920798 -0.045047868 -0.041921612
-0.06845282 -0.16101682 0.027369028 -0.21394065 -0.25749865 0.25364888 -0.17027934 0.43551046
-0.28746063 -0.10663455 0.1891604 -0.5286616 -0.82347953 -0.026381476 -0.045493532 0.3277602
1.2510828 0.09026251 -0.122111686 0.52750224 -0.14642914 -0.52318126 -0.030688744 -0.042384602
0.4172323 -0.49411187 -0.1502499 0.7653692 0.024581937 -0.2699811 -0.031364124 -0.20534417
0.39370286 -0.34151563 0.40293467 -0.116424985 0.23050742 -0.047520276 -0.41657364 -0.64588636
0.013561668 -0.02248539 0.12068063 0.2504303 0.7586436 -0.20857936 0.047838215 0.38020316
-0.55424833 -0.045783766 -0.15355213 -0.29645532 -0.2218745 -0.09898977 0.26871267 0.19643526

features.conv3.bias f4 [64]
00000000: dc36 b5bd 4a10 453e 9f04 923e d0bc 4e3f
00000010: 0ad7 553f fa9f 82bf 1239 6cbe de51 de3e
00000020: 874e ec3e 1bd9 5dbf e86a 173f d17e 30bf
00000030: a179 033f 8830 4cbe e319 71be aab1 1bbe
00000040: 7e56 453f 8f32 6dbf 5e31 4cbe ecbf e5be
00000050: ed92 583e 9a25 89be 38a3 183e 4e02 da3e
00000060: b0b9 f5be 0326 17c0 da68 38bf 2981 08bf
00000070: e81b a7be c555 4a3e 8d02 c33d 4d86 23bf
00000080: ec18 373f 4cd8 e6bf 8e32 c0bd a640 913f
00000090: 216a cabd c92c 17bf 9ed0 04bf 23d7 0bc0
000000a0: 6d64 1fbf 1f4b f8be c7ca 8cbf 6235 17bf
000000b0: 9e72 cf3e 0622 e93e 6bb4 99bf f097 9b3c
000000c0: 9f6b b53e cae8 123f e265 1c3e 5996 223f
000000d0: c4f5 303d f8fd d73d a1e7 843e 0ee7 3bbf
000000e0: 0979 b1be c6a2 97bf d4a7 543f 37ee b13f
000000f0: cc14 89bf 1e8f 9c3d af02 2cbe b28d 923d
-0.08848354 0.19244495 0.2851915 0.80756855 0.8353125 -1.0205071 -0.23068646 0.43421835
0.46153662 -0.866594 0.591475 -0.68943506 0.51357466 -0.19940388 -0.23545031 -0.15204492
0.770851 -0.9265527 -0.19940707 -0.44872987 0.21149798 -0.267865 0.14906013 0.42579883
-0.4799323 -2.361695 -0.7203499 -0.5332208 -0.32638478 0.19759281 0.09521971 -0.638768
0.715224 -1.8034759 -0.093846425 1.1347854 -0.09883524 -0.5905271 -0.51880825 -2.185006
-0.6226261 -0.48494813 -1.0999383 -0.5906583 0.40517133 0.4553377 -1.2008184 0.018993348
0.3543367 0.5738646 0.1527324 0.6351066 0.04320313 0.105464876 0.2595797 -0.73399436
-0.34662655 -1.184655 0.83068585 1.3900822 -1.0709472 0.07644485 -0.16797899 0.071559325

features.conv3.weight f4 [64, 48, 2, 2]
00000000: 159d 21bf e667 043f 7586 d6bd 3a4b 54be
00000010: 82af d03e 6a29 bfbe 261f e9be cb0a 4dbe
00000020: b95c 21bf 065a 3cbf 7a91 863e 08da eb3e
00000030: d5a6 143e 8c11 fd3e febe b9bc 7e26 7a3e
00000040: fd16 34bf 92b8 b9be 5259 af3d a0f0 e63e
00000050: b0ab 3dbd 1008 94be d050 56be cca1 7b3e
00000060: 9486 1bbf a1d6 99be e3ae 0fbf ddd9 353d
00000070: 3843 743f 6081 263f 2426 88be 92d0 8abc
00000080: e320 8a3c be3c 65be b0ed 513e 14e2 573d
00000090: f690 ee3e 5fe8 893e b28e 253e 9e50 973d
000000a0: 3a3e 13bf dfaf 1b3e bd0a 08bf 8bdd 823f
000000b0: b9fc 0d3e 55b7 523f 8e75 fe3c 4a16 b23e
000000c0: d384 003f 5851 d23e 8e57 0cbf 72c0 76be
000000d0: 6e2f 993c 1da8 803e 4c01 133e d0d6 ddbe
000000e0: d179 e43d 0451 b13c 1d1d 01bf e5e5 23be
000000f0: 70b8 383d c696 ea3e 45fc 4a3e 53f1 133e
00000100: 3895 3bbe 665b 283e 77a8 2bbf 36a9 cbbe
00000110: 85cc 713d f9ae 75bf 1a4d 0c3f e959 2abf
00000120: 16e5 e9be 5798 9f3e 7097 3f3e 94a1 1d3e
00000130: d6e8 583d 2328 913f 40d3 83bd e81f 43be
00000140: 7d19 86be bc5a 21bf a547 e7bd 8382 4a3e
00000150: 9a7d ce3e b498 223f 3eb1 9abe f1fa 1cbf
00000160: a8d1 6dbd 8338 ac3e d7ba 5fbe f314 2b3e
00000170: 72bf 04bf 8688 c6bf 9742 183e 2e37 183e
00000180: 999e 0ebe f016 f73e b31b 5f3e 81e9 313f
00000190: ece7 debe ed10 983d 86d5 803d bfcf a33e
000001a0: 6074 093f a996 533f 0cc8 ecbe d0c0 50bf
000001b0: a98e bf3e 6c35 30bf 162c d93e 4f13 8e3e
000001c0: 0b5a 013e df2d 19be e0b3 6abe 6fdc eabd
000001d0: 8ee5 bf3d c27a 53be d681 f9bd acc0 e2bd
000001e0: bf3a 6bbd ba0f 50bf d83c 093e 228b 1ebe
000001f0: 7164 983e 14f9 9d3f 4061 e1be a996 35bf
00000200: df87 93be 6db5 8dbe 8d45 14be 3222 133e
00000210: b265 ddbc 503a 00bf ddea 073e 0b49 14bf
00000220: 5082 a23e 4297 283f 3ee6 f23d e82c 40be
00000230: 4eb0 a73e dae2 b7bd 457f b1bd 2f4e 7b3d
00000240: ca92 23bc 5b88 babe 00de c3be adc9 4dbf
00000250: f5d4 b4bd a844 343e edf4 703d 513f dabd
00000260: f1dc 873d d377 cdbe d3e8 de3d 8efe 8c3d
00000270: 4c21 1a3f 346d dcbd e3ac b0be 9024 b2be
00000280: c4cb 40bf a52c aebe d51d d3bd d6db cebb
00000290: 6a50 a2be 9add 1d3d a1e5 06be 0d73 7fbd
000002a0: 4228 afbd 046e 9f3e bcfe 34be eedd 33bf
000002b0: 7b7f 40bf 8ae6 2cbf 18f7 743e 335f 1a3f
000002c0: 6307 26bf e080 29be 407f 593e da56 28be
000002d0: 6997 cbbe cbbe 2a3e 4c33 85be 436e 00bf
000002e0: 8fb7 40bf c395 683f 970f e53e 74d0 5d3e
000002f0: 5377 8d3e 4185 c0bd f7c7 2fbe fd41 34be
00000300: 9931 07be 2c9d 8abc 1075 91bd 73b2 70bf
00000310: acf9 e6bd 3258 1e3f c940 10bf 435c 5dbe
00000320: 3d48 b43e 52a1 c2be 41cc fbbe b7d1 89be
00000330: 4526 42be c43b 1c3e 045b e1be 2390 8b3e
00000340: 3c20 1d3e 206b 953e 758e bebe 8675 943d
00000350: b0d4 d13e 0353 023e 1657 0ebf 2d06 57bf
00000360: 9836 273e bfe5 ff3e 6721 19bf 6011 da3e
00000370: 0bf8 5cbf 0a76 203f 1a16 64be 4cd3 af3e
00000380: 128b 5e3c 3ac8 15bd bf22 003e 03ff 0abe
00000390: 7474 a9be 5937 0e3f ab9a 7d3d dd72 3c3f
000003a0: 7e28 e73e cbbd 8d3d 7bd0 98be 8ba1 b5be
000003b0: a6ca ab3e 6b82 243f a4b0 99be c462 653f
000003c0: 7baa 6abf adea c43e 453a 0cbe 98f4 63bd
000003d0: 9a4e 203e eb41 e63e fa4e 12bf 9ee2 8bbe
000003e0: 24c5 753e 3f61 e63d e192 c83e 9beb 633f
000003f0: 60da 70bc e351 453f daf6 06be f520 223e
-0.63130313 0.51721036 -0.104748644 -0.20731822 0.40758902 -0.37336284 -0.45531577 -0.20023648
-0.6303211 -0.73574865 0.26282865 0.46064782 0.14516766 0.4942745 -0.02267408 0.24428746
-0.7034758 -0.36273628 0.085619584 0.45105457 -0.046306312 -0.289124 -0.20929265 0.2457344
-0.60752225 -0.3004656 -0.5612623 0.044397224 0.9541507 0.6504116 -0.265916 -0.016945157
0.016861385 -0.22386453 0.20500827 0.05270584 0.4659497 0.26935098 0.16167715 0.073884234
-0.57516825 0.15203808 -0.53141385 1.022386 0.13865937 0.8231099 0.031061914 0.3478263
0.50202674 0.41077685 -0.548211 -0.2409685 0.018699374 0.2512826 0.14355963 -0.4332795
0.11156047 0.021645077 -0.5043505 -0.16005667 0.04509777 0.45818156 0.19822796 0.14447527
-0.18318641 0.16441116 -0.6705393 -0.39777535 0.059032936 -0.9597011 0.5480515 -0.6654344
-0.4568259 0.31170914 0.18710113 0.15393668 0.052956425 1.1340374 -0.06436777 -0.1905514
-0.2619132 -0.63029075 -0.11292962 0.19776349 0.403302 0.63514256 -0.3021335 -0.61320406
-0.058061272 0.33636865 -0.21848617 0.1670721 -0.5185462 -1.5510414 0.14869152 0.148648
-0.13927688 0.48259687 0.2178791 0.69496924 -0.43536317 0.07425103 0.06290726 0.31994435
0.536932 0.82651764 -0.46246374 -0.8154421 0.3741353 -0.68831515 0.42416447 0.27749106
0.12632005 -0.14958905 -0.2292018 -0.114678256 0.09369956 -0.20652297 -0.12182967 -0.110719055
-0.05742907 -0.81273997 0.13402116 -0.15482762 0.2976413 1.2341638 -0.44019508 -0.70933014
-0.288146 -0.2767748 -0.14479657 0.14368513 -0.027026031 -0.5008898 0.13273187 -0.57923955
0.31740046 0.658558 0.118603215 -0.1876713 0.32751697 -0.089788154 -0.08666853 0.06135386
-0.009983728 -0.36432156 -0.3825531 -0.8038586 -0.08829681 0.17604315 0.05882733 -0.10656608
0.06633938 -0.4013048 0.108842514 0.0688449 0.60207057 -0.10763016 -0.34506902 -0.3479352
-0.7531092 -0.34018436 -0.103084244 -0.0063128276 -0.31701976 0.038541414 -0.13173534 -0.06236558
-0.085526004 0.31138623 -0.17675298 -0.7026051 -0.7519452 -0.67539275 0.23922384 0.6030151
-0.6485502 -0.16553068 0.21239948 -0.16439381 -0.39763954 0.16674344 -0.260157 -0.50168246
-0.7528009 0.9085352 0.44738457 0.2166155 0.276301 -0.09400416 -0.17166124 -0.17603298
-0.13202514 -0.016920649 -0.07102406 -0.9402229 -0.1127809 0.61853325 -0.56348854 -0.21617226
0.35211363 -0.38013703 -0.4917927 -0.26917812 -0.18959911 0.15257174 -0.44014752 0.27258405
0.15344328 0.29183292 -0.3721806 0.07248978 0.4098258 0.12726979 -0.5560163 -0.839938
0.1632942 0.4997997 -0.5981659 0.4259138 -0.86315984 0.62680113 -0.22274056 0.34340894
0.013582962 -0.036567904 0.12513255 -0.13573842 -0.3309666 0.55553204 0.06191508 0.7361277
0.4514808 0.06920966 -0.29846558 -0.3547481 0.33553046 0.642615 -0.3001758 0.8960383
-0.9166638 0.38460293 -0.13694103 -0.055653185 0.15654984 0.44972166 -0.5715176 -0.27321333
0.24000984 0.11249017 0.3917456 0.8903138 -0.014700502 0.77078074 -0.13180104 0.15832885

features.conv4.bias f4 [128]
00000000: 589f 8abd 6964 40be 8ba1 903e cecf 913e
00000010: 5493 07be bfd5 52bf 67d9 78be dc9d 21be
00000020: 9526 ec3e 81a7 4f3e 5f91 3abe b321 c1be
00000030: b579 84be 7f4e c9bd 13cc 8d3e 3ffa 85be
00000040: d4e2 d2bd 53cf 36be b56f 02bf 58f3 b03e
00000050: fa9c a53d fdd0 ffbb a572 3e3e b40f 0cbe
00000060: 78ae 4cbe 2018 92be e511 b0be 1cef 52be
00000070: f4c8 16be 6811 433d 1617 993f 2dcf 803d
00000080: 7e63 80bd b892 a1bd 40f3 963e a88d 47be
00000090: 1ea6 e23f 926a 093d bacf 7cbd f439 f23e
000000a0: a9d9 643d 353a c8bd 5936 19be 382a 32be
000000b0: 6d9a a63f b583 29be fc13 453b 1e94 5bbe
000000c0: a4dd ddbd 18c2 0e40 7159 2cbc 83f5 7abe
000000d0: c071 89be 8d7b 7fbe 2467 043f 9aec 433d
000000e0: 36e5 8e3d 665f 5c3b cee6 6abe 68fe 07be
000000f0: 9325 3e3e 0107 863c 0cbc 1f3e 3a26 cf3f
00000100: 0ed0 b13d 9b73 39be 7717 983d cb53 bd3e
00000110: 5d58 413e d251 2dbf 645e 58be 5cba 8bbd
00000120: 83d5 56be 806c bfbf 5b55 c63e c78f d1be
00000130: e909 343e de96 49be 91de fbbe 9c10 d7bd
00000140: 65c4 a5be 1975 92be d16a 703e 0f78 15be
00000150: 6d04 31be 1555 09bd 64a3 94be 8da1 673f
00000160: b020 6dbe 2e58 debe e2f2 20be e5b1 e13f
00000170: aba8 69bb a450 61be 6b50 483c 5213 b03c
00000180: af6f f53e e7f0 5dbc 9247 7ebf 64f9 8fbe
00000190: 0418 bf3e 9ed9 cbbd 04bb efbd 2687 1f3f
000001a0: b317 7a3e dbf1 3ebe 466f 0cbe c91f b03e
000001b0: 1a6b 82be a044 fd3e e8fe 9dbe 0b4f 34bd
000001c0: 8dae 3e3e 84da abba 4642 923e 86d0 d2bd
000001d0: aba9 02bd 14f9 11bd 90e7 863f f47f 593f
000001e0: 12db bf3f c448 c3bd 595c cc3c 4dfd aa3e
000001f0: 9363 2dbd bc89 fdbf 77b4 f9bd e4f1 fd3f
-0.06768674 -0.18788303 0.28248248 0.28478855 -0.13239795 -0.823574 -0.24301682 -0.15782875
0.46123186 0.20278741 -0.18219517 -0.37721023 -0.25874105 -0.09829425 0.2769476 -0.26167485
-0.1029717 -0.17852525 -0.509517 0.34560657 0.080865815 -0.0078068958 0.18598421 -0.13677865
-0.1998843 -0.2853403 -0.34388652 -0.20599025 -0.14725095 0.04762402 1.196017 0.06289516
-0.06268977 -0.078893125 0.2948246 -0.19487631 1.7706945 0.0335489 -0.06172154 0.4730984
0.05587164 -0.09776727 -0.14962138 -0.17398918 1.3015877 -0.16554148 0.0030071726 -0.21443221
-0.1083329 2.2305965 -0.010519371 -0.24507718 -0.26844597 -0.24949475 0.5171988 0.047833063
0.06977312 0.0033626198 -0.22939608 -0.13280642 0.18569021 0.016360762 0.15599078 1.6183541
0.086822614 -0.18110506 0.074263506 0.3697799 0.18881364 -0.6770297 -0.21129757 -0.068226546
-0.20979886 -1.4954987 0.38736996 -0.40930006 0.17581905 -0.19686458 -0.49193242 -0.10501215
-0.323764 -0.28604963 0.23478247 -0.1459658 -0.17286845 -0.033528406 -0.29030907 0.9048088
-0.23157 -0.4342665 -0.15717652 1.7632414 -0.0035653512 -0.22003418 0.012226204 0.021493588
0.4793677 -0.013546205 -0.9932796 -0.28119957 0.3732301 -0.099536166 -0.11705592 0.62315595
0.24423103 -0.18646948 -0.13714322 0.3439925 -0.25472337 0.4946642 -0.3085854 -0.044020694
0.18621273 -0.0013111387 0.28566188 -0.10293679 -0.03190009 -0.03563793 1.0539417 0.84960866
1.498873 -0.09535363 0.024946379 0.33396378 -0.04233129 -1.9807658 -0.12192624 1.9839444

features.conv4.weight f4 [128, 256]
00000000: 927c ab3d 82d2 95be e8b4 f2bd 3781 f4bd
00000010: 258b 54be 76ae 62be da0b 2abd f060 2cbd
00000020: c5f6 ffbc 53e6 62bc d3fb bcbd e800 50be
00000030: 92b9 f23d dc6f fdbc 6a02 b7bc e3b0 b9ba
00000040: 2d32 483d 2cac f53d d109 8f3e 979d 5e3d
00000050: 1938 80bd 989d a03c 4dd2 9cbe 3edd 72bd
00000060: b763 03bd 7b7e 72bc 3b4c aabd 9489 e13c
00000070: ec0c bbbc 173d 0fbe edd2 04be be1a 12be
00000080: 3d1d 063d 14ea 48be 456b b1bd d3a7 72be
00000090: a716 e6be a3b4 f4bd a846 ebbc 2267 01be
000000a0: 6003 2a3e 8d22 8b3e d32f 27bd ea5e 1cbe
000000b0: 8950 203d 61be d53c 7a08 9bbd ac1e 49bc
000000c0: a7b1 4cbd 5fe2 bebc 4143 8c3c 926d 49be
000000d0: 9605 7dbe bf46 83bd 84c8 33be 4825 c9bd
000000e0: e757 1dbe 8efa c33d c54e ddbd 18b9 a8bc
000000f0: be76 31be f073 c2bd 24e4 6b3d 9a15 45bc
00000100: ea51 48bd f5ac 99bd 1473 2ebd 6ddb 07bd
00000110: 67c5 543d 6dea 4bbc d43d 6cbd 628a 0abe
00000120: 5d1f 74be 014c 3cbd ce84 36be b6cc 09bd
00000130: f00f 743e 97ba f73d 4ebb d63d b437 983d
00000140: ba07 e43e 5459 8d3d 86ae 5cbe 49a7 b13b
00000150: 1e74 13be d51e 183d 82bd 1cbe 399e febd
00000160: 989a 04bd e4e3 95be 4e4e c5bd 3f08 86bd
00000170: 24cc c4bc b338 dabc 0d46 a5bc d5ed e93c
00000180: d0b8 173d 2aee 593e b7ac 7abe 5a46 89be
00000190: f61d b3bb 6a84 b3bd 9b7a aabd 4e61 96bd
000001a0: 9445 a0be 7d9c babe 6b8b de3c 9171 483e
000001b0: 5908 8b3d ce50 41be e9a9 f7bd 4e45 73bd
000001c0: 952b 57be 31b7 08bd b942 06be 2daf 94bd
000001d0: f22c 62be 7b07 89bc d3d6 f6bd 7e48 b4bd
000001e0: 7051 15bd 69cb e5bc 6498 2dbe 1cf8 0fbe
000001f0: 3f55 393d e9d8 f7bc fc20 b23d 3446 69be
00000200: 29bf 04be f57e a6bc 628c dfbd 7c8f 56bd
00000210: 807b 2dbc f11b 8fbe 52b3 4bbd dbf5 80be
00000220: bb7a 5fbe 12b9 623d 69ab 94bd f6c9 16be
00000230: ce90 65be a52e 003d 43d0 2dbc ce7a 80bd
00000240: d209 d2bd 02ee 36be 5897 b5bc 4f2d 38bd
00000250: 4f10 8cbe 2ab0 e0be 9113 643d ad78 32bc
00000260: e732 70be 2a06 253e 8ff8 d23c 2285 853b
00000270: e165 d5bd ac81 4cbe 4037 aabc e5fe 6bbe
00000280: e417 6d3d 79f2 913d 3947 80bb c865 04be
00000290: c6f0 24bd 7ad4 2f3d bbca f5bd edd3 2ebe
000002a0: f4d3 c7bd fd5f 95bc 0d61 93b9 e4e6 c53d
000002b0: 5593 e3bd 6c6c 3bbe 9139 f23d a029 7bbe
000002c0: aa9f 47bd c904 b0bd 4457 863d 414f 18bd
000002d0: a427 24bc 4a38 d4bd b0ac 9dbc b954 273d
000002e0: 16e5 0c3b 72e1 8ebd cac1 29be 4bd8 d6bd
000002f0: 1c7a 30be eb0f 8e3e 5ef0 81be 5a4a 18be
00000300: d1d4 753d ab1d 8f3d 9822 c93b ce9d 3bbe
00000310: c98a 9c3e dc4a 1f3e 7fa9 98bd a3d5 d9bd
00000320: f27b cabb 71bb 9dbd 1461 33bd 9d26 adbe
00000330: c794 29be 1bb7 18bd af7d efbd 49eb 3a3e
00000340: 3f49 72be 41cc 5dbe 5910 9cbe ed32 7fbd
00000350: 7ac1 c4be 6b47 90be 2b8b 753e db60 763c
00000360: c9af 5f3e 0943 dc3d e4a5 ac3d cf3f cc3d
00000370: aa97 97be f55b 1bbe f937 96be a741 d3be
00000380: 9c7f 17bd 589b 4cbd 7e84 53be 4e9f 463d
00000390: 0258 f63d 2b72 2a3b 4f83 333e e39f a83e
000003a0: 64ac 8ebe 1411 42bd 5d6c 55be ecb7 21be
000003b0: e031 2b3e ca2c bebc 9afd a73e ea85 1f3e
000003c0: cafc 9c3c 7be7 7bbe 328a aebc f888 e5bd
000003d0: 5ea1 7cbd 9729 e6bc f8d7 82bd bb5a 6abe
000003e0: a584 91bd c75b 19bd 1271 91be 3074 7fbc
000003f0: d3b8 72be d019 983d 43e6 dcbd 5189 06be
0.08373369 -0.29262167 -0.118509114 -0.11938708 -0.20756204 -0.22136864 -0.04151521 -0.042084634
-0.031245599 -0.013848859 -0.09227719 -0.20312846 0.11851801 -0.030937128 -0.022340018 -0.0014167096
0.048875976 0.1199573 0.27937177 0.054349508 -0.062607 0.019606397 -0.30629197 -0.059293024
-0.032077517 -0.014800663 -0.08315321 0.027531423 -0.02283331 -0.13988148 -0.12971087 -0.14268014
0.032742728 -0.19620544 -0.08663038 -0.23696832 -0.44939157 -0.11948516 -0.028720215 -0.12636998
0.1660285 0.27174798 -0.040817093 -0.15270582 0.039139304 0.026091756 -0.07569976 -0.012275379
-0.04997411 -0.023301302 0.017121913 -0.19670704 -0.24709162 -0.06409978 -0.1755696 -0.09821564
-0.15365563 0.09569274 -0.1080604 -0.020596072 -0.17330453 -0.094947696 0.05759062 -0.012029076
-0.048906244 -0.07503692 -0.042590216 -0.033168245 0.05194607 -0.012446028 -0.05767615 -0.13529351
-0.23840089 -0.04597092 -0.17824098 -0.033642493 0.23834205 0.12096136 0.10484944 0.074324995
0.44537145 0.069018036 -0.2155095 0.0054215533 -0.14399764 0.03713878 -0.15306666 -0.12432522
-0.032373995 -0.2927543 -0.09634076 -0.065445416 -0.024023123 -0.026638364 -0.020175004 0.02855579
0.037041485 0.21282259 -0.24479948 -0.26811486 -0.005466218 -0.0876549 -0.083241664 -0.07342778
-0.31303084 -0.36447516 0.027166089 0.19574572 0.067887016 -0.18878481 -0.12092955 -0.059392266
-0.21012719 -0.03337783 -0.1311139 -0.07259975 -0.22087458 -0.0167272 -0.12052693 -0.08802889
-0.036454618 -0.028051095 -0.16952664 -0.1405949 0.045247313 -0.030254798 0.086976975 -0.22780687
-0.12963547 -0.02032421 -0.10915448 -0.05238293 -0.010588527 -0.27951005 -0.04973156 -0.25187573
-0.21824162 0.055352278 -0.072592564 -0.1472548 -0.2241852 0.031294484 -0.0106087355 -0.06273423
-0.10255779 -0.1786423 -0.022166893 -0.044965085 -0.27356192 -0.43884403 0.055682722 -0.010893029
-0.23456918 0.16115633 0.025753288 0.0040747086 -0.104198225 -0.19971341 -0.020778298 -0.23046453
0.057884112 0.07126326 -0.0039147404 -0.12929451 -0.040268682 0.042927243 -0.120015584 -0.17073031
-0.09757224 -0.018234247 -0.00028110333 0.096631795 -0.11112086 -0.18303078 0.11827386 -0.24527597
-0.048736252 -0.08594663 0.06559613 -0.037184957 -0.010019217 -0.10362299 -0.019247383 0.040852282
0.002149885 -0.06976594 -0.16577831 -0.10490473 -0.17234081 0.2774652 -0.25378698 -0.14872113
0.06001741 0.069880806 0.006138157 -0.18321916 0.30574635 0.155559 -0.07454204 -0.10636451
-0.006179326 -0.07701767 -0.043793753 -0.33818522 -0.1656066 -0.037283998 -0.11693894 0.18253817
-0.23660754 -0.21659948 -0.30481222 -0.062304426 -0.3842886 -0.28179488 0.2397887 0.015037741
0.218444 0.107549734 0.084300786 0.09973108 -0.29607898 -0.15171798 -0.2933958 -0.41261026
-0.036986932 -0.049952835 -0.2065601 0.04849177 0.12028505 0.002600799 0.17530559 0.32934484
-0.278659 -0.04737957 -0.20842119 -0.15792817 0.16718245 -0.023214716 0.3281067 0.15578428
0.019163508 -0.24600022 -0.021306131 -0.11207765 -0.06167733 -0.028096003 -0.06388849 -0.22886173
-0.07105378 -0.03744104 -0.28406578 -0.015591666 -0.23703317 0.07426798 -0.107861064 -0.1313832

features.prelu1.weight f4 [28]
00000000: e92f 053f be7d 633f 887a 363c 6ec4 073f
00000010: b17c 123e 23da 863b 378a 8e3b d10e 093c
00000020: c969 f03e babb e03d 6ae4 563f 373f 2fbc
00000030: 2e17 313f d9bf 363f fd9c 153f b4f2 43bb
00000040: 5ebd 043f 02a0 08bc e85e 783c c368 3a3f
00000050: e531 373e 6ab9 b63b 47bf 4d3a 086d 953d
00000060: 5efc 283c 5209 103f 144f 3ebc c75e 143c
0.5202623 0.8886374 0.011137612 0.530341 0.14305378 0.0041153594 0.0043499726 0.008365349
0.46955708 0.10973306 0.8394228 -0.010696224 0.69175994 0.71386486 0.5844267 -0.00298993
0.5185145 -0.00833893 0.015159346 0.72816104 0.17890127 0.0055763023 0.0007848632 0.07296187
0.010314075 0.5626422 -0.011615533 0.0090558

features.prelu2.weight f4 [48]
00000000: 04a7 763e a3e9 513d 559a a23d dce4 b43c
00000010: 7091 5a3e af7e 903e c2d9 1c3e d9a8 3d3e
00000020: 814e 1e3d ad43 2d3e 398d 123e 0306 743e
00000030: b13f 263e 5567 0d3e 590a 663d c862 4d3e
00000040: 3c8c b83e 5277 423d bdc3 d53d 10f7 363e
00000050: 5c46 753e bb61 f23d 8dbd 7d3e 2958 e43e
00000060: e61e d63c b9d2 bb3d 607a 053c 07d2 b23e
00000070: ab84 843e 2eb7 6e3e 8c40 9f3e 7034 603e
00000080: 3c03 5d3d 0159 4e3e ffc4 1d3e 2f5a da3e
00000090: e5e6 803d c58a 6f3e 2ea5 c53e 963f 6f3e
000000a0: 0375 1d3e 4ca1 673d c3e8 a13d 4faa 953d
000000b0: a7ab ce3e 3384 573e e0a8 cb3e 9f12 e63d
0.24087149 0.051248204 0.07939593 0.022081785 0.21344543 0.28221652 0.15317443 0.18521442
0.038649086 0.16920348 0.14311685 0.23830418 0.16235234 0.1380895 0.056162212 0.20057213
0.3604449 0.047477074 0.10437725 0.17867684 0.23952621 0.11835047 0.24779339 0.4459851
0.02613778 0.091710515 0.008146852 0.34925863 0.25882468 0.23312065 0.31103933 0.21895003
0.053958163 0.2015114 0.1540718 0.4264693 0.0629404 0.2339278 0.38602585 0.233641
0.15376668 0.05655031 0.07905724 0.073078744 0.40365335 0.21046524 0.3977728 0.112340204

features.prelu3.weight f4 [64]
00000000: 912c 52b8 f5c3 6f3b 257f 75bc 9d17 873b
00000010: 94e0 f93d 25ad 83bc f129 283d 131a 033e
00000020: 7683 8e3d 543b c83b b5d8 013e c51e 003d
00000030: 3300 753d ccfa e4bd 5da6 b2bd b932 97bc
00000040: 5462 d83d 1853 843b c90d bcbb 6cd6 5f3d
00000050: b105 4bbc e120 3abd 7edd 08bd ec79 5c3e
00000060: 9d26 253d 41b7 543e 4fe8 bc3c ee3c ebbb
00000070: 02d3 44bc a14b d2bd 2d84 9d3b e3bc 75b8
00000080: ab16 7c3c fba1 8d3d eb81 c9bd b334 1d3d
00000090: 60bb 07bd 1d89 da3a 5aa5 893b 3d93 bf3d
000000a0: 1a7b 183d aaba b9bd bdfb e4bc f235 863c
000000b0: e258 1fbd 58ef ed3d 13ed c63d 6d44 f6bc
000000c0: e80c 10bd f992 8dbc 7673 68bd e3a9 2d3d
000000d0: f9ae ad3b 4c7d 263d 4b53 063e c4f0 c03c
000000e0: 61af 553c b430 553b 1da3 01bd 0670 283e
000000f0: aa8d c43c 9a0a ffbc 79e7 fabc 688b 2a3d
-5.0109407e-05 0.0036585305 -0.014983927 0.004122688 0.12201038 -0.016073773 0.041055623 0.12802915
0.06958668 0.006110588 0.12680323 0.031279344 0.059814643 -0.11180648 -0.087231375 -0.018456804
0.105656296 0.004038226 -0.005738948 0.054647848 -0.012391494 -0.045441512 -0.033414356 0.21530885
0.040320028 0.20773031 0.023059992 -0.0071788942 -0.012013199 -0.10268331 0.0048070163 -5.8588466e-05
0.015386264 0.06915661 -0.09839233 0.038380336 -0.03313768 0.0016672943 0.0042006196 0.09354255
0.037226774 -0.090688065 -0.02795207 0.016383145 -0.038903125 0.11617917 0.09713187 -0.030061925
-0.03516856 -0.017281996 -0.056750737 0.042398345 0.0053003994 0.040646836 0.13117711 0.023552306
0.013042302 0.003253025 -0.031649698 0.16448984 0.023993332 -0.031132985 -0.030627953 0.041636854
