onnx2ncnn/rnet.onnx (onnx, 239019 bytes, 16 tensors)

conv5_1.bias f4 [2]
00000000: 369b 6a3f 239e 60bf
0.91643083 -0.877413

conv5_1.weight f4 [2, 128]
00000000: ee32 95ba 34ae 023e 8613 593d ec5a 9abd
00000010: 0da8 4f3d 1e76 08bd ce4f 563d f2e8 f83c
00000020: b0d9 933c d9c1 a23d a186 b43c abf4 9b3d
00000030: ad03 bc3c e055 863d b687 59bd b346 493d
00000040: f9ab 8c3d 8185 5e3b 1f85 c1bd 148a 4d3c
00000050: 5438 1b3b 030d dd3b a158 90bd 6c3b 8ebc
00000060: e0ac 5f3d 0afe e5bc 1ffb 48bd b40e 3d3c
00000070: d7c8 1abd 3e83 2dbd db61 1b3d 276e 88bc
00000080: f3e6 6fbd 469e 4bbd 66a6 9bbc 2430 9e3d
00000090: 0dd1 11bd 85c8 a6bc a757 903d 271a 093d
000000a0: fedf ea3d d420 d4bc 78c7 153d 35b4 09bc
000000b0: 490d 953c ec5b 11bc f4e7 7a3d ffc2 28bd
000000c0: e889 22bd e4e3 ebbc 1091 f8bd c342 513d
000000d0: ce5c 94bc 9bf4 ffbc f5f2 3a3c 5316 6abd
000000e0: f207 143e 5062 8dbc 196d 49be c407 d1bb
000000f0: c73b 16bd aee1 9c3c 02c6 1bbe b7ff 0c3e
00000100: ee2b 363d e4b3 c2bc 5c4b 823d 2b02 ccb9
00000110: bfca 09be 4f93 083d 18a6 7b3d f7ae e5bd
00000120: 6fbf 3c3d 1a60 9c3d b8d5 2dbc 51b6 22bd
00000130: a0d3 793d 409b c53d 547e d23d be4a 233d
00000140: f053 1d3c 950a 4b3d fdc2 0f3d e2ee c33c
00000150: 773f 323d 835e b03d d3c3 d0bd ca01 cdbc
00000160: 0157 0e3d 7c7a 823d a229 05be eab5 c43b
00000170: bbdd 983b af0e f2bd 13a7 723d 1b78 2fbd
00000180: 0527 a43c c526 e13c 2611 43bc 553d 83bd
00000190: 20a2 8d3d e94a aabd bf86 c4bd 76eb 9b3d
000001a0: e1a2 2f3d 8308 8fbc 4a41 a9bd dd35 a4bc
000001b0: 1982 85bc 96a5 543d bcfb 103d 9d50 473b
000001c0: cfc2 f7bc d801 16be a2e4 be3b 9aa7 98bd
000001d0: 3aeb c9bc 586b 0bbd ffd7 25bd a7a8 74bc
000001e0: 9e49 a6bc dcc8 68bd a822 05bd 0617 453d
000001f0: 473c d9bd 2e1e 843b 6e16 ecbd 1633 903c
00000200: 22bd 33bb 034a ddbc 2687 71bc 2d61 c33d
00000210: 3e4d 85bc c2b9 883d 6052 d2bc 41d9 fb3d
00000220: 4a84 44bd 7c0e 77bb 7872 0e3e bc28 ad3d
00000230: 320c 99bc 9a11 aebd ef78 7f3d b885 63bc
00000240: 14a2 5fbd 87bd 0ebe 53cc 6abd 8ff8 0dbe
00000250: 9407 dd3d 3f9d dfbd d6e8 9c3d 1908 9b3d
00000260: dbf1 ef3c 60df 8fbd e39b 9abd bf37 8c3c
00000270: cd24 bcbd 7a86 a2bc eee5 55bb a5d6 013e
00000280: abb3 f03d 399e 993d e4de 0e3d 5467 7dbc
00000290: e998 133c 148b 80bd 5104 8a3b f7af 64bc
000002a0: e7b0 cc3c 9c84 aabd 87c3 84bd 8afd 59bc
000002b0: 0a92 1bbd e0c2 74bd c6e9 8d3c 87fd 143d
000002c0: 7ee7 233e d2a2 6bbd 80bf 083e 3709 b1bb
000002d0: 66b5 b43d e7eb 3d3d a5b3 debd 6464 b13d
000002e0: 546d 6ebd 1ba0 0ebe 9de4 e53d 1341 ccbd
000002f0: d0ff c83d 1e2f 783c 0f65 ea3c db03 82bd
00000300: 095a 7fbd 4aeb e43d 2734 f5bc 21aa ba3c
00000310: df20 e23c 4efe 933d 01ed 5c3d 9bbd c33c
00000320: fe21 85bd 95c1 f1ba 6f2b 273d 32c4 e0bd
00000330: e576 87bc dd81 15bc 6b3d 81bc fd5b 8cbd
00000340: 7185 103d 3fce 1ebe 95fb 82bd 1072 6e3d
00000350: ad0b c5bc e67f 1a3d e953 bc3d f44c d6bd
00000360: 24ca 0d3d 4f1c 49bd 54e1 79bc ff39 6cbd
00000370: c406 56bd d26d 293e 1571 d9bd 7747 503c
00000380: fa7f 2abd 11dd 28bc 5879 4ebc c817 bd3d
00000390: 89e0 ddbd 2ab0 f63c e4a2 493d 7678 96bc
000003a0: 449f 06be 6245 a6bd 36f9 df3d 150f 953d
000003b0: 9fb4 91bd bb2f 373c e9da c63c 7473 02be
000003c0: 59e0 863d 887e cdbb 8e31 0fbd 26f2 e63c
000003d0: b0ce b6bd d280 cc3d 731f 08bd ef41 dbbc
000003e0: 3be7 7abd 0646 013e c2dd 463e 2233 4abd
000003f0: 27ea 053d 58d7 973d 340a d5bc 7257 9ebd
-0.0011382976 0.12761766 0.052997135 -0.07536873 0.050697375 -0.03331577 0.0523222 0.030384514
0.018048137 0.0794713 0.022036852 0.07615026 0.022950971 0.06559348 -0.05310794 0.04913969
0.06868739 0.0033954086 -0.09449219 0.012545127 0.0023684697 0.006745936 -0.070481546 -0.017362319
0.054608226 -0.028075237 -0.049067613 0.01153915 -0.037789192 -0.04236149 0.03793512 -0.016654087
-0.05856986 -0.04971149 -0.019000243 0.07724026 -0.035599757 -0.020359287 0.07047968 0.033472206
0.11468504 -0.02589456 0.03656718 -0.008404781 0.018194811 -0.008872014 0.061256364 -0.041201588
-0.0396823 -0.02879519 -0.121370435 0.05108906 -0.018110659 -0.031244567 0.0114104645 -0.057150196
0.14456156 -0.017258793 -0.19670524 -0.0063790996 -0.036678102 0.019150581 -0.15212253 0.13769422
0.04447549 -0.02376742 0.0636203 -0.00038911527 -0.13456248 0.03334361 0.061437696 -0.112150125
0.046081003 0.076355174 -0.010610037 -0.03972465 0.060992837 0.09648752 0.102780014 0.0398662
0.009602532 0.04957064 0.035098065 0.02391762 0.043517556 0.08611777 -0.101936005 -0.025025267
0.034750942 0.06371018 -0.13004163 0.006003131 0.004665104 -0.11819207 0.059241366 -0.04283915
0.020038137 0.027484307 -0.011905944 -0.064081825 0.069156885 -0.08315069 -0.09596013 0.0761327
0.042879943 -0.017460113 -0.08264406 -0.020045215 -0.016297387 0.051915728 0.035396323 0.003041304
-0.03024426 -0.14649141 0.005825595 -0.074538425 -0.024648298 -0.034037918 -0.040489193 -0.014932788
-0.020298775 -0.05683218 -0.032503754 0.04811766 -0.106072 0.004031918 -0.115277156 0.017602485
-0.0027425964 -0.02701283 -0.014741695 0.09540019 -0.016272184 0.066760555 -0.025674045 0.12297297
-0.047977723 -0.0037697842 0.13910854 0.08455035 -0.018682573 -0.08499451 0.06237119 -0.0138868615
-0.05459793 -0.13939486 -0.057323765 -0.13864349 0.10792461 -0.10918664 0.076615974 0.07569904
0.02929013 -0.07025027 -0.07549264 0.017116426 -0.09186707 -0.019839514 -0.003263827 0.12679537
0.11753019 0.07500882 0.034880534 -0.01546653 0.009008625 -0.06276527 0.0042119403 -0.013957969
0.024986697 -0.083260745 -0.064826064 -0.013305077 -0.03798107 -0.05975616 0.017323386 0.036374595
0.16006276 -0.057528324 0.13354301 -0.00540271 0.088236615 0.046367552 -0.10874108 0.08661726
-0.058209732 -0.13928263 0.11225245 -0.099733494 0.09814417 0.015147952 0.028612642 -0.063483916
-0.062341724 0.1117769 -0.029932095 0.022786202 0.027603565 0.07226239 0.053936962 0.023894122
-0.06500624 -0.0018444533 0.040812906 -0.10974921 -0.016536186 -0.0091252 -0.015776357 -0.06853483
0.03528351 -0.15508364 -0.06395642 0.058214247 -0.024053419 0.03771963 0.09195692 -0.104638964
0.034616604 -0.049099263 -0.015251476 -0.057672497 -0.052252546 0.165458 -0.10617272 0.012712351
-0.041625954 -0.010306613 -0.012602173 0.092330515 -0.10833842 0.030113298 0.04922761 -0.018367987
-0.13146693 -0.081187025 0.10936205 0.07278267 -0.07114529 0.011180813 0.024274306 -0.12739354
0.0658576 -0.006271187 -0.03495937 0.028191637 -0.08926141 0.09985508 -0.033233117 -0.026764838
-0.061255675 0.12624368 0.19420531 -0.04936517 0.03269401 0.074141204 -0.026005842 -0.077315226

conv5_2.bias f4 [4]
00000000: a6f8 253d 7fca bbbd 9796 76ba 76f5 583d
0.040520333 -0.091694824 -0.0009406595 0.052968465

conv5_2.weight f4 [4, 128]
00000000: f624 493a 824a 49bb 634f 793b 5895 c6ba
00000010: 1098 0b3c c7b3 523d 2dd5 3c3b 390e 94bb
00000020: 12ea 7e3a 817a 6cba 725a 403a ba9a fdb9
00000030: 5a91 133b 8b53 d83a 1091 a13a d2af 7d39
00000040: 5705 003a 5e67 d53a ff79 c6bb b489 243b
00000050: a75d 523b de02 30bb 39e1 74bb 6223 f43a
00000060: 7b8f eab9 33b1 e537 5f0a e53c d1ff 9d3b
00000070: 12dd 613b a153 e83b ea57 f43a fd48 cd3a
00000080: 5f36 ebbb 2cc8 2037 19bc 513b 4a55 c639
00000090: 86c4 0d3b 894f 7b3b 738a 5bba fbd1 8c3a
000000a0: 041f f2ba 2f2c c839 f36a 103b e8f4 d4bb
000000b0: 0cb8 b539 cd78 64bb 58dd 2abb 689b 5d3b
000000c0: b140 aeba f4a4 3bbb 31be 4e3a c03d 8fbb
000000d0: 4bb6 b9bb 3a77 61bc 38c6 adb9 04ed 02bc
000000e0: 9b45 883a d0cc b0bb b870 25b9 5d25 67ba
000000f0: c5ae 68b8 d35b c93a a548 a9ba c7e5 3cb8
00000100: 9d37 05bb 5fa5 073c 9c1f 1dbb edf7 a93a
00000110: c97c fb3a b55c 123c 7ee9 41bd 51a6 2e3a
00000120: 993c 85bb 7f31 61bb 4437 883b 4af2 e2bb
00000130: 7879 a33b 008f c0b9 d79a 8f3b cd47 d0bb
00000140: 81a3 343b 7d0f 2d3a 0f96 14ba e15e 1ebc
00000150: f92a c3bb 216c 92bc a592 fe3a b958 4539
00000160: 4943 10bc 16d4 e03b b66f 463a 9925 d43a
00000170: e3f7 cc3a 819f 14ba 5fe1 5f3a aaf0 6dbc
00000180: 10eb d3ba 973c 2c3a 1db0 3abb 2bee 13bb
00000190: 75c0 fd39 0fcb f83b 11b1 1eba cc5d 50ba
000001a0: b3c0 dc39 2ec0 b63a 5067 913a c77e 75b9
000001b0: f398 083b 0435 31b9 06c7 a83b 9cb7 803b
000001c0: cd3d c23a 493e f8ba 6ad8 873a 8ddf fc38
000001d0: 2df4 e6bb dcf8 00bb 637f 013c def6 0abc
000001e0: 690d 6eba e45a 8c39 7125 ae3a d79e beb9
000001f0: 6002 bc3a c64f 7bba f944 673b 7fe6 7a3a
00000200: 432a 2dbb ac81 63ba 2738 4a3a 7b1e 9bba
00000210: 9343 023a 9b2d faba 983f 18bb f90d 7638
00000220: a21e 0239 7fba d339 ccf7 2238 56ba c13b
00000230: 0e76 193b 6547 ddba 4f17 193b b742 4eba
00000240: 0b73 ecba 9692 303a dc2d d83c 2080 acba
00000250: 4083 cb3b 3962 01bb 8809 4ebb accb 7e3b
00000260: 4e59 3a3c d087 aaba 2b11 963b 84f4 fbbb
00000270: 94f0 7bba 7328 263b ff24 343b ba72 953b
00000280: 3997 c8b9 af00 0fbb 5de8 a3bb 78c5 0e3a
00000290: dbc7 80ba 4d31 4e3b e292 8cba 6df4 77b9
000002a0: fd68 a2ba 4252 03bb 150e 96b9 31d9 413c
000002b0: 093c 623b 7bb2 f1bb 027b a3ba f34b bfb9
000002c0: 0520 9d3a 7cc8 c2bb d3ce b13a 2e43 0e3b
000002d0: 21d1 3f3c 6bd8 02bb 5f4a 3437 82c1 fe3b
000002e0: fb44 e3ba 02f0 753a 0067 ee39 9ae6 52bb
000002f0: 28ae 2d39 ea5e 753b 4947 9f3a 378f 6739
00000300: 7515 4cbb 5b8b 0bbb 9011 92ba c984 eeba
00000310: 0592 19b9 c9d8 f83b 97cd f33b c294 26bb
00000320: 7544 11bb e9af ebbb 7011 303b 9696 28ba
00000330: 0aa7 fdbb 938b 6eba adbf 04ba 9e32 5cbb
00000340: 608f ba3b 497a f4b7 c38b c0ba dd5c 43ba
00000350: 90f9 5bba 5828 a6bb 2122 0dbb 3583 d4b9
00000360: cac8 13bd 052b b83b 051d c1ba 0209 2a3a
00000370: 638e 72b9 503e 41b9 cb1f 10bb 95d4 36bc
00000380: 99a0 06bb 1810 d63b 60dc 02bc d688 113a
00000390: e058 45bb 1ba8 1a3b 1e58 9e3b afc2 0ebb
000003a0: 6253 d8ba 6b07 aeba 9832 dc39 d5e0 9839
000003b0: 9edf 1abb caf9 eb39 2791 113b c942 8339
000003c0: ca67 083b 06b5 053b 47c6 7b3b 6556 51b8
000003d0: 5296 853b 09b9 bf3a 6547 8d3b 3641 333b
000003e0: 2644 1b39 5819 273b a951 b3ba 0917 a53a
000003f0: 2c0d 6f3b 3f2c 22bb 1e23 423b 6122 acba
0.0007673049 -0.0030714576 0.0038041703 -0.0015150709 0.008520141 0.05144098 0.0028813586 -0.004518297
0.000972421 -0.000902094 0.0007337696 -0.000483712 0.0022517056 0.001650439 0.0012326557 0.00024193458
0.0004883608 0.0016281416 -0.0060570235 0.0025106492 0.0032099278 -0.0026857178 -0.0037365688 0.0018626268
-0.0004473886 2.7381442e-05 0.027959047 0.0048217555 0.0034464044 0.0070900475 0.0018641923 0.0015662011
-0.0071781124 9.583349e-06 0.0032002984 0.00037829048 0.002163203 0.0038346967 -0.00083748176 0.0010743731
-0.0018472378 0.00038179892 0.0022036403 -0.0064989217 0.00034660136 -0.0034862042 -0.0026071873 0.0033814553
-0.0013294426 -0.0028632255 0.0007886617 -0.004371375 -0.005667483 -0.013761336 -0.00033144816 -0.007991079
0.0010396721 -0.0053955093 -0.00015777617 -0.0008817518 -5.5475877e-05 0.0015362449 -0.0012915327 -4.503669e-05
-0.0020327338 0.008279174 -0.002397514 0.0012967564 0.0019186969 0.008933236 -0.047341816 0.00066623563
-0.0040660617 -0.0034361777 0.004156979 -0.0069258558 0.0049888454 -0.00036727637 0.004382472 -0.0063562156
0.0027563276 0.0006601734 -0.00056681124 -0.009666176 -0.0059560505 -0.017873826 0.0019422366 0.00018820436
-0.0088051045 0.00686122 0.0007569747 0.0016185521 0.0015637841 -0.000566952 0.0008540358 -0.014522711
-0.0016168077 0.0006570308 -0.002848632 -0.002257238 0.00048399312 0.007592566 -0.00060536066 -0.0007948547
0.00042105242 0.0013942772 0.0011093412 -0.00023412249 0.0020843118 -0.00016899785 0.0051506786 0.003928138
0.0014819443 -0.0018939461 0.0010364179 0.00012057936 -0.007048151 -0.0019679582 0.0079039065 -0.008481709
-0.0009080978 0.000267706 0.0013286305 -0.0003635797 0.001434397 -0.00095867773 0.0035288914 0.000957109
-0.0026422895 -0.00086786854 0.0007714056 -0.0011834645 0.0004969176 -0.0019087078 -0.0023231264 5.8663984e-05
0.00012409178 0.00040384007 3.885459e-05 0.0059121056 0.0023416313 -0.0016882239 0.002335984 -0.00078682177
-0.0018039657 0.000673571 0.026389055 -0.0013160743 0.0062107146 -0.0019742383 -0.0031438787 0.0038878722
0.011373831 -0.0013010446 0.0045796833 -0.0076890606 -0.0009610739 0.00253537 0.0027487872 0.0045607956
-0.00038259642 -0.0021820476 -0.005002065 0.0005446295 -0.0009825187 0.003146249 -0.0010724927 -0.00023646811
-0.0012390908 -0.0020038043 -0.0002862072 0.011831568 0.0034520647 -0.007376013 -0.0012472572 -0.00036486945
0.0011987692 -0.0059443098 0.0013565667 0.0021707523 0.011707575 -0.001996542 1.0746152e-05 0.007774533
-0.0017339283 0.0009381772 0.00045471638 -0.0032180906 0.00016563444 0.0037440606 0.0012151982 0.00022083228
-0.003114072 -0.002129278 -0.001114415 -0.0018197532 -0.00014645614 0.007594202 0.0074402797 -0.0025418256
-0.0022166048 -0.007192601 0.0026865862 -0.00064311305 -0.00774086 -0.00090997777 -0.00050639623 -0.0033599506
0.005693361 -2.914401e-05 -0.001469009 -0.00074524974 -0.0008391375 -0.0050707273 -0.0021535235 -0.00040533548
-0.03608016 0.0056203627 -0.001473338 0.00064863276 -0.00023131962 -0.00018429128 -0.0021991606 -0.011159082
-0.00205425 0.0065326802 -0.007987112 0.0005551701 -0.0030112788 0.0023598734 0.0048322817 -0.002178352
-0.0016504342 -0.0013277357 0.00041999365 0.00029159212 -0.0023631821 0.000450088 0.0022211762 0.00025036026
0.0020813816 0.0020402088 0.0038417743 -4.9909944e-05 0.0040767575 0.0014627288 0.0043114894 0.0027352101
0.00014807339 0.0025497284 -0.0013680953 0.0012595366 0.0036476357 -0.002474561 0.0029622982 -0.0013132804

features.conv1.bias f4 [28]
00000000: b13f 86bd 08a2 f23a 46cb 51bf c063 533f
00000010: 1f0c 83bd 3fa6 33bf 2d01 3abf e6de 3bbf
00000020: 5d61 e6bd 5ac2 383c 381b 0bbe bebe aabe
00000030: b23d aabe 7fe4 dabd 5159 6d3c c6b7 32bf
00000040: 297c 21be 4f7e 1bbf e487 52bf 7e86 adbe
00000050: 8bd1 873c e1be 1bbf bb24 04bf 2379 26bf
00000060: 453a f9be 5121 96bd e204 33bf fb28 c6bd
-0.06555117 0.0018511424 -0.81950796 0.8257408 -0.06398796 -0.70175546 -0.72658044 -0.7338699
-0.11249039 0.011276806 -0.13584602 -0.3334865 -0.33250195 -0.106881134 0.014486627 -0.69811666
-0.1577002 -0.60739607 -0.822386 -0.33891672 0.01657941 -0.60838133 -0.51618546 -0.6502859
-0.4867727 -0.07330573 -0.69929326 -0.09675785

features.conv1.weight f4 [28, 3, 3, 3]
00000000: 52b6 8dbe b587 25bf f597 63bf a0b8 0d3e
00000010: b49b 1dbe 8bb3 b63e 135c 5c3f d4c9 2d3f
00000020: d47f a1bc 7324 823e 4bcf 5d3e ceed a03e
00000030: c989 6cbe be75 1c3e 7d33 253f 126e d9be
00000040: 7fa4 b7be d295 5cbf 6598 753e 46f6 cb3d
00000050: df65 cc3d b45f 82be b7b6 813e 912b 1b3f
00000060: 52bc 99be da31 2cbd b262 e2be d84d fc3e
00000070: 39d3 083f 59a0 613e 1b0c 1ebf a2b3 49bf
00000080: cdc1 42bf 8d54 cc3e 8da1 193e 0bef e53e
00000090: 34e0 233e 3380 903e 8583 c93e 1baf 21bf
000000a0: 6e95 17bf 4800 0bbf d165 9b3e aa7f f13d
000000b0: 9b66 d03d b35f 823e 10c2 973e 6f4b 123e
000000c0: 8e79 b3be 6ca7 c8be 1f95 22be be6b 6fbd
000000d0: 88b0 003f ca6a d63e dcba 4c3e a1f2 07be
000000e0: 34ca e2be a0fd 5abe b963 a5be 837f 933e
000000f0: 3637 283e 3b3d 30be 4c22 163f 4c4e 263f
00000100: 392b adbe 7f5b a4be f99c a93e 8253 73be
00000110: f936 3a3e cc62 433e 7f91 f3bd a2f6 8c3e
00000120: 77b0 523e 5539 e9be 54f6 c2be b28f c4bc
00000130: 9598 58be 3e69 b0bd 1dcd 093f e993 9bbc
00000140: 45c3 49be 3295 c3bd 5d65 cdbd 8b2c d9be
00000150: ac7b 913d d436 98be 6415 04bf 01f5 0dbf
00000160: 3cc0 32bf 521e 69bf 4853 1c3e 7fba 403e
00000170: 0733 003f 124c 933e c513 893e f39e b73e
00000180: 8709 c73e 1dc8 f33e 83fc 123f a6f5 dfbc
00000190: 534c 0bbe 4653 98bc 5d3a 4fbe 9831 c93b
000001a0: fda5 223e d46d 153e 9666 2f3e cd56 a33e
000001b0: a65c db3e 1b0f b43e 81c8 a63e 7ac6 763e
000001c0: 5455 563d 9142 2c3d 37cf fbbe 1ca6 d6be
000001d0: 75e2 0abf f72b 813e 6aeb 593e 7d27 b33e
000001e0: ecbf 283e f223 543e 3615 183e 63ed afbe
000001f0: 7b55 cabe 40f2 f2be 65a2 9cbd ce5d 083d
00000200: 2156 533e eb6f 373e 5263 d8bb 732d 703e
00000210: dd55 7cbe 2dd7 48be af23 84be b026 9dbd
00000220: a561 4a3e 01e9 be3e 956f eb3e 1489 e03e
00000230: 73ee cc3e 5731 a3bf d346 8f3d ec2f c6bd
00000240: b195 92bd 1cc3 f9be 32d5 e9bc 00a5 353f
00000250: 913a 07be 650a 95bd 94e5 3bbf fe69 22bd
00000260: 6b73 a2be 76e2 04be 0512 f1be 04ea f3bc
00000270: bbfe 0a3f f4d1 03be cc43 3e3e 4793 47be
00000280: 3f02 ed3e 2f35 233d 9f7d 54bf 4708 52bf
00000290: 2334 3fbf 80c6 d5bd 8e8a 8a3e 33c4 273e
000002a0: 59e7 153f 3548 103f df85 0a3f aefd 85be
000002b0: ebe0 62bc 5bd5 f33c 23c5 a6bd c161 843d
000002c0: 19d3 13be d7a2 d33d 587a 003f 7a34 d53c
000002d0: e0df 9ebd 63d9 a73d 34e5 ed3d ed43 49bd
000002e0: 1127 4a3e 8437 2bbd 08ac d2bd 60a3 583e
000002f0: fd1d 76be e6e0 9fbe ebee a6be a398 68be
00000300: 7a26 47bf 5ef9 02bf b759 93be a680 253e
00000310: 25e4 17bf 744e 4ebe 43f4 223f c4c0 f03e
00000320: e94d 9f3e a514 e33d ee06 b93d 0e4c d63e
00000330: fae7 0c3f f404 89be 6510 7a3d 7865 093f
00000340: c967 d93e 14f7 d73d ecd7 13be 203a 4fbe
00000350: fbc5 163e bc24 a13d 4a01 b6be ed6c 0bbf
00000360: 1e7b e53d d30b 093f bdbb 1e3e 5dd2 5b3e
00000370: 5724 943e ccd8 e0be ec20 393e 4c62 c2be
00000380: 0f28 f7be 8d78 873e 22c9 993e cb58 babe
00000390: 1de8 c53e c5f4 29bd 3ddb 02bf ba7d 783d
000003a0: d151 d4be e3d6 c6be 32d0 1c3e 32dd dd3e
000003b0: 367e 74be db15 ab3e b407 713e cee9 d0be
000003c0: 59d2 96bb 2801 8fbc f7b2 a2bc be7d 87bc
000003d0: d228 73be 87e2 1bbe 3341 46be 424a 8abd
000003e0: 24a3 0c3e 0007 bcbd 77b1 bebe 6d16 99be
000003f0: cc0c 223f e61a d73e 917d de3e 4ef7 2f3e
-0.27678162 -0.646602 -0.88903743 0.1383996 -0.15391427 0.35683855 0.86077994 0.6788609
-0.019714274 0.25418434 0.21661107 0.3143143 -0.23099436 0.1527929 0.6453169 -0.4246679
-0.35867688 -0.8616611 0.23983915 0.09959082 0.09980368 -0.2546364 0.25334713 0.6061335
-0.3002649 -0.04203973 -0.44215924 0.4927814 0.534473 0.22033824 -0.6173722 -0.7878972
-0.76076967 0.39908257 0.15003033 0.44908938 0.16003495 0.28222808 0.39358154 -0.63157815
-0.59212387 -0.54297304 0.30351117 0.11791928 0.101758204 0.25463638 0.29640245 0.14286588
-0.35053676 -0.39190233 -0.15877198 -0.05845236 0.50269365 0.4187835 0.19993156 -0.1327615
-0.44294894 -0.21385813 -0.32302645 0.2880822 0.16427311 -0.17210858 0.5864608 0.6496322
-0.3382204 -0.32101056 0.33127573 -0.23762324 0.18185033 0.19080657 -0.118929856 0.27531916
0.20575128 -0.45551553 -0.38078558 -0.0239943 -0.21151955 -0.08613823 0.53828603 -0.018991427
-0.19703396 -0.09549941 -0.10029099 -0.42416796 0.07103667 -0.2972933 -0.5159514 -0.5545197
-0.69824576 -0.9106189 0.15266144 0.18821143 0.5007786 0.28768975 0.26772895 0.35863456
0.38874456 0.47613612 0.5741655 -0.027338814 -0.13603334 -0.018594395 -0.20237108 0.0061399452
0.15883632 0.14592677 0.17128977 0.3190216 0.42844123 0.35167775 0.32574847 0.2409915
0.05232747 0.04205567 -0.4918153 -0.41923606 -0.54251796 0.25228855 0.2128121 0.34991065
0.16479462 0.20716837 0.14851841 -0.343608 -0.3951834 -0.47450447 -0.07648162 0.033292584
0.20638324 0.17913787 -0.006603637 0.23454838 -0.24642129 -0.19613333 -0.25808474 -0.07673395
0.19763811 0.37287143 0.45983568 0.43854582 0.40025672 -1.2749432 0.069959305 -0.09677109
-0.071574576 -0.4878167 -0.028544042 0.70954895 -0.13205935 -0.07277373 -0.73397183 -0.039651863
-0.31728682 -0.12977013 -0.4708406 -0.029774673 0.5429494 -0.1287306 0.1858055 -0.19489776
0.46290776 0.03984564 -0.8300418 -0.8204388 -0.7468893 -0.104382515 0.27058834 0.16383438
0.58556134 0.5636018 0.5411052 -0.26170105 -0.01384757 0.029764822 -0.081430696 0.064639576
-0.14435996 0.103337936 0.5018668 0.026026 -0.077575445 0.0819576 0.11615983 -0.049137045
0.19741465 -0.04180099 -0.102867186 0.21156073 -0.24034877 -0.3122627 -0.32604155 -0.22714476
-0.77793086 -0.51161754 -0.28779384 0.16162357 -0.59332496 -0.20147115 0.63653964 0.47022069
0.31114128 0.11087922 0.09034525 0.418549 0.5504147 -0.2676159 0.06105079 0.53670454
0.42461994 0.10545173 -0.14437836 -0.20237017 0.14723961 0.07868335 -0.35547858 -0.5446308
0.11205123 0.5353367 0.15501304 0.21466966 0.28933975 -0.43915403 0.18078965 -0.3796562
-0.4827275 0.2645916 0.30036265 -0.3639587 0.3865365 -0.041493196 -0.5111578 0.060666777
-0.4146867 -0.3883582 0.15313795 0.4333282 -0.2387627 0.33415112 0.23538095 -0.4080338
-0.004602712 -0.017456606 -0.019860728 -0.01653945 -0.2374604 -0.15223132 -0.19360809 -0.06752445
0.13734108 -0.09181023 -0.3724477 -0.29899922 0.63300776 0.4201271 0.43455175 0.17184183

features.conv2.bias f4 [48]
00000000: 503d f7be e967 eabe 270e 4cbe e590 153c
00000010: a199 313f 0569 dfbe 6220 20bf f7cf a6be
00000020: 31b0 81be 3632 fbbe d463 2fbf 7591 aa3e
00000030: a1ac e6be 7457 1c3e d122 c33e aadc 92bf
00000040: f0e5 213e 6d3b 3dbf 9e52 06bf 3fcf 963d
00000050: 1814 f7be f482 bbbe 8a57 1fbf 85f8 e8bf
00000060: 20b3 febe b1c6 03bf a943 43bf 7595 9dbe
00000070: 08e3 3fbe 3d83 acbe dcf9 c0be cf25 e4be
00000080: 6be3 28bf 65a1 f2be 469c 04bf bd3f 2abf
00000090: 87af 02bf cbcf 09be 99df 44bf a0a0 8abf
000000a0: a4b2 0abf 430d 81be 200a 13be 0c1e 973e
000000b0: eac5 f6be 05e0 04bf 66af afbe 5ee8 b7be
-0.48288965 -0.45782402 -0.19927274 0.009128784 0.69375044 -0.4363481 -0.6254941 -0.3258054
-0.25329736 -0.49061745 -0.685117 0.333141 -0.4505358 0.15267736 0.381125 -1.1473591
0.1581037 -0.739188 -0.52469814 0.07363748 -0.48257518 -0.36623347 -0.6224295 -1.8200842
-0.49746037 -0.51475054 -0.76275116 -0.3077809 -0.1873895 -0.33693877 -0.37690628 -0.44560096
-0.6597201 -0.4738876 -0.51800954 -0.66503507 -0.51049083 -0.13458173 -0.7690368 -1.0830269
-0.54178834 -0.2520543 -0.14359331 0.2951511 -0.4819787 -0.51904327 -0.34313506 -0.3591947

features.conv2.weight f4 [48, 28, 3, 3]
00000000: 773d c53e ba3d c83e cc33 a93e 114f 883e
00000010: ec6c 6a3e 5d74 f73e 5ec8 f9be 1070 c2be
00000020: 6d79 edbe 9d25 593e eec6 1cbf 20f5 0abf
00000030: d621 be3e 10d4 a7be 9d80 d03e daac 91bf
00000040: 3491 13bd daef 533f db4f 03bf 6b24 683e
00000050: f1a2 e1be bf55 d43e 5da5 d7be 4e13 0ebe
00000060: e2ca 8bbe d3b0 f83e 78e0 a9be b09e f73e
00000070: 3cee 7bbe 0cf4 a1bc de25 49be 8cb6 52bf
00000080: 5e45 5c3a 3c79 ea3e 4c1f 2e3c 2bea 4e3f
00000090: 3781 5f3e c7e7 f5be 5c20 ed3d 6815 aebe
000000a0: d477 eebe ebba 473f ccbd 30bf b2fb 91bd
000000b0: 722e a33e a5c8 fc3c c746 bf3e 705b a83e
000000c0: c68b 9ebe 48da bfbd f42f 5e3f d7bb 8bbe
000000d0: c430 8ebe 4b1d 0dbe 1f72 24bf 551d 13be
000000e0: b5fd 19bc 213a 6f3e 2f78 023f d938 1d3f
000000f0: aafa 053f 1a28 51bc b6c5 d7be 7cf6 cb3e
00000100: 3191 c03e c3b1 9ebd 91e5 a53e f164 753e
00000110: 3290 96be 4cbc cbbe d246 f63e 5191 ce3e
00000120: f756 cd3c 3cb1 db3d d421 50bf ed9c 8d3f
00000130: 16f2 083f 4ed0 623e f8ac 05bd afaf 8ebe
00000140: dc7f 00be 8e6d 9b3c 5573 043e 026f 1b3e
00000150: b562 81be d3a3 b0bd a0ec adbe 1d94 34be
00000160: 2cca e7bd 3c07 cebe 4a4e 6abd 8f6b 3ebf
00000170: 432a 983f 2898 e5be e081 a93e 478f 503c
00000180: dacc fc3d 5859 763e b8e4 743d 4762 7b3e
00000190: aeee 2bbc dce4 c5bd b9d2 fc3c 5be2 5fbe
000001a0: 5686 48bd 1660 2ebe b6d5 303c ac70 563f
000001b0: a209 80bf 8833 46bf a468 d93d d53f 3ebf
000001c0: c020 173d e707 5e3f 3750 883b dc37 863e
000001d0: fb70 1f3f 79b7 893d 1706 37bf 3f5a 2bbe
000001e0: 659e bfbe e1b1 59be 6ad1 1ebf ef9e 10bd
000001f0: 2956 363f ba34 d93e 41c4 0dbf fec8 c4be
00000200: 5ecb 1b3f cb4f c9be 93bc 053e f6d9 413e
00000210: dd26 123e 8595 2ebe 2ffb 01bf 2947 933e
00000220: c4b7 ff3e 7532 69bf 132f 0b3d e16c 0dbf
00000230: 67e3 e8be 1816 1cbe 60b4 f53e 681b 71bf
00000240: 9400 d4bd ac79 01be 95a4 3ebf dbb9 5c3d
00000250: f04d b73f 003d 303e 3a71 903e 8a0f e13d
00000260: ded6 bb3d 3f99 183f 84cf f4be 50ee 7e3f
00000270: d67b 033f 9bda d0be dce6 9b3e a351 2fbe
00000280: b53d 6ebf 9efd e1be b89f d63e b3c6 163f
00000290: 4e4f 19be c4d5 c5bd b53b 5a3e dc25 513d
000002a0: f896 9e3d 88a5 4b3e 6773 793e 02e5 8abe
000002b0: 0443 3c3f c49e 9cbe 8bc7 60be 7008 2f3e
000002c0: 3814 473f eb73 a2be 84de b3be eb65 4c3e
000002d0: e765 5a3f b11d 053e c914 61bf 0358 a03e
000002e0: 55fc a3be 7337 24bf 210f 3cbf 8c51 d9bd
000002f0: 43ab 24be 61df 11bf f2f5 873e d46b f9be
00000300: a525 c3be 7df3 a83e 52f0 de3d 4aec 9abe
00000310: c8b7 6bbf 7d49 023f 743d 2f3e ad5b 5c3e
00000320: 7573 83be 8467 533e d803 f93e 9ff0 6abe
00000330: 0b5d 72be 418b 933e 819f 96be 8fe4 ef3e
00000340: 34a6 913d 95de 9bbe aa76 b23e 3a6c 07be
00000350: 8baa 86bf 7c6e fabe 652b 80be b687 233e
00000360: 82f8 473f 5521 5abd 7fe2 dcbe ee99 893e
00000370: a577 a5be 1459 12bf db32 eb3c 0dc7 18be
00000380: ece6 9d3e c501 16bf 8861 1bbf 96ba 393f
00000390: 6cb8 05bc 78d9 e6be 2483 97be 3006 e7bd
000003a0: fd12 143f afd5 4abd 46ed a93e ce2e 2dbd
000003b0: 7111 c93e 5fcd 81be ff98 c4bd 40d9 5fbe
000003c0: f769 7cbe 1aad b33e e92e ca3e 8250 243e
000003d0: 0520 433f b024 2ebe a8cb 19be ca17 0d3f
000003e0: dd52 a4be 9f34 1b3d da60 203e 420e d1be
000003f0: 5ac8 193d 47d4 063e 30bc 0a3f 70bb 513e
0.38523456 0.39109594 0.3304733 0.26622823 0.22893113 0.48330966 -0.4878568 -0.37976122
-0.46381703 0.21205755 -0.6124104 -0.5428028 0.3713519 -0.32778978 0.40723124 -1.1380875
-0.03602715 0.8278786 -0.51293725 0.22670142 -0.44069627 0.4147167 -0.4211835 -0.13874552
-0.27303225 0.48572406 -0.3317907 0.48363256 -0.24602598 -0.01976969 -0.19643351 -0.82309794
0.00084026705 0.4579562 0.010627579 0.8082606 0.21826635 -0.48028395 0.11578438 -0.34000707
-0.46575797 0.7801959 -0.6903961 -0.07128085 0.31871372 0.030857394 0.37358686 0.3288226
-0.30966014 -0.09367806 0.8679192 -0.27291748 -0.2777158 -0.13780706 -0.64236635 -0.14366658
-0.009398867 0.23362018 0.50964636 0.6141487 0.5233561 -0.012765909 -0.4214303 0.3983649
0.37610772 -0.07748749 0.32401708 0.23964287 -0.29406887 -0.39792097 0.48100907 0.40345243
0.025065882 0.10727164 -0.8130162 1.1063515 0.53494394 0.22149774 -0.03263566 -0.2786841
-0.12548774 0.018973138 0.1293462 0.15179065 -0.2527062 -0.08624997 -0.33969593 -0.17634626
-0.11317858 -0.40239894 -0.05720357 -0.7438287 1.1887897 -0.44842649 0.331069 0.0127294725
0.1234376 0.2405752 0.059788436 0.24549209 -0.010493917 -0.09662792 0.0308622 -0.21863692
-0.048956238 -0.17028841 0.01079314 0.83765674 -1.000294 -0.7742238 0.10615662 -0.7431615
0.036896467 0.8673081 0.004159953 0.26214492 0.6228177 0.06724448 -0.7149367 -0.16733645
-0.37425533 -0.21259262 -0.6203829 -0.03530782 0.7122522 0.4242304 -0.55377585 -0.38434595
0.6085719 -0.3931869 0.13060217 0.18930802 0.14272638 -0.17049225 -0.507739 0.28765228
0.4994489 -0.91092616 0.03398044 -0.5524426 -0.45485994 -0.15242803 0.47989178 -0.94182444
-0.10351673 -0.1264407 -0.7446988 0.053888183 1.432066 0.1721077 0.28211385 0.10989292
0.09171842 0.59608835 -0.47814572 0.99582386 0.51360834 -0.40791783 0.3044957 -0.17120986
-0.9306291 -0.44138807 0.4191873 0.5889694 -0.14971659 -0.09659913 0.21311839 0.051061496
0.07743639 0.19887364 0.24360429 -0.27127844 0.7353976 -0.3058988 -0.2195112 0.17093062
0.77765226 -0.31729063 -0.35130703 0.19960754 0.8531174 0.12999608 -0.8792234 0.31317148
-0.32028452 -0.6414711 -0.73460585 -0.10611257 -0.16080956 -0.56981474 0.2655483 -0.4871508
-0.38114658 0.32998267 0.10885681 -0.302584 -0.920773 0.50893384 0.17113286 0.21519347
-0.25674024 0.20644957 0.48635745 -0.22943352 -0.23668306 0.2881718 -0.29418567 0.46854064
0.07111779 -0.30443254 0.34856158 -0.13224879 -1.0520796 -0.48912418 -0.25033107 0.15969738
0.7811357 -0.053254444 -0.43141553 0.26875252 -0.32317844 -0.5716717 0.028710773 -0.14919682
0.30840242 -0.5859645 -0.60695696 0.7255033 -0.008161645 -0.4508779 -0.2959224 -0.11280477
0.57841474 -0.04952019 0.33188838 -0.042280965 0.3927112 -0.25351998 -0.09599494 -0.21860218
-0.24649797 0.35093004 0.39488915 0.16046336 0.7622073 -0.17006183 -0.15019095 0.55114424
-0.3209447 0.03789198 0.15661946 -0.4083119 0.037544586 0.13166915 0.541934 0.20481658

features.conv3.bias f4 [64]
00000000: bd04 b6bd 8f9b c53b 686e 943e e7a0 2b3f
00000010: faaa ae3f 52eb a1bf 2c1d aebe d80a 573f
00000020: b37a 1c3f d463 7ebf 9224 4e3f 9aef 12bf
00000030: 6a33 153f 0abf 5fbe 46fc 81be 34ef 623d
00000040: 35eb 8d3f 473d 1ebf e8c0 8bbe a395 0dbf
00000050: 5d11 353e 85c9 aabe 6a78 b33c 2cec 263e
00000060: 42d2 48bf d262 30c0 3181 42bf 2b22 1cbf
00000070: c761 a8be 2503 cc3e ce3b e13d 735d 2dbf
00000080: 1928 d33f 3e20 12c0 e89a 533e bf32 ce3f
00000090: 66d0 71bd c484 f8be 6e62 05bf d018 36c0
000000a0: 066a 61bf 22c5 11bf c79b 96bf b392 5dbf
000000b0: d75f 823f 512b f03e e266 bebf 06a2 433d
000000c0: bc79 b33e 5990 323f ad66 1b3e 2dbe 383f
000000d0: 376c 613e 3272 16bc abb5 cf3e 9b45 50bf
000000e0: 44a9 f3be 7cf9 e3bf ffa3 963f 0312 d83f
000000f0: d9fb 72bf 2d9d aabd fb26 87be dfcf 793e
-0.088876225 0.006030507 0.28990483 0.6704239 1.3645928 -1.2649939 -0.3400663 0.8400092
0.61124724 -0.99371076 0.8052455 -0.5739685 0.58281577 -0.2185022 -0.25387782 0.055403903
1.1087404 -0.6181225 -0.27295613 -0.5530645 0.17682405 -0.33356872 0.021908004 0.1630103
-0.7844583 -2.7560315 -0.7597838 -0.60989636 -0.32887098 0.3984615 0.10997735 -0.6772072
1.6496612 -2.283218 0.20664561 1.6109236 -0.059036635 -0.48538792 -0.52103317 -2.8452644
-0.88052404 -0.56941426 -1.176629 -0.8655197 1.0185498 0.46908048 -1.4875147 0.04776194
0.35053813 0.6975151 0.15175886 0.72165185 0.22013937 -0.0091825 0.4056829 -0.8135621
-0.47590077 -1.7810512 1.1768798 1.6880497 -0.9491554 -0.0833076 -0.26396927 0.24395703

features.conv3.weight f4 [64, 48, 2, 2]
00000000: 39eb b6be e543 203f 5885 fa3d 0851 bcbe
00000010: 5bbd 9c3e ded1 e73c f074 8dbe a28d 55bd
00000020: 1391 bcbe 4e97 efbe 721b eb3e 8294 da3e
00000030: 2186 1dbf 567b b63e 8012 a23e 328c b33e
00000040: a5b4 71bf 02d8 44bf 986d 32be 21e0 203e
00000050: a303 99be 3e6f 53bf 3810 9bbe e62f d93e
00000060: 6f7b c53c 4fa0 1dbe 8a84 9fbe 6ab4 3aba
00000070: d2ca 513f 6d2d df3e 0960 6fbe b449 2ebe
00000080: f6f9 5dbe 364e 9dbe 35b6 f23d 21d9 bfbd
00000090: bf01 033f af64 903e b92f a13d a90a d93d
000000a0: 79c6 04bf 396a d93c c3d7 12bf e78a 503f
000000b0: 7826 833e d877 873f 7f17 543e 11e6 043f
000000c0: b86e eb3e d846 c13e 11d7 36bf 3093 4abe
000000d0: 9be3 393e ae76 ec3e f5da d4bd df70 633b
000000e0: 195a 1d3e b2a9 45be 9eae 26be 105d d0be
000000f0: 612e 8a3b cdfa 263f ac14 5cbd a51f 5c3d
00000100: 79dd 9cbe 8de5 083e 765d 81bf 4ff7 20be
00000110: f5ba 01bd a171 b0bf 4c88 8b3f b2a5 e8be
00000120: b58d 3fbf ff2a e13e 34db 623e 93d5 51bc
00000130: b095 c2be 8a8a a93f dfd4 8abe 8e39 e4bd
00000140: b4c1 92be 59de b83d b2b5 6bbd 6da4 32be
00000150: ab94 373e bffe 513f 55ca 8ebe 1bd8 fabe
00000160: e872 14be 73f3 313e fc78 7fbd 0cdb 18be
00000170: 95d4 18bf 576c e5bf bbfc 8c3e 4fb5 993e
00000180: d8de a8be ff99 603f ce0c 10be 501e 3d3f
00000190: 5d41 2ebf d9b9 2bbf 0f15 84bd b28b de3e
000001a0: a4c8 773e 1cd1 583f a841 84be 5335 3fbf
000001b0: 0f98 f63e fa50 e8be 00f5 cf3d 4274 95bd
000001c0: 0c42 dc3e 66f5 96be ada2 b3be 5af0 ebbe
000001d0: 4c23 45be 2d36 b8be 3426 3bbe b7da c83d
000001e0: 90e0 9d3d d849 80bf 42e7 e53d 0e96 15bd
000001f0: 10df f33d a69b b93f 1641 98be 4060 44bf
00000200: 0153 e9be d9f8 03bf 9ddd f53d 46a8 dd3d
00000210: d98a 4abe 0fe9 70be 48f2 c73e 2992 9dbe
00000220: 0555 ed3e f585 173f 141d 453e 44c7 aa3d
00000230: 98c9 c63e a660 ed3d 3d3e 29be c46d 923e
00000240: 71da b8be 5737 90bf 486f 82be 72bb 27bf
00000250: 2427 e1bd a6de 7c3e 7bd9 a7bd 7b08 46bd
00000260: e1ef 1b3e 1cbc 16be 2c0d 8d3e 7c48 dc3d
00000270: 79ed 623f 35b9 973e 1805 2bbf 3335 b8be
00000280: d497 8dbf f108 8cbe c01e 2fbd 3de6 5d3d
00000290: fe89 fd3b 4ef1 48be 75d3 4f3e 65e9 10be
000002a0: c0d0 21bf dcec 46b9 3eda c5bd d4fe 1dbf
000002b0: 4928 3bbf 751d 3cbf d75a bd3e a12a 0b3f
000002c0: 2a0e dbbe d24e 4f3e 021b 5e3e 2dbd 1ebe
000002d0: 85c4 89be 1c3e 753e dfe7 8d3e e353 e9bc
000002e0: 0918 86bf b3f5 7f3f ec9f b8bd db34 1a3d
000002f0: b440 e03e cd29 57bf 1452 273e b918 1abf
00000300: 713d edbd 0d13 b23d e396 4fbe 504e c5be
00000310: 2cea edbe e18c 593e 21a2 61be befa 723e
00000320: ab3e f3bd 929b d4be 2f6d cbbe 9faf f4bb
00000330: 9e09 d0bd 4249 cd3e b9a4 29bf 14a0 b43d
00000340: 47de 453e a9ab 8dbe 1320 18be bf08 823d
00000350: e23a db3e f7bc 05bf 052d 02bf c571 95be
00000360: 14b6 763c 4566 2a3f b7f5 8bbe eedc d23e
00000370: a0df c9be 8a2c 293e 5b76 1f3d 4482 c03e
00000380: 99c1 0bbe 80fe 0abf 1d29 1d3f 07b7 9dbe
00000390: 2565 9abe 5a15 243f d52d bebd a755 383f
000003a0: 8d51 a63e 7ad4 3bbe cfb0 8c3d d29e 9d3d
000003b0: 3872 003d 55fb 3c3f e891 9abe 32d8 843f
000003c0: 61fa 28bf 1c46 9a3e 5a73 513e 40cb d7be
000003d0: 7208 d13d cec0 1a3f dde7 3cbf 4fb1 efbe
000003e0: a6c4 dc3e 3285 793d edd2 56bd 60d4 353f
000003f0: d163 903e 655c 763f 7c32 61be 9ec8 c03e
-0.35726336 0.626036 0.122324646 -0.36780572 0.30613217 0.028298315 -0.2762828 -0.052137025
-0.36829433 -0.46795124 0.45919377 0.42691427 -0.6153279 0.35640973 0.3165474 0.35067898
-0.94416267 -0.768921 -0.17424619 0.15710498 -0.29885587 -0.8259162 -0.3028581 0.42419356
0.02410671 -0.15393184 -0.31155807 -0.00071222207 0.81950104 0.43589345 -0.23376478 -0.17020303
-0.21677384 -0.30723733 0.118511595 -0.09367586 0.5117454 0.28201815 0.078704305 0.105977364
-0.51865345 0.026539909 -0.57360476 0.8146195 0.25615287 1.0583448 0.20712088 0.51913553
0.4598291 0.37749362 -0.71421915 -0.1978271 0.18153231 0.46184295 -0.10393325 0.0034704728
0.15366401 -0.19303015 -0.16277549 -0.40696 0.0042169546 0.6522644 -0.05373065 0.053741116
-0.3063772 0.13368817 -1.0106647 -0.1571934 -0.031672437 -1.3784677 1.090097 -0.45438915
-0.748256 0.43978116 0.22153932 -0.012807268 -0.38004827 1.3245404 -0.27115533 -0.1114379
-0.2866341 0.090267844 -0.057546325 -0.17445536 0.17927806 0.82029337 -0.27888742 -0.48993
-0.14496958 0.17378025 -0.06237124 -0.1492731 -0.59699374 -1.7923688 0.27536568 0.3002114
-0.32982516 0.8773498 -0.14067385 0.7387438 -0.68068486 -0.67080456 -0.06449329 0.43465954
0.24197632 0.84694076 -0.25831342 -0.7469074 0.48162887 -0.4537428 0.10154152 -0.07297565
0.4301914 -0.294841 -0.3508505 -0.4608181 -0.19251746 -0.35978833 -0.18276292 0.098073415
0.077088475 -1.0022535 0.112257496 -0.036520056 0.1190778 1.4500625 -0.29737157 -0.76709366
-0.4557114 -0.51551586 0.1200516 0.10823111 -0.19779529 -0.23526405 0.39052033 -0.30775574
0.46353927 0.5918878 0.19249374 0.08338788 0.3882568 0.115907 -0.16527648 0.2859937
-0.36104158 -1.1266888 -0.25475526 -0.65520394 -0.109937936 0.24694309 -0.08195778 -0.04834793
0.15228225 -0.14720196 0.27549112 0.10756013 0.88643605 0.2963349 -0.6680465 -0.35978088
-1.1061959 -0.27350572 -0.042753935 0.05417465 0.007737397 -0.196233 0.20295508 -0.14151533
-0.6320915 -0.00018970988 -0.09660767 -0.6171696 -0.73108345 -0.7348245 0.36983368 0.5436192
-0.42784244 0.20244911 0.2168999 -0.15501852 -0.26907745 0.23949474 0.27715966 -0.028482383
-1.0476085 0.9998428 -0.09014878 0.037648063 0.43799365 -0.8404816 0.16339904 -0.60193974
-0.11583985 0.0869504 -0.20272402 -0.3853631 -0.4646772 0.21245147 -0.22034504 0.23728463
-0.11877187 -0.4152494 -0.39731738 -0.0074672247 -0.10158084 0.40094954 -0.6626697 0.08819595
0.19323073 -0.2767003 -0.14855985 0.063493244 0.42818362 -0.5224146 -0.50849944 -0.29188362
0.015058059 0.665623 -0.27335903 0.4118418 -0.39428425 0.16520897 0.038931232 0.37599385
-0.1364807 -0.54294586 0.6139086 -0.308037 -0.30155292 0.6409508 -0.092860855 0.72005695
0.32484093 -0.18342772 0.06869661 0.07696308 0.031358927 0.73821 -0.30189443 1.0378478
-0.6600705 0.30131614 0.2045416 -0.42147255 0.10206689 0.60450447 -0.73791295 -0.46814963
0.4311878 0.06091804 -0.05244725 0.71027184 0.28201154 0.9623473 -0.21991915 0.3765306

features.conv4.bias f4 [128]
00000000: 7b86 82be eadd 88be f815 5e3e 4078 8c3e
00000010: ee27 0040 2c36 61bf 5c58 25be 8ce6 95be
00000020: d44f e03e 3391 383e c219 fabc 83f4 36be
00000030: d12d 30be 81c3 8cbe 7a76 a53e 7c42 11bf
00000040: c332 bbbd fcd9 7dbe 6683 2cbf 4c43 90bc
00000050: d306 443e ea2e fabd 4c3f 283e d600 4ebd
00000060: cc00 25be 316f 74be e6af 07bf 230e 63be
00000070: 4eca 233f 6f77 043d f57b 5e3f 19ba 2abd
00000080: 89e7 cabd 0ed7 2fbe 3e51 833e b3e1 26be
00000090: 2dd5 1940 cf4e 9dbc 8310 b03d 687a e63e
000000a0: fbeb a9bd c672 9ebc 829b 1cbe bf63 83be
000000b0: a81e 0c40 0cdc c83e 9424 233e 3503 6dbe
000000c0: d93d 41be d227 2440 1f39 53bd b8bc c9bd
000000d0: 5e45 b3be 7ba8 8ebe 1be2 223f 93cb 1cbd
000000e0: 1f78 c23c e7f2 da3d 1a96 83be 489f 09bc
000000f0: 8548 863e 49ff e83d d02c 503e 48df c13f
00000100: b26c e3bc bba1 1bbe cc7f be3d 4f46 223f
00000110: 48ea 163d e1ee 5cbf 9a0b 76be ef4f a43d
00000120: 0b13 bfbd 24a6 bfbf 1c87 f33e a86e c2be
00000130: fd07 ffbc df1e 58be 6867 0cbf 7c80 b1ba
00000140: 1aa1 fbbd 8bab 99be 1ac2 2a3e 47e7 8bbe
00000150: 4caf 86bd ced4 b4bd 6937 0ebe 33ed 9c3f
00000160: b630 a1be 7fb9 e7be 2cd1 07be 9a54 f23f
00000170: 0887 a93d dbce 82bd d8f2 1cba 517a 0fbe
00000180: b2e6 0c3f 0c19 a93d e903 8cbf b90e 9cbe
00000190: 0590 a63e 7797 83be f4d8 11be dfff 303f
000001a0: b344 873e b44d 70be 6f45 aabd 1d11 bd3e
000001b0: 3479 01be a7df 163f 5d0b 1dbe 45cc a4bd
000001c0: 3557 933e 4bee 4fbe 2049 b13e ba85 9e3d
000001d0: 5039 2e38 bc02 4fbd bd5f 343f 1bd1 b43f
000001e0: 0e55 0140 d99e f03d c0a3 a63e 86c9 c53e
000001f0: 1343 b2bd c642 eebf 4af6 083d 7674 0540
-0.25493225 -0.26731807 0.21688068 0.27435493 2.002437 -0.87973285 -0.16146988 -0.29277456
0.43810904 0.18024139 -0.03052986 -0.17866711 -0.17204978 -0.27492908 0.32316953 -0.5674207
-0.091405414 -0.24790186 -0.67388 -0.017610215 0.19143228 -0.122159794 0.16430396 -0.050293766
-0.16113585 -0.23870541 -0.53002775 -0.22173361 0.6398057 0.032340463 0.86907893 -0.041681383
-0.09907443 -0.1717188 0.2564792 -0.16297035 2.4036362 -0.019202618 0.08596899 0.45015264
-0.08296963 -0.019341838 -0.15293697 -0.25662038 2.189371 0.39230382 0.15931922 -0.23145755
-0.1887125 2.5649304 -0.051568147 -0.09850448 -0.3501386 -0.27862915 0.6362626 -0.03828008
0.023738919 0.10690861 -0.25700456 -0.008399792 0.26227203 0.11376817 0.20329595 1.5146265
-0.02776179 -0.15198414 0.09301719 0.6338853 0.03684452 -0.86302 -0.24027863 0.080230586
-0.09329804 -1.4972577 0.47564018 -0.3797505 -0.031131739 -0.21105526 -0.54845285 -0.001354232
-0.12286587 -0.3001369 0.16675606 -0.27324888 -0.06576404 -0.08829652 -0.13888325 1.2259887
-0.31482476 -0.4525871 -0.13263386 1.8932068 0.08277708 -0.06387111 -0.0005987114 -0.14011504
0.55039513 0.082567304 -1.0938693 -0.30479982 0.32531753 -0.25701496 -0.14242917 0.6914043
0.264196 -0.23467141 -0.08314025 0.3692712 -0.12643892 0.58935016 -0.15336366 -0.08046774
0.2877747 -0.20305745 0.34626102 0.0774035 4.153821e-05 -0.050539717 0.70458585 1.4126314
2.0208163 0.11749048 0.32546806 0.38630313 -0.087042 -1.8614128 0.033438005 2.0852332

features.conv4.weight f4 [128, 256]
00000000: 9f18 23bd 4716 22be 35a4 e5bd f075 0bbe
00000010: 36cb 61be 4774 4cbe 2c64 e53d 7988 573e
00000020: bdda c13d a6ad 203d c1c9 9c3d 4b8e a13b
00000030: 042e 353e e177 72bd ff19 083e dbf9 dabc
00000040: e7c6 0ebe 47bc 9f3d a750 943d df7b 863e
00000050: c0b6 f0bd b0b8 3cbd fe2d 67be 3057 16be
00000060: d313 11be 7e33 e5bd ca6e 6e3d 5ee1 253e
00000070: e677 a3bd 8485 d5bd f105 85bd af4f 3fbe
00000080: 929d 01bd 284e 70be 1c6a c0be 88ce 81be
00000090: 464f 27bf eb72 86be a39b c6be 5643 75be
000000a0: 554e 3abd 44fe 1cb9 e3e6 4b3d be56 80bd
000000b0: b28b 21be 529e b1bd aa7e 40be f592 003e
000000c0: 033f 673c e529 edbd 6682 40bd bfca 2bbe
000000d0: f9a3 fdbd 20b4 94bc 37ab 92bd 3f6d b3bd
000000e0: eb72 fe3d 2c3b d83d 513d cb3d 76e0 f03c
000000f0: f528 14be 6d4f 8dbc 8013 f63b 4852 6dbd
00000100: 1f9c 4bbd 6e5f 63bd bb59 853d 5015 3b3c
00000110: a90d e73d ee29 a63d 79b4 303e 4242 743e
00000120: 586c 85be 0cda d6be 2341 e2bd 084d 6abd
00000130: 6595 c5be 0ecc f2bd 24da 143e e70a e0bd
00000140: 48ff 863e 3583 b73d 9a84 afbe 9d4f b4bd
00000150: 993a 00be 20e4 82bd 0d9b 2abd fe01 94bd
00000160: c4b2 0abd e4e2 90be 7dbb 38be 7d75 61bd
00000170: 1c86 abbd 33f7 61bd db9a c3bd 45ad 873e
00000180: 1ccb a53d 8c5d bb3d f6eb 7a3d 79d5 95bd
00000190: 0d36 61bc 21ea 313d df0b 48be a19e 6fbe
000001a0: 8649 f3be 1021 7fbe 6c78 a7bc ad29 04be
000001b0: 9c2d 65bc f833 9bbe 3a1b e1bd 9d39 2c3d
000001c0: 7af5 56be ca1f ceba 8ae7 d6bd 2dc5 9b3d
000001d0: 6121 32be a475 fbbd 12e0 c6bd 96b8 503d
000001e0: 68d5 c6be ce28 bcbd f569 11bf 0be2 a2be
000001f0: 3fad 6bbd 35cb 3c3d 66cc 9bbc a0fa 6cbe
00000200: 19d1 9dbe e3e8 cfbe e497 87be cf28 0dbe
00000210: 2ffa 713d 860a 32bd 4fbe 4a3d 9c48 38be
00000220: a85f 97bd c503 e93d a017 c7ba 5302 32be
00000230: d80e abbd efd4 d73c 02f8 183c 3350 12be
00000240: d2e0 14be 8689 983c d857 27be 0851 aabd
00000250: 7b1f 883d cc66 58bd fcc2 b03d 5b5e 15be
00000260: c182 6dbe cb70 73bd 9850 113e 3159 963e
00000270: 58c0 423d e74b 873e 9706 023e 5082 393e
00000280: 2bde fd3d 5be8 ff3c cb0c 7b3c a644 f8bc
00000290: 731b 0bbe 30a8 f7bd a36f 61bd c89a de3d
000002a0: e741 35bd b538 d7bd 23b4 9d3c 2112 89bd
000002b0: de36 49be 889f b5be b603 5ebd fd75 8cbe
000002c0: dd0a ad3c 59d7 0c3d ea2b 3d3d 6540 303e
000002d0: 20a2 25be 76c2 7bbe 3a43 80be d065 28be
000002e0: 8bc7 a3bd 0cb8 db3d 80fa cebd 78fa 8cbd
000002f0: 3b5e 75be 1d49 033e 7692 99be 9e22 4dbe
00000300: e0cf 7f3c a320 08be a019 023c ffd7 f5bc
00000310: ac8c ef3b 26f8 e6bd 413e bcbe 8761 46be
00000320: 1e18 d1bc 885f 80bd 9a00 b5bd abe1 c2bd
00000330: 15da ecbd 5e08 de3d c5aa c3bd 221a 4e3e
00000340: 416c 23bd 8274 07be 85ee 6cbe 7de9 15be
00000350: b801 e1bd 1cc1 78bd 1eb5 f63c b86c 09be
00000360: 8dcc fc3d e225 443d 0a27 18be 454f 0bbc
00000370: f6f7 80be 42c6 eebe 1122 ccbe 50c0 efbe
00000380: 2669 97be 47de cabe 7d8e bcbe 15fc f9bd
00000390: 9e8e 383d d7ec 0abe 52ba d3bd 4b9b 043d
000003a0: 3e6d fe3d 29f0 433e 6a5f d73d c78d 413e
000003b0: 26d6 803d 76bb 66bd 97f5 e63d 148a 953d
000003c0: e4f2 d3bc 95ba 203d b401 e7bb da65 5bbd
000003d0: dd29 963d 4770 bdbc d6ee c1bd 8ccd abbe
000003e0: 7ed8 bd3d 8f33 a0bd e1b9 ffbd ba03 60be
000003f0: 75b5 c7bd 0324 f3bc 49f7 07bd 13ca 41be
-0.039818402 -0.1582881 -0.11212961 -0.13619208 -0.22050175 -0.19966231 0.11200747 0.21048154
0.09465549 0.039228104 0.07655669 0.0049302927 0.17693335 -0.059196357 0.13291167 -0.026730468
-0.13943063 0.07799583 0.07241946 0.2626638 -0.11753607 -0.04607457 -0.22576138 -0.14681697
-0.14167719 -0.11191462 0.058211125 0.16199252 -0.07981853 -0.10425857 -0.06495274 -0.1868274
-0.03164441 -0.23467314 -0.37580955 -0.25352883 -0.65355337 -0.2625955 -0.38790616 -0.23951468
-0.04548486 -0.0001497204 0.049780738 -0.06266545 -0.15775946 -0.08672775 -0.18798319 0.1255606
0.014114144 -0.115802564 -0.046999358 -0.1677656 -0.12384791 -0.018152297 -0.07161563 -0.087610714
0.124242626 0.10558161 0.099238046 0.029403906 -0.14468749 -0.017249787 0.007509649 -0.057939798
-0.049709436 -0.05551093 0.06511255 0.0114186555 0.11281902 0.08113466 0.17256345 0.238534
-0.26059222 -0.41963232 -0.1104758 -0.05720237 -0.3859054 -0.118553266 0.14536339 -0.109395795
0.2636664 0.08960573 -0.34280854 -0.088042475 -0.12522353 -0.06391168 -0.041651774 -0.072269425
-0.03386189 -0.28298104 -0.18040271 -0.055043686 -0.08375189 -0.05516739 -0.09551021 0.26499382
0.08095381 0.09148702 0.061260186 -0.07316107 -0.013745797 0.043436173 -0.19535778 -0.23400356
-0.4751703 -0.24914956 -0.020443164 -0.12906523 -0.013987925 -0.30313087 -0.10991521 0.04204713
-0.2099208 -0.0015726027 -0.10493381 0.07605968 -0.17395546 -0.122782975 -0.09710707 0.050957285
-0.3883469 -0.091874704 -0.568023 -0.31813082 -0.057538267 0.04609223 -0.019018363 -0.23142481
-0.3082359 -0.40607366 -0.2648307 -0.13785098 0.059076484 -0.043467067 0.0494979 -0.17996448
-0.07391292 0.11377672 -0.0015189536 -0.17383699 -0.083524406 0.026346652 0.009336473 -0.14288406
-0.14538887 0.018620264 -0.16342103 -0.08316237 0.066466294 -0.05283241 0.0863094 -0.14586775
-0.2319441 -0.05943374 0.141909 0.29364923 0.047546715 0.26425096 0.12697826 0.18116117
0.12395891 0.031238725 0.015322874 -0.030306172 -0.1358469 -0.12092626 -0.055038106 0.10869366
-0.044252302 -0.10508863 0.019250935 -0.06692911 -0.19649836 -0.35473275 -0.054202758 -0.27433768
0.021123344 0.03438506 0.046184458 0.17212065 -0.16175127 -0.245859 -0.2505129 -0.16445088
-0.07997044 0.107284635 -0.10106373 -0.068837106 -0.23961727 0.12820859 -0.29994553 -0.20032737
0.015613526 -0.132937 0.00794068 -0.030010222 0.0073104706 -0.11277799 -0.36766246 -0.19373141
-0.025524195 -0.06268221 -0.08838005 -0.09515699 -0.11565033 0.1084144 -0.09554056 0.20127156
-0.03989816 -0.13228038 -0.23137863 -0.1463985 -0.10986656 -0.06073104 0.03011566 -0.13420379
0.123437025 0.04788769 -0.14858642 -0.008502786 -0.2518918 -0.46635634 -0.3986974 -0.4682641
-0.2957241 -0.3962271 -0.3682746 -0.12206284 0.045057885 -0.1356691 -0.10338272 0.03237466
0.1242318 0.19134583 0.10516246 0.1890174 0.062908456 -0.05633112 0.11277311 0.07301727
-0.025872655 0.03924044 -0.0070497636 -0.05356393 0.073322035 -0.023124827 -0.094693825 -0.33555257
0.09269808 -0.07822334 -0.124866255 -0.21876422 -0.09751407 -0.029680258 -0.033194814 -0.18924741

features.prelu1.weight f4 [28]
00000000: 72b4 2c3f fd63 823f cba7 783d 4731 0c3f
00000010: f169 f33d effe f73c f171 a83b 2ed7 c53c
00000020: ac67 1b3f 1622 4e3e dc40 8e3f 3b8a f6bb
00000030: 6717 3f3f a143 763f c7be 1b3f 430a 3d3c
00000040: 0b6b 1b3f d394 e139 7e3f 0f3c 04fe 3c3f
00000050: e903 513e aad1 32bc cbb8 9a3d beb9 a93d
00000060: 1bf3 16bd b733 123f cc05 363d ac02 8b3c
0.6746284 1.0186764 0.060706895 0.5476269 0.11885441 0.030272929 0.005140536 0.024150457
0.60705066 0.2013019 1.1113544 -0.0075238026 0.74645084 0.96196944 0.6083798 0.011538091
0.6071021 0.00043026227 0.008743165 0.738251 0.20411648 -0.010914246 0.07554778 0.08287381
-0.036852937 0.5711016 0.044439122 0.016969047

features.prelu2.weight f4 [48]
00000000: e779 8d3e cdfc 0f3d 5be0 073e 09c7 ff3c
00000010: 958a 943e 6865 a53e 81bf 2c3e a8c1 5e3e
00000020: 1219 09bd 8a83 4e3e ab26 623e c28e 6e3e
00000030: f143 443e 4303 2f3e 2336 a63c 047c 733e
00000040: e057 b23e 972d b33d 3583 3f3e 7972 633e
00000050: f59c 963e 8756 183e 6812 633e e0c5 e13e
00000060: f307 1d3d 94c9 e43d 8756 ca3c c0b7 973e
00000070: ede3 643e d041 793e e162 b43e 12f0 3f3e
00000080: 029a a83d b420 733e 3d2f 923e 95af ab3e
00000090: d249 d63d 8b5e 953e ac77 ad3e 9100 8c3e
000000a0: 4822 2e3e a95c 9b3d 4e21 173e cc4f 0a3e
000000b0: c698 a53e e3f6 723e 1ddd bd3e 4972 233e
0.27632067 0.0351532 0.13269179 0.031222837 0.2901198 0.3230393 0.16869928 0.21753561
-0.033471175 0.20167366 0.22085063 0.23296645 0.19166543 0.17091088 0.020289486 0.23777777
0.34832668 0.0874893 0.18702395 0.22211637 0.29416624 0.14876758 0.2217499 0.4409628
0.03833766 0.111712605 0.024699463 0.29632378 0.22352572 0.24341512 0.3523169 0.18743923
0.082325 0.23742944 0.28551665 0.33532396 0.10463299 0.29173693 0.33880365 0.27344182
0.17005265 0.07586033 0.14758798 0.13507003 0.3234312 0.23726992 0.3708276 0.15961565

features.prelu3.weight f4 [64]
00000000: cc44 7e3b 1783 63bc 4a36 143c bde3 35bb
00000010: 9cc5 1e3e 5fae 2dbd 84cb 6c3c f78d b23d
00000020: 7456 a33b aa0e 7e3b 1a45 293e d6bc 083d
00000030: 34c7 193d bddb a9bd a75f c4bc 2483 15bc
00000040: c3d7 81bd a87e a2bc 78fe 07bc bedc 893c
00000050: 425d 0d3d b294 d7bc d293 81bd df84 693e
00000060: 502f 6a3c ea34 783e 6887 b23a 365f d93b
00000070: 3f0c 40bc 8905 01be f24d a53a 0195 66bd
00000080: 101b aa3c 0632 473d ca1c 89bd bb73 c03c
00000090: a3b4 50bd 694a 68bc 4d03 c9bc f24f e43d
000000a0: ecca 603c 0008 08bd fb71 94bd 0e93 24bd
000000b0: 39b5 27bd 312d fd3d 4f88 9e3d edcb 00bd
000000c0: 6721 a33c 9091 8ebc fdf0 e6bc 5526 3b3d
000000d0: 2b8b 843c 6d9d 313c cad4 ef3d 7bcc 1f3d
000000e0: 030b f3bc 5447 a0bb 3997 e9bc e0ca 983e
000000f0: 3b76 033d fc69 55bc d9f4 b1bc cebc 053d
0.003879833 -0.013886235 0.009046147 -0.002775415 0.1550507 -0.04240262 0.014452819 0.08718484
0.0049846712 0.0038766065 0.16530266 0.033383213 0.03754349 -0.08293865 -0.023971392 -0.009125505
-0.063399814 -0.019835785 -0.008300416 0.01682889 0.034512766 -0.02631602 -0.063270226 0.22804593
0.014293507 0.24238935 0.0013620676 0.0066336645 -0.01172167 -0.12599768 0.001261173 -0.056294445
0.020764858 0.04863169 -0.06694944 0.023492685 -0.05095352 -0.014177897 -0.024537707 0.11148061
0.013720255 -0.033210754 -0.072483025 -0.040179305 -0.04094431 0.12362135 0.077408426 -0.03144448
0.019913388 -0.017403394 -0.028191084 0.045690853 0.016179642 0.010840756 0.11710508 0.039013367
-0.029668337 -0.0048913155 -0.028514491 0.2984228 0.032095175 -0.013025757 -0.021723198 0.03265076
